SourceCode/models/lstm/LSTM_closed_loop.pt (torch, 23391 bytes, 31 tensors)

weight_ih_l0 f4 [40, 2]
000000 0e e8 35 bd 67 23 b1 be 78 ea 0b be 6e 48 38 3e
       -0.044410758 -0.34597322 -0.13663661 0.1799638
000010 06 ea c3 3d f2 77 da 3d b8 e4 cd bc ad f9 ec 3d
       0.09566121 0.10667409 -0.025133476 0.115710594
000020 d1 b6 77 be 82 bc 1b 3e 64 85 d0 3d 4f 2e 93 be
       -0.24190833 0.15208629 0.10181692 -0.28746268
000030 92 ce 4e 3e 46 14 ea 3d f1 8f 9b be 70 56 7a be
       0.20195988 0.11429648 -0.30383256 -0.24447036
000040 09 83 eb bb 05 c1 34 3e 1a b5 a9 3e b4 51 75 3e
       -0.0071872515 0.17651756 0.33145982 0.23956949
000050 17 f5 34 3c 5f f0 b4 bd f9 7e fa 3d f0 78 d3 3d
       0.011044762 -0.0883491 0.12231249 0.10325801
000060 34 a9 54 3e cf 15 83 bd b8 84 68 3e da 2e 59 3e
       0.20767671 -0.06400644 0.22706878 0.21209279
000070 c1 36 68 3e 09 27 19 be 1d a1 1e be 71 9d 8d 3e
       0.22677137 -0.14956297 -0.15491147 0.2765918
000080 3d 85 7f 3c 79 30 9a be 27 0c 4b be 16 11 3e 3e
       0.015595731 -0.30115107 -0.19828855 0.18561205
000090 65 cc 0a be 3c 79 d6 bd 22 d3 2b 3e 65 ae 86 3d
       -0.13554533 -0.10472342 0.1677976 0.06576232
0000a0 04 b8 c5 bb 4c af af 3e 6d 2f 0d be bc 81 de bd
       -0.0060338993 0.34313428 -0.13787623 -0.108645886
0000b0 da f2 2a 3d 99 05 82 be 83 c0 b6 be 68 51 54 3d
       0.041735508 -0.25394896 -0.3569375 0.051835448
0000c0 18 f7 19 be 9e 00 09 3d 77 47 8d be 11 82 2c bf
       -0.15035665 0.033447854 -0.27593586 -0.67385966
0000d0 f0 fe 92 3e 4e 0d a8 be a0 c6 3a 3e 3c 3e df 3e
       0.28710127 -0.3282265 0.18239832 0.4360217
0000e0 32 aa 04 3e a4 81 1a 3f 04 48 79 3d 9a 96 11 3f
       0.1295555 0.60354066 0.060859695 0.56870425
0000f0 cb c9 4b 3c a7 18 a5 be 03 ab a3 bd e6 40 9a bc
       0.012438248 -0.3224537 -0.07991602 -0.018829774
000100 ec a4 95 3e 82 e2 71 bd ac 87 8f be 14 0f 16 be
       0.29227388 -0.059053905 -0.28033197 -0.1465419
000110 cd 08 45 3c 0a f3 07 3e 97 79 0b 3d 72 00 ea bd
       0.012026024 0.13276306 0.034051504 -0.11425866
000120 cb e6 dc bc f3 3b e1 bd a2 5a 1e be 49 bb 10 3d
       -0.02696552 -0.109977625 -0.15464261 0.03533486
000130 7a 88 cf bd 5e 39 4f 3e 28 81 f3 3e 0d b6 03 3d
       -0.10133453 0.20236728 0.47559476 0.03215604

weight_hh_l0 f4 [40, 10]
000000 5f 0a 46 3e 60 6c 33 be 52 0c 05 bd 44 db 32 be
       0.19339894 -0.1752181 -0.032482453 -0.17466456
000010 66 35 aa bd 93 2e d7 3d ad 0f c3 bd ea 8e a9 3d
       -0.08310966 0.1050693 -0.09524474 0.08279212
000020 47 f9 03 be fa 51 c1 bb 41 8e 6f be 46 9a 89 be
       -0.1288806 -0.005899665 -0.2339411 -0.26875514
000030 b9 36 0f 3d 38 4e e2 bd 2a 58 ec bd 59 f0 8b 3e
       0.034964297 -0.11050075 -0.115402535 0.27331808
000040 42 d1 8d 3a 95 69 5b 3e d9 b2 9d 3e 73 c6 83 be
       0.001081981 0.21426995 0.30800512 -0.25737342
000050 91 8f 42 be 3b 33 8e be 3e 40 b6 3d 42 58 f1 bd
       -0.19000079 -0.2777346 0.08898972 -0.11784412
000060 b5 e7 a0 3e 38 9d 24 3d 56 48 46 bc 57 96 94 3e
       0.31426778 0.040188998 -0.012102207 0.2902095
000070 8a fa aa bd 01 30 95 3e 12 e7 9e 3e 82 75 40 3e
       -0.08348568 0.29138187 0.31035668 0.18794826
000080 4c 3c 85 be 8a c6 7e 3e 8c 62 64 be ad 73 14 3d
       -0.26022565 0.24880424 -0.22303218 0.03624313
000090 a8 ff c8 bd 3f a8 5e 3e 48 97 97 be a3 c9 5a 3e
       -0.098143876 0.21743868 -0.29607606 0.21365981
0000a0 6b 0b 53 be 26 ed 02 3e 6c 88 bf 3b 4c cb be 3d
       -0.20609824 0.12785777 0.00584512 0.093161196
0000b0 b2 4b 96 3e f7 da b5 bd 26 3b b8 3d b2 91 69 3e
       0.29354626 -0.08879655 0.08995657 0.22809485
0000c0 87 b1 53 3e 2a 22 20 3d 88 ea 97 bd 1c 5b 61 39
       0.2067319 0.03909508 -0.0741778 0.00021491613
0000d0 fc 02 04 3e 6c fa 1d be 25 60 af ba 1b a7 a1 be
       0.12891763 -0.1542756 -0.0013380094 -0.31572804
0000e0 79 93 75 3e 49 d8 15 be f0 2c 1e be c6 31 b7 bc
       0.23982038 -0.14633287 -0.1544683 -0.022362601
0000f0 29 ac fa 3d c5 d0 9f 3d 80 0e 00 3e 16 7a 18 3c
       0.12239868 0.078034915 0.12505531 0.009306451
000100 1b 40 44 be 2f f3 a9 bd 39 4e 3a 3e ef 6d 20 be
       -0.1916508 -0.08298337 0.18193902 -0.15666936
000110 01 07 9b 3b a1 02 8a be 49 d1 8c 3e 43 39 a7 be
       0.0047310595 -0.2695513 0.27503422 -0.32660875
000120 09 14 e7 bd 9b d6 34 be 42 cf 55 be 2a 8c 64 3d
       -0.11283118 -0.1765999 -0.20879844 0.055797733
000130 d2 bd 14 3c 75 68 ef 3c e3 19 83 be cf c9 87 be
       0.00907846 0.029224614 -0.25605687 -0.26521155
000140 5f b4 28 be a3 fd 01 3e 22 23 2e be c8 2d a0 be
       -0.16475056 0.12694411 -0.1700559 -0.31284928
000150 cb 44 8c be b8 a4 9f be 2e 41 6c 3d fa 00 7d 3c
       -0.27396235 -0.31180358 0.057679348 0.015442127
000160 89 dd da 3d 58 b7 43 3e 82 ad 4e be 0c 42 8a bd
       0.10686786 0.19112909 -0.20183375 -0.06750879
000170 d2 83 92 3e 98 ec 26 3e 21 69 8e 3b 14 ef 5c 3e
       0.28616196 0.16301191 0.0043460284 0.21575576
000180 29 54 6c 3e 5b b2 a8 bd 17 e7 d2 3d c1 43 dd bd
       0.2307898 -0.082371436 0.10297983 -0.10803939
000190 53 89 4b bd 03 0e 7c 3e 01 5f 2a 3a 57 98 81 be
       -0.04969151 0.2461472 0.0006499142 -0.2531154
0001a0 2b 2d 3e bd 1b 3d 3d 3e c6 f2 e3 bc 14 4a 4f ba
       -0.046429794 0.18480341 -0.027825724 -0.0007907462
0001b0 24 a0 1d be 66 ef 2c 3e b4 05 0a 3e 1f 0f 08 3e
       -0.1539312 0.16888198 0.13478738 0.13287018
0001c0 08 e8 47 be e8 37 ab bc d0 b4 6c 3e 82 e2 bc 3d
       -0.19522107 -0.020900682 0.2311585 0.092228904
0001d0 87 36 51 3e 9e e1 69 3e 3e 9e 59 be fb 9c 2e 3e
       0.20430957 0.22839972 -0.21251771 0.17052071
0001e0 ae bf 10 3e b0 7a 0b 3e 73 ac 88 3e 8c 7d d0 39
       0.1413562 0.1362102 0.26694068 0.0003976639
0001f0 d9 c8 15 3e 8c f3 a8 3d 8c 69 30 be 3b 8a 83 3e
       0.14627399 0.08249578 -0.17227763 0.256914
000200 33 60 3d be c4 01 de bc 1e 6f 93 be a7 a6 25 be
       -0.18493728 -0.027100451 -0.28795713 -0.16176854
000210 e4 94 34 3e 68 d6 86 bc 82 b8 35 be 8f 64 89 3d
       0.17634922 -0.016459659 -0.17746165 0.06708633
000220 70 2e 60 be b0 58 95 be b6 9b 5b be 1c fd 9b 3e
       -0.21892715 -0.29169226 -0.21446118 0.30466545
000230 fd 42 58 bd f3 13 86 3e e3 b9 c0 bb 8b 70 62 3d
       -0.05279826 0.26187095 -0.0058815344 0.05528311
000240 d9 3f f5 bd 1c a9 87 be 35 03 46 bd 67 a7 77 3e
       -0.119750686 -0.26496208 -0.048342902 0.24184953
000250 20 25 61 3e ea b9 8d 3e 9b 3a 6b be 13 f2 0b 3e
       0.21986818 0.27680904 -0.22971575 0.13666563
000260 d7 7d ef 3d da a2 ff 3d bf dd 2a be d5 8c 58 3e
       0.11693924 0.12482233 -0.16686152 0.21147473
000270 c8 ef 51 be e2 68 1b 3e 89 a9 8b 3e 0a c1 b6 bd
       -0.20501626 0.15176728 0.27277783 -0.08923538
000280 20 78 1a bd c0 69 df bd 9b 44 06 be 79 2e 6d 3d
       -0.037712216 -0.10908842 -0.13112108 0.057905648
000290 c7 79 ed 3d 6a 50 49 3e 45 ef 88 be 77 90 14 be
       0.11595493 0.19659582 -0.26745048 -0.14508234
0002a0 a9 25 2b be 5e d5 75 bd 79 b2 09 3d 59 80 01 bd
       -0.16713585 -0.060017936 0.03361747 -0.031616542
0002b0 55 d1 f7 bc 73 b9 f2 bd dc 57 9d 3e 29 a4 0a be
       -0.030251184 -0.11851778 0.30731094 -0.13539185
0002c0 07 6f 71 be 60 10 b9 bd 00 13 92 bd c3 9d 91 be
       -0.2357751 -0.090363264 -0.0713253 -0.28440675
0002d0 64 63 30 be cb 26 f2 3c 5b a7 23 be c7 46 e4 3d
       -0.17225415 0.029559514 -0.1598181 0.11146312
0002e0 e5 95 a7 3d 34 8d be 3d f5 f8 95 be ea fd 02 bd
       0.08182887 0.09304276 -0.29291502 -0.031980433
0002f0 42 2e 5e 3e 49 f6 83 bd db 0b 8d be 2e f0 13 be
       0.21697333 -0.064434595 -0.27548108 -0.1444709
000300 44 5e 43 be dd 21 e1 3d 2c 15 93 3e 96 9c 18 be
       -0.19078928 0.10992787 0.2872709 -0.14903483
000310 a6 78 22 3e cc 0c 72 3e d3 be a0 bc 73 6e d6 bd
       0.15866336 0.23637694 -0.019622242 -0.10470285
000320 a9 a5 92 3d 52 5f 89 3e 35 f9 f8 3c b8 d6 42 bd
       0.071605034 0.26830536 0.030392269 -0.047568053
000330 50 03 79 be 39 8f c6 3d 75 39 49 3d 80 48 35 3e
       -0.2431767 0.09695286 0.04912706 0.17703438
000340 70 d5 ba 3d 65 62 ba 3d 10 ed d2 bd 05 5a 8b 3c
       0.09122741 0.091007985 -0.10299122 0.017010698
000350 82 9d 65 3e c7 29 8e be b9 bc 2f 3d 23 e0 77 3e
       0.22423366 -0.2776625 0.04290459 0.24206595
000360 1a e4 6f bd 80 d3 17 3d 8b 67 16 be cd 2a 37 bd
       -0.058567144 0.037066936 -0.14687936 -0.044718552
000370 92 79 32 be 18 3c 13 3e de 70 2d 3e d9 d4 ca bd
       -0.17429188 0.14378393 0.16937587 -0.09903879
000380 bf 4b 63 be 7e 70 96 bd f1 50 35 3e de 2b 8f 3e
       -0.22196864 -0.07345675 0.17706658 0.27963156
000390 a4 f0 84 be 89 49 aa bd df 5d 81 be a5 98 5d be
       -0.25964844 -0.08314807 -0.2526693 -0.2164026
0003a0 82 ac a7 be 04 bb 03 be f6 7d 3c 3d 13 21 86 be
       -0.327488 -0.1286431 0.046018563 -0.2619711
0003b0 0f 5e 9b be 2d 9b 65 3d 1d dd 0d bd a1 2e c1 bc
       -0.303452 0.05605619 -0.0346347 -0.023581805
0003c0 72 2f 8a 3e 78 e3 7e bd c6 15 f1 3d 2c 37 72 3e
       0.26989323 -0.06222865 0.11771731 0.23653859
0003d0 39 70 d1 bc 00 b4 82 bd 08 9e 71 3e 3e 64 75 3e
       -0.025566207 -0.063819885 0.2359544 0.2396402
0003e0 97 52 05 be 33 3c 02 bd 99 33 5b be 3b 1f 51 3e
       -0.13019787 -0.03179569 -0.21406402 0.2042207
0003f0 8e f1 4c 3e 51 47 77 3e fc c8 1c bd 12 52 30 be
       0.20014021 0.24148299 -0.03827761 -0.17218807

bias_ih_l0 f4 [40]
000000 33 54 0c bd 83 38 93 3e 3d a3 01 be 90 52 bb 3d
       -0.034259986 0.28754053 -0.12659927 0.09146607
000010 12 c1 48 3e d8 f7 86 3e 3f 7d cc 3d 7c 13 36 be
       0.196049 0.26360965 0.09984826 -0.1778087
000020 e6 6b df 3d e9 8a 1c be 21 6e 77 bb 68 4b b6 bc
       0.10909252 -0.15287365 -0.003775485 -0.022252753
000030 19 25 bb bd a0 e7 f4 3d 8b d8 d9 bd 53 62 23 be
       -0.09137935 0.119582415 -0.106370054 -0.15955476
000040 ee 5f 81 3e 48 15 66 3d b4 99 91 3d ef f6 a2 3e
       0.252685 0.05617264 0.07109395 0.3182902
000050 88 09 52 3e 0c aa b9 3d 72 1e a0 be d2 3b 79 3e
       0.20511448 0.09065637 -0.31273228 0.24339226
000060 bf 70 b4 be 8f fd d1 bd 01 9c 36 3e 45 12 aa 3d
       -0.35242268 -0.102534406 0.17832948 0.08304266
000070 53 cb ef bd 96 7d c3 3e 05 66 88 3d 6d d8 db bd
       -0.11708703 0.38181752 0.06660084 -0.10734639
000080 38 2b 64 be 71 2c 12 be b2 87 9b 3e 5a 06 a7 3e
       -0.22282112 -0.14274766 0.30376965 0.32622033
000090 5e f1 a3 3e 9a 1f a5 bc 59 69 f4 3e 86 8e 91 3e
       0.32020086 -0.02015667 0.47736624 0.2842905

bias_hh_l0 f4 [40]
000000 bd f4 8c 3d 74 5c 94 be 79 fe 75 bd 45 d8 a0 3d
       0.068826176 -0.28976786 -0.060057137 0.0785375
000010 4c 72 66 3e 70 20 18 be d5 de 85 3e ef 5e 63 be
       0.22504538 -0.14856124 0.2614657 -0.22204183
000020 46 84 d9 3e 66 bd 46 3e b6 59 08 bc 05 11 b5 3b
       0.4248373 0.19408187 -0.00832217 0.0055257105
000030 4e a0 17 bd a8 df 75 be 26 ec 82 bd 4c 65 95 bd
       -0.037018113 -0.240111 -0.06392698 -0.072947115
000040 52 fe 8e be 44 7d c2 3d bb 66 7c 3d aa 20 52 be
       -0.27928406 0.09496549 0.06162141 -0.20520273
000050 32 09 03 3e 54 b0 7e be 9e 40 44 be d9 09 64 bd
       0.12796476 -0.24871951 -0.19165275 -0.055673454
000060 4d 41 66 be 24 05 87 3e 22 3c 1f bd db 0c 48 be
       -0.22485848 0.2637111 -0.038875706 -0.19536154
000070 c3 94 9a be 42 7b 8b 3e 6b 11 19 be 99 4d f7 3c
       -0.3019162 0.27242476 -0.1494805 0.030188369
000080 a8 e1 ac bc 0e 58 18 be e8 b7 94 bd f3 97 84 3d
       -0.021103695 -0.1487734 -0.0726164 0.064742945
000090 5a d7 52 bd 5f bc 91 3e 87 f1 e3 3e 83 0d f6 bd
       -0.051474907 0.28464028 0.44520208 -0.12014296

weight_ih_l1 f4 [40, 10]
000000 fa 18 30 be c8 6d 75 3e 68 62 a3 3e 3f 79 77 be
       -0.17197028 0.2396766 0.31911016 -0.24167345
000010 90 d8 84 be fd 51 a8 3e 82 7f 33 3e f7 aa 6a bd
       -0.25946474 0.32875052 0.17529109 -0.05729195
000020 98 89 51 be 69 5e a8 3d 66 22 a3 bd 5c 0c 4e 3c
       -0.20462644 0.08221132 -0.07965545 0.012576189
000030 8e f6 74 3e 2e 02 7d be b5 9f 1c 3d 48 17 18 bc
       0.23922178 -0.24707863 0.038238246 -0.009282894
000040 97 d6 34 3d c5 40 a4 bd 82 62 6a 3b d5 89 43 be
       0.04414996 -0.08020166 0.0035764282 -0.19095547
000050 11 08 0d 3e 80 7b 07 3d e4 ca b7 bd 1d d3 26 be
       0.13772608 0.033076763 -0.08974245 -0.16291471
000060 90 ef e3 bd 6a 06 53 be 20 0d cb bd 9d d1 43 be
       -0.11129677 -0.20607916 -0.09914613 -0.1912293
000070 e9 53 0c 3e f2 f4 4c 3e 2a fc d7 bc dc 33 09 3e
       0.13703884 0.20015314 -0.026365358 0.13398689
000080 0c 50 02 3c bd 0d 9b be 08 58 8e 3b 53 66 26 bd
       0.007953655 -0.3028392 0.0043439902 -0.040624928
000090 47 49 90 3e a4 ed 3d 3e b8 13 97 be 52 fb 2a 3e
       0.28180906 0.18547684 -0.29507232 0.16697434
0000a0 89 5c 11 be dc 33 0d bd 44 d4 a1 be ab 9f 64 3d
       -0.14195456 -0.034473285 -0.31607258 0.055816334
0000b0 ab d7 85 3e 56 e1 07 be e8 32 7f be 48 8e 8d be
       0.26141104 -0.13269553 -0.24921763 -0.27647614
0000c0 65 74 72 3e 5a 55 a3 bd 55 38 d2 bd 9c cf f9 bd
       0.23677213 -0.07975264 -0.10264651 -0.121978015
0000d0 31 cd 34 3e 98 10 c7 bd cd 27 27 3e 1b aa 81 bd
       0.176564 -0.09719962 0.16323777 -0.06331273
0000e0 5d 28 99 3d b8 b8 99 3c d1 4c 6a be ae 3e 81 3e
       0.07478402 0.018764839 -0.22880866 0.25243133
0000f0 20 b3 5f bd 6c 63 80 bd 68 12 3f be 6e bc ce bc
       -0.054614186 -0.06268963 -0.18659365 -0.025236335
000100 d9 f0 22 3d 3d 4a 6c bd 66 e4 bf bd 40 e7 3c be
       0.03978047 -0.057687987 -0.093697354 -0.1844759
000110 1a fe 7c be c6 8f a1 3e d0 82 8c 3e 23 cc 9a bd
       -0.24706307 0.31555003 0.27443552 -0.07558467
000120 e0 e7 1a bd be c1 7e be 6c 82 62 3e 66 61 8d 3e
       -0.03781879 -0.24878594 0.22120064 0.27613372
000130 06 45 8c 3e 4b 56 9e be 10 dd 91 bc 7f 55 24 be
       0.2739641 -0.3092521 -0.017805606 -0.16048239
000140 aa e5 06 bc 13 eb 35 3e e5 8b 08 be a8 16 28 be
       -0.008233467 0.17765455 -0.13334616 -0.16414893
000150 2f b0 bc be 6e ff 01 3e a5 f0 8f bc b8 37 0c 3e
       -0.36853167 0.12695095 -0.017570803 0.1369313
000160 0c fc 17 be 10 bd 86 3e 2f f9 0d 3d 4f 21 a3 be
       -0.14842242 0.26316118 0.034661468 -0.3186135
000170 ff ae 74 3e 55 3e 67 be df a7 7a be dc 82 84 3e
       0.2389488 -0.22582372 -0.244781 0.25881088
000180 85 6e 61 be fa bd 1d be c0 77 b8 be 6a c7 92 3e
       -0.22014816 -0.15404502 -0.36028862 0.28667766
000190 6d 2a 5c be dd 2c 42 3e 66 94 17 be 99 ce df bc
       -0.21500559 0.18962426 -0.14802703 -0.027320193
0001a0 08 65 4f bd e8 4f 5d 3e c1 1e a8 3d 19 d1 8c be
       -0.05063346 0.21612513 0.08208991 -0.2750328
0001b0 f6 9c 09 3e 16 c4 58 3e 80 9e db 3c 52 e1 80 be
       0.13438782 0.21168551 0.026808977 -0.25171906
0001c0 dc 53 87 3d ba 48 93 be ba 5f f0 bd d4 d8 04 3e
       0.06607792 -0.28766423 -0.117370084 0.12973338
0001d0 14 ba 32 be d0 18 44 be 30 d1 cb 3a 40 e9 a4 bd
       -0.17453796 -0.1915009 0.0015550014 -0.080523014
0001e0 1d 7e 2e 3e 59 10 2f be a2 1b 3f be 62 db 54 3e
       0.17040296 -0.1709608 -0.18662885 0.20786813
0001f0 28 a6 8c be 7d da 8e 3e b5 75 c3 bd e5 df 52 3c
       -0.27470517 0.27901068 -0.09543935 0.012870763
000200 4b 36 b4 bd 6d d5 bb 3e b2 ce 62 3e b6 36 21 3e
       -0.08799418 0.36686268 0.2214916 0.15743527
000210 77 1e ee bd 08 e2 1c 3e bb 11 c1 bd e6 54 a1 3e
       -0.116269045 0.15320599 -0.0942721 0.31510085
000220 7e 48 6e 3e 4e e4 78 3e 1b 8a 8c be a9 0f 9a be
       0.23269841 0.24305841 -0.27449116 -0.30090073
000230 30 62 9f be 04 1d 55 3d 90 c1 6f 3e 7c c1 71 3e
       -0.311296 0.052029625 0.23413682 0.23608965
000240 a7 bf 35 3e 31 53 8f be ab 20 2c be 37 a7 4f bd
       0.17748891 -0.27993158 -0.16809337 -0.050696578
000250 6b 8d 90 3e 21 93 a3 3e fd 95 9c 3d e8 7d 8e 3e
       0.28232893 0.31948188 0.076457955 0.27830434
000260 44 bc 2e 3e 2c 51 9c 3d 13 41 9e 3e 9a 08 9a 3e
       0.17064005 0.0763267 0.30909023 0.30084687
000270 85 b8 4f 3e c7 4f 51 3d 28 20 8a be 56 e8 56 bd
       0.20285232 0.051101472 -0.26977658 -0.052467667
000280 b1 98 2a be 2e 3b 1a 3e 12 13 9a 3e 54 69 d3 3d
       -0.1665981 0.15061638 0.30092674 0.10322824
000290 24 17 0a be c7 21 69 3e 10 a6 8f bd 78 b4 a4 3e
       -0.1348539 0.22766791 -0.07014096 0.32168937
0002a0 5e d3 c2 3d 83 43 a0 bd d2 ff 4b bd f4 b4 40 bd
       0.09512971 -0.07825377 -0.049804516 -0.04704757
0002b0 f3 33 77 3e 55 bd 4b be 20 d2 23 3e 2e 3a de 3b
       0.24140911 -0.19896443 0.15998125 0.006781838
0002c0 65 af cf bc 98 24 89 3e 8f 98 84 3e 07 85 ae bd
       -0.02535219 0.2678573 0.25897643 -0.08521467
0002d0 9c d1 f9 bd c6 66 20 be e1 27 32 3e fe 5b 79 3d
       -0.12198183 -0.15664205 0.17398025 0.060878746
0002e0 07 40 96 be 26 c3 91 3e db 20 2a 3d 78 88 72 be
       -0.29345724 0.284692 0.04153524 -0.23684871
0002f0 75 18 14 3e e9 88 49 3e 9f 7e 83 be ba ee 10 3e
       0.14462455 0.19681133 -0.25682542 0.14153567
000300 fc 5f 32 be eb 7f 67 3e 8e cf 5c be e7 4e 91 3c
       -0.17419428 0.2260739 -0.21563551 0.017737819
000310 24 aa b8 3d cf 7e ab 3d 1f a3 87 3e 62 22 4d bc
       0.09016827 0.08373796 0.2649164 -0.0125204045
000320 75 8b b0 be 33 e6 8d 3e b8 3b 14 be e1 09 aa 3e
       -0.34481397 0.2771469 -0.14475906 0.33210662
000330 d9 6d 8c be 83 d4 79 3d 63 49 23 3e 87 5d c7 bc
       -0.27427557 0.060993683 0.15945964 -0.02433659
000340 65 ea b0 3c 72 e2 46 be b4 8b 88 be 4a 8d 1c be
       0.021596143 -0.1942232 -0.26669085 -0.15288273
000350 ca 27 c9 3d ff f6 48 3d bc 5d 08 3e 58 8c c3 3e
       0.09822042 0.04906368 0.13317007 0.3819301
000360 db 6a 0f be 8c 6a 24 3e ea 92 c0 be f4 d4 59 be
       -0.14005606 0.1605627 -0.37612087 -0.21272641
000370 61 4e 98 3e 84 a3 14 be 0b 01 b3 bd ca b9 ac 3d
       0.29747298 -0.14515501 -0.08740433 0.08433874
000380 26 57 79 be 0f cd c4 bc c8 d7 5a 3e 58 ce 87 bd
       -0.2434965 -0.02402356 0.21371377 -0.06631154
000390 82 a5 03 3f e8 2e 9e 3e b3 e9 9b be ec d3 ed bd
       0.5142442 0.30895162 -0.30451736 -0.116126865
0003a0 2d f3 86 3e 9d b9 80 bd 16 3c 96 be cb ad a6 3e
       0.26357403 -0.06285403 -0.29342717 0.3255447
0003b0 16 97 42 3e 08 90 67 be 42 51 10 be 4c ce 2e bd
       0.19002947 -0.22613537 -0.14093497 -0.04267721
0003c0 40 2a 59 3c 73 de 1b be c6 d9 c1 be 65 2d 42 be
       0.013254702 -0.15221576 -0.3786146 -0.18962629
0003d0 90 46 94 be 98 5e 83 be e0 c5 bb bd 70 3b 99 3e
       -0.28960085 -0.25658107 -0.09168601 0.2992816
0003e0 19 67 c1 3e 20 ea 7d bd 86 31 3a 3e dd a6 92 be
       0.3777397 -0.061990857 0.18182954 -0.28642932
0003f0 a6 ee 4d 3e ac ad 78 be fd ef a3 3c d5 ba c2 be
       0.20110568 -0.24285 0.020011896 -0.38033167

weight_hh_l1 f4 [40, 10]
000000 70 21 c4 bc 3a 49 f0 bd 0a bd 1d be 32 ae fa bd
       -0.023941725 -0.11732717 -0.15404144 -0.12240256
000010 51 b3 4c bc 7f f6 46 be 4b 14 8d 3e f3 29 f6 bd
       -0.012493924 -0.19429968 0.27554545 -0.1201972
000020 f1 f1 63 3e e5 94 b4 bc 1c 31 70 3c 0f be f8 3c
       0.22260262 -0.022043655 0.014660146 0.030364064
000030 5c e0 73 be 7f 56 68 be 03 ab b5 bd cf af 8f be
       -0.23816055 -0.22689246 -0.088705085 -0.2806382
000040 4c 3e 87 bd 3c 9d 8e 3e 21 c1 49 be 25 61 4c 3e
       -0.06603679 0.27854335 -0.19702579 0.19958933
000050 43 31 1f be 2a 8f 11 3d fb 21 63 be d6 ea 26 be
       -0.15546136 0.035536923 -0.22180931 -0.1630052
000060 d7 e9 53 be 3b 0e 96 3e 94 8d a4 3d 4d d7 89 3d
       -0.20694672 0.29307732 0.080348164 0.067305185
000070 0f c1 61 be 1b 00 0b be 8d a0 17 3e 10 59 9a 3e
       -0.22046302 -0.13574259 0.14807339 0.30146074
000080 01 3b 98 be 9c d3 0d 3e 3b c2 05 be d8 c8 8b be
       -0.29732516 0.13850254 -0.13062374 -0.2730167
000090 84 bd 8d be 48 9b 0a 3e 9f 4d c7 3d 73 85 97 3d
       -0.2768365 0.13535798 0.09731602 0.073985
0000a0 1d 97 2c 3e 1d 31 1b 3c 67 21 8b be 1a bb 0f 3d
       0.1685452 0.009472159 -0.2717392 0.035090543
0000b0 bc 33 4c 3e 41 43 80 be 79 86 9c bd c7 3f 79 bd
       0.1994161 -0.2505131 -0.07642836 -0.06085184
0000c0 05 28 11 3e e1 aa 8a bd 86 f4 81 be 31 50 50 bd
       0.14175422 -0.06770874 -0.2538187 -0.050857726
0000d0 f3 df 31 3e fc 1b 34 3e b0 b8 c4 3d 5c 26 45 be
       0.17370586 0.175888 0.09605539 -0.19252914
0000e0 eb 89 8c be ec 48 88 3d c6 2d 9e bd 73 1d d4 3c
       -0.27448973 0.06654534 -0.07723574 0.025892949
0000f0 f5 82 2d 3e 8a 12 3b 3e d7 b3 98 be d2 49 0e 3e
       0.16944487 0.18268791 -0.29824707 0.13895348
000100 0e 4e aa bd 18 c7 55 be 58 ae 6c bd fa eb 9f 3e
       -0.08315669 -0.2087673 -0.057783455 0.31234723
000110 5e 93 5a bd 9e 79 de 3d 25 8a 7e be 43 33 a9 3d
       -0.053363197 0.108630404 -0.24857385 0.082617305
000120 b5 c4 29 3e ad 18 6c be 44 48 82 be 09 c7 21 3d
       0.16578944 -0.23056288 -0.2544576 0.039496455
000130 fe a1 c9 3d b1 81 80 3e 06 71 86 3e 9e 57 66 bc
       0.09845351 0.25098947 0.26258105 -0.0140589755
000140 91 a6 2a 3e 04 84 8a be 4f d7 3f be 8c 9c 95 3e
       0.16665103 -0.27053845 -0.18734477 0.29220998
000150 00 79 80 bd d5 f5 7e be 89 59 7d 3d fe fb f0 3c
       -0.06273079 -0.24898465 0.061852966 0.029417034
000160 81 a0 9f 3d 55 36 10 3e 45 99 70 bd 4a c8 0c bc
       0.077942856 0.14083226 -0.05873992 -0.0085926745
000170 ee b7 fc ba 0b 3c 1f 3e 41 eb 91 3e 70 73 ec bc
       -0.001928089 0.15550248 0.28499797 -0.028863639
000180 03 52 fa 3c 74 a1 ab bd fe 8a 17 3e e9 07 0f be
       0.030556684 -0.08380404 0.14799115 -0.13967861
000190 5d ce 0e 3d ff c0 73 bd 31 00 71 bd 8d bc 59 3e
       0.034864772 -0.059510227 -0.058838073 0.21263333
0001a0 40 7e 40 be fe b0 81 be 03 07 95 be 08 12 48 be
       -0.1879816 -0.25330347 -0.29106912 -0.19538128
0001b0 95 65 c2 3d 40 c5 20 be 42 2c a2 bd 9c f3 05 be
       0.094920315 -0.15700245 -0.07918598 -0.13081211
0001c0 4d 43 c5 3d 32 14 00 3e a8 7b 61 3e 20 e6 69 3e
       0.09631977 0.12507704 0.22019827 0.22841692
0001d0 ba 15 04 3e e7 66 5a be 41 e8 22 3e 15 93 79 be
       0.12898913 -0.21328317 0.1590891 -0.24372514
0001e0 a2 5d a8 3d 5f 95 84 be fd 14 7a be 53 21 3e be
       0.08220984 -0.2589521 -0.24422069 -0.185674
0001f0 d3 58 b7 bd 22 ce 08 be 42 ec 92 be 3b 92 56 3e
       -0.08952489 -0.13359883 -0.28695875 0.2095422
000200 bb 65 1d be 9f b7 39 3e 37 7f bc 3d d4 8f 4e bd
       -0.15370838 0.18136452 0.09203952 -0.050430134
000210 8e 51 f6 bd 62 8b bb 3d 07 e6 27 3e c4 0d 13 3c
       -0.12027274 0.091574445 0.16396342 0.00897545
000220 2c f4 9e be 7b f2 02 3c a5 5a 8d 3e 09 c6 9c be
       -0.31045663 0.007992382 0.2760822 -0.3061984
000230 18 4f 86 3e 12 df 82 3e e5 83 80 be cb 8f 00 3e
       0.2623222 0.25560814 -0.25100628 0.12554853
000240 2f 7c 62 3e fc c0 fa bd 02 c4 9f be 8f 9a fb 3c
       0.22117685 -0.1224384 -0.3120423 0.030713348
000250 1d 6f 29 bd 04 fa 91 be 72 a5 40 be be 0d 48 3e
       -0.04136573 -0.2851106 -0.18813112 0.19536492
000260 0f 4e 84 3d 35 2c 3f be a2 11 0b 3e c8 d2 93 3e
       0.06460201 -0.18669207 0.13580945 0.2887175
000270 84 b9 35 3d 49 bc c8 bb 71 26 80 3e 2c e2 87 be
       0.044366375 -0.006125961 0.25029328 -0.26539743
000280 66 7c 70 3d a9 d1 7d be f2 d0 f3 bd a3 f0 93 3d
       0.058712386 -0.2478701 -0.119050875 0.07223632
000290 cf 3a 88 3c 51 06 c7 bd eb 1e ea 3d b0 77 ac 3d
       0.016629605 -0.09718002 0.114316784 0.08421266
0002a0 f3 8d 9b bd 6d 00 4e be 19 cb be 3d 88 26 e3 bd
       -0.07595434 -0.2011735 0.093160816 -0.11091334
0002b0 47 71 06 3d 62 78 5c 3e c2 5d 57 be c3 95 4b bd
       0.032822873 0.21530297 -0.2103186 -0.04970337
0002c0 8b 92 5e 3e 6f c3 8b 3e 51 97 e2 3d e4 b1 4a bd
       0.21735589 0.27297541 0.110640176 -0.049486056
0002d0 af 52 8a bd 04 69 fc 3d d3 b5 1b be b8 10 65 be
       -0.06754052 0.12324718 -0.15206079 -0.22369659
0002e0 71 21 a0 be 0f 49 83 3e f8 2f 0a 3e 4d a9 6b 3e
       -0.31275514 0.25641677 0.13494861 0.23013802
0002f0 e1 c2 4b bd 11 92 71 be 39 e7 94 be b0 b9 8b be
       -0.049746398 -0.23590876 -0.2908266 -0.27290106
000300 20 03 28 be 49 5b 6a 3e 48 78 72 be 5e 6d e9 bc
       -0.16407442 0.22886385 -0.23678696 -0.028494533
000310 9e 97 e7 bd 07 3c 5e 3e 17 e5 79 3e bb 67 b4 3d
       -0.113082156 0.21702586 0.24403797 0.088088475
000320 08 ef 9d be 70 5e 83 3e 4a 36 84 be 85 e0 24 bd
       -0.3084643 0.25657988 -0.2582267 -0.04025318
000330 c3 81 12 3e fd 4c 07 be d2 7d 04 3e 7d b6 a6 bd
       0.14307313 -0.13212962 0.12938622 -0.081402756
000340 52 ce 99 be 68 e1 10 3e 27 34 11 3e 3b 3c 5d be
       -0.30040222 0.14148486 0.14180051 -0.21605007
000350 4a 42 1c be a9 1d ad 3d ca 6a 41 be 98 bc 65 3e
       -0.15259662 0.08452923 -0.18888393 0.22435224
000360 57 f4 20 be 3d e7 60 3e 27 d4 05 be ff ad dd bd
       -0.15718208 0.2196321 -0.13069211 -0.10824203
000370 6f 27 f0 bc 96 90 28 be aa df 85 be 2b 6b 1c 3e
       -0.029315678 -0.16461405 -0.26147205 0.15275256
000380 e4 19 a6 bd 85 7e 62 3e a3 34 9b 3d 6f 6a 19 3e
       -0.08110407 0.22118576 0.07578399 0.14982007
000390 bd f0 49 bd 36 2a a4 be 8f c6 8b 3e 56 b1 98 3d
       -0.04930185 -0.32063454 0.27299926 0.07455699
0003a0 89 48 1a be 78 18 c1 3d f5 57 8c 3e c0 d6 6e 3d
       -0.15066732 0.09428495 0.27410856 0.05831027
0003b0 f3 4b c8 3d a0 44 64 3e 1a 57 dc bd e0 d1 b4 bd
       0.09780111 0.22291803 -0.10758801 -0.08829093
0003c0 fd 5d ab 3b f0 a7 97 be 08 1c 53 3e 24 77 f9 3d
       0.00522971 -0.29620314 0.20616162 0.121809274
0003d0 b0 fd 06 be 85 c1 19 be e5 94 9a 3d 27 78 33 be
       -0.13182712 -0.15015228 0.07547931 -0.17526303
0003e0 fe 44 e4 3d e6 6a 8c be 08 58 96 3d 72 42 8a be
       0.11145972 -0.27425307 0.073410094 -0.2700382
0003f0 19 d1 8b 3e c2 9c c7 bc f8 5c 23 be e8 ef 82 be
       0.27307966 -0.02436674 -0.15953434 -0.2557366

bias_ih_l1 f4 [40]
000000 14 71 4e be 05 af e8 3c 68 b2 04 3e 2d 89 81 be
       -0.20160323 0.028403768 0.12958682 -0.2529997
000010 61 93 1a be 11 ed a5 3a fd 42 98 3e 52 03 35 be
       -0.15095283 0.0012659152 0.29738608 -0.17677048
000020 f7 44 1f 3f 36 1a 1d 3d 38 e7 a2 3d 40 d5 1c 3e
       0.62214607 0.038355075 0.07954258 0.15315723
000030 af d2 b0 3d a7 1b 90 be e9 cf 6b be 66 38 8e be
       0.08633935 -0.28146097 -0.2302853 -0.27777404
000040 49 19 a3 3d d5 a8 9c be 5a 16 a7 bd 41 af 63 be
       0.07963807 -0.3059756 -0.0815856 -0.22234823
000050 99 ad bb 3d b1 30 2a be 96 26 8a 3e 26 b2 b4 3d
       0.091639705 -0.16620137 0.26982564 0.088230416
000060 00 26 40 bd 81 6c 72 bd ec 7f f1 3d 7f 6e 30 3e
       -0.04691124 -0.05918551 0.11791977 0.17229651
000070 98 6d d9 3c a6 e3 c7 bd 6a 77 7c 3e 5a 33 91 3d
       0.026541516 -0.09760217 0.24654928 0.07089873
000080 53 f0 20 be 38 fe 95 be 6e fd fe 3d a7 c4 2f be
       -0.15716676 -0.29295516 0.124506816 -0.1716486
000090 90 86 bb 3d d6 11 a0 3d de 55 26 3f 63 95 81 bb
       0.09156525 0.07815902 0.6497477 -0.003954576

bias_hh_l1 f4 [40]
000000 9d 1e ce 3d af 44 f8 bb 6e 3a 1b 3d 1a a4 2d be
       0.10064433 -0.007576547 0.03789752 -0.16957131
000010 7f f7 97 3e 9f e5 a7 3e 80 10 72 3e 3f bb 25 be
       0.29681012 0.32792374 0.23639107 -0.1618471
000020 e6 46 d6 3d 9c d1 65 3e 06 1c 47 be 6b 54 7a be
       0.104627416 0.22443241 -0.19444284 -0.24446265
000030 74 bd 81 be 30 30 7c 3e 30 e5 bf bd 46 0c 94 be
       -0.25339854 0.24627757 -0.09369886 -0.28915614
000040 6b 94 f8 3d e0 4e 2c 3d 84 38 c8 bd b2 a4 be 3d
       0.121376835 0.04206741 -0.097764045 0.09308757
000050 2a c1 89 3e 28 bf 70 3e 7c 6a 5a 3e 7b 7a 12 3e
       0.26905185 0.2351042 0.21329683 0.14304535
000060 4a 1f bf 3e 72 77 d7 3d b3 37 16 be f1 65 79 3e
       0.3732856 0.10520829 -0.14669685 0.24355294
000070 3c 0d e9 bd 68 42 9d 3d cc 54 24 be 16 35 87 bd
       -0.113794774 0.076786816 -0.16047972 -0.06601922
000080 32 c8 0f 3c b0 f5 88 3e f2 39 27 be c2 7e 76 3e
       0.008775758 0.26749945 -0.16330698 0.24071792
000090 a0 5b a9 3e 90 a9 ab 3c d2 8f 04 3f 93 4d ab 3e
       0.33077717 0.020954877 0.5178195 0.33457622

weight f4 [10, 10]
000000 a2 7a 3e 3e 45 2d 8b 3e 4e 57 4f be c6 e8 9e be
       0.18601468 0.27182975 -0.20248148 -0.31036967
000010 43 d5 83 3e ee ac e6 bd 99 22 9a be 3c 72 a4 3d
       0.25748643 -0.112634525 -0.3010452 0.08029601
000020 65 65 82 3e 24 f0 5c be 9a ce 8e bd 95 06 8c be
       0.25467983 -0.21575981 -0.06973 -0.27348772
000030 21 eb 42 be e2 35 8a be 71 5a 96 3e e0 cc 06 bd
       -0.19035007 -0.26994234 0.29365876 -0.032910228
000040 00 67 c9 3d 94 22 50 be 2e 66 15 3e c0 3b c5 bc
       0.09834099 -0.2032569 0.1458976 -0.024076343
000050 b8 b0 b1 3d 50 4a 8d be 18 2d 09 be 62 a2 11 3e
       0.086762846 -0.27595758 -0.13396108 0.142221
000060 52 6d 3a be 60 fb 99 bd b0 aa 05 3d 48 9c 0d 3e
       -0.18205765 -0.07518649 0.032633483 0.13829148
000070 15 f3 94 3e 94 af 05 3e 1c 8c bc 3d 0d 94 9d 3e
       0.29091707 0.13055259 0.09206411 0.30777016
000080 44 c4 eb 3d 05 79 98 3e 4a f7 5a 3e 6a 94 50 3e
       0.11512044 0.2977983 0.21383396 0.20369115
000090 18 05 48 bd b5 98 8b be ce 97 7a 3e a5 cc 6c be
       -0.048832983 -0.27264944 0.24471971 -0.2312494
0000a0 cc 24 fa bd 40 e0 b1 3b f0 eb 6a be 9d 26 9a 3e
       -0.1221405 0.005428344 -0.22941566 0.30107585
0000b0 a8 34 bb 3d e8 2a f7 3d ac 80 ef 3d 42 a9 0f be
       0.09140903 0.120687306 0.11694464 -0.1402941
0000c0 a1 16 8a 3e ff 50 80 3e d8 10 74 3d 20 cb 32 3e
       0.2697039 0.25061795 0.059586376 0.17460299
0000d0 48 a3 14 bd 60 59 23 3d f0 f0 23 3e 90 28 28 3d
       -0.03628853 0.039880157 0.16009879 0.04105431
0000e0 34 74 b8 3d e2 41 24 3e 76 57 a2 bd 86 15 71 3e
       0.09006539 0.16040757 -0.07926838 0.23543367
0000f0 69 40 83 be 20 6d 8e bc d6 9b 37 3e e0 86 18 3e
       -0.2563508 -0.01738602 0.1793054 0.148952
000100 50 eb 8d bc 76 7c 0d 3e 50 36 63 be f7 b1 22 be
       -0.01732412 0.1381701 -0.22188687 -0.158882
000110 08 4c fa 3d 52 a2 7e be 70 07 64 bd 0a b1 3e 3e
       0.12221533 -0.24866608 -0.055671155 0.18622223
000120 ca 0d 3f 3e c3 2d 9c be 28 9a c7 bd bb 6f 94 be
       0.18657604 -0.30503663 -0.097462 -0.28991494
000130 e2 9e a0 be 45 14 84 3e f8 8e 11 bd cb 2c 8a be
       -0.31371218 0.25796714 -0.035536736 -0.269873
000140 57 ff 8f 3e 17 da 09 be 5a 03 7e 3e bf 83 91 3e
       0.28124496 -0.13462101 0.24805966 0.28420827
000150 ea d0 71 3e 94 4c fa 3d 2b 07 9d 3e 0b 6c 93 3e
       0.2361485 0.12221637 0.3066953 0.28793368
000160 90 e1 5f bd 41 00 07 be 80 a4 b1 bb 60 ba 69 bd
       -0.054658473 -0.1318369 -0.0054212213 -0.057062507
000170 90 f5 41 bd ca 7e 0c be b5 1c 17 be 82 3f 6a 3e
       -0.047353327 -0.13720241 -0.14757045 0.22875789
000180 aa 28 41 be 8c 58 e2 3d b8 49 e5 3d 54 a6 1d 3e
       -0.18863168 0.11052045 0.11195701 0.1539548

bias f4 [10]
000000 98 5b 5c 3d c6 7d 4d be c6 b4 36 be b0 4d e2 3c
       0.053798288 -0.2006751 -0.17842397 0.027624935
000010 ba a7 d2 bd 14 73 e3 bd 90 3c 7c be 92 d0 45 3e
       -0.102858976 -0.11105934 -0.24632478 0.19317845
000020 39 e3 a0 3e 48 1f 0b 3d
       0.31423357 0.03396538

weight f4 [1, 10]
000000 87 22 bd be af e1 35 bf d7 e0 59 3f 9a e8 b3 be
       -0.36940405 -0.7104749 0.85108703 -0.35138398
000010 f8 20 37 3f 5a 27 d9 3e 6a c0 35 3f 81 8b e9 3e
       0.7153468 0.42412835 0.70996726 0.45614246
000020 79 ce de 3f f4 4f 73 3f
       1.740676 0.95043874

lstm.weight_ih_l0 f4 [40, 2]
000000 0e e8 35 bd 67 23 b1 be 78 ea 0b be 6e 48 38 3e
       -0.044410758 -0.34597322 -0.13663661 0.1799638
000010 06 ea c3 3d f2 77 da 3d b8 e4 cd bc ad f9 ec 3d
       0.09566121 0.10667409 -0.025133476 0.115710594
000020 d1 b6 77 be 82 bc 1b 3e 64 85 d0 3d 4f 2e 93 be
       -0.24190833 0.15208629 0.10181692 -0.28746268
000030 92 ce 4e 3e 46 14 ea 3d f1 8f 9b be 70 56 7a be
       0.20195988 0.11429648 -0.30383256 -0.24447036
000040 09 83 eb bb 05 c1 34 3e 1a b5 a9 3e b4 51 75 3e
       -0.0071872515 0.17651756 0.33145982 0.23956949
000050 17 f5 34 3c 5f f0 b4 bd f9 7e fa 3d f0 78 d3 3d
       0.011044762 -0.0883491 0.12231249 0.10325801
000060 34 a9 54 3e cf 15 83 bd b8 84 68 3e da 2e 59 3e
       0.20767671 -0.06400644 0.22706878 0.21209279
000070 c1 36 68 3e 09 27 19 be 1d a1 1e be 71 9d 8d 3e
       0.22677137 -0.14956297 -0.15491147 0.2765918
000080 3d 85 7f 3c 79 30 9a be 27 0c 4b be 16 11 3e 3e
       0.015595731 -0.30115107 -0.19828855 0.18561205
000090 65 cc 0a be 3c 79 d6 bd 22 d3 2b 3e 65 ae 86 3d
       -0.13554533 -0.10472342 0.1677976 0.06576232
0000a0 04 b8 c5 bb 4c af af 3e 6d 2f 0d be bc 81 de bd
       -0.0060338993 0.34313428 -0.13787623 -0.108645886
0000b0 da f2 2a 3d 99 05 82 be 83 c0 b6 be 68 51 54 3d
       0.041735508 -0.25394896 -0.3569375 0.051835448
0000c0 18 f7 19 be 9e 00 09 3d 77 47 8d be 11 82 2c bf
       -0.15035665 0.033447854 -0.27593586 -0.67385966
0000d0 f0 fe 92 3e 4e 0d a8 be a0 c6 3a 3e 3c 3e df 3e
       0.28710127 -0.3282265 0.18239832 0.4360217
0000e0 32 aa 04 3e a4 81 1a 3f 04 48 79 3d 9a 96 11 3f
       0.1295555 0.60354066 0.060859695 0.56870425
0000f0 cb c9 4b 3c a7 18 a5 be 03 ab a3 bd e6 40 9a bc
       0.012438248 -0.3224537 -0.07991602 -0.018829774
000100 ec a4 95 3e 82 e2 71 bd ac 87 8f be 14 0f 16 be
       0.29227388 -0.059053905 -0.28033197 -0.1465419
000110 cd 08 45 3c 0a f3 07 3e 97 79 0b 3d 72 00 ea bd
       0.012026024 0.13276306 0.034051504 -0.11425866
000120 cb e6 dc bc f3 3b e1 bd a2 5a 1e be 49 bb 10 3d
       -0.02696552 -0.109977625 -0.15464261 0.03533486
000130 7a 88 cf bd 5e 39 4f 3e 28 81 f3 3e 0d b6 03 3d
       -0.10133453 0.20236728 0.47559476 0.03215604

lstm.weight_hh_l0 f4 [40, 10]
000000 5f 0a 46 3e 60 6c 33 be 52 0c 05 bd 44 db 32 be
       0.19339894 -0.1752181 -0.032482453 -0.17466456
000010 66 35 aa bd 93 2e d7 3d ad 0f c3 bd ea 8e a9 3d
       -0.08310966 0.1050693 -0.09524474 0.08279212
000020 47 f9 03 be fa 51 c1 bb 41 8e 6f be 46 9a 89 be
       -0.1288806 -0.005899665 -0.2339411 -0.26875514
000030 b9 36 0f 3d 38 4e e2 bd 2a 58 ec bd 59 f0 8b 3e
       0.034964297 -0.11050075 -0.115402535 0.27331808
000040 42 d1 8d 3a 95 69 5b 3e d9 b2 9d 3e 73 c6 83 be
       0.001081981 0.21426995 0.30800512 -0.25737342
000050 91 8f 42 be 3b 33 8e be 3e 40 b6 3d 42 58 f1 bd
       -0.19000079 -0.2777346 0.08898972 -0.11784412
000060 b5 e7 a0 3e 38 9d 24 3d 56 48 46 bc 57 96 94 3e
       0.31426778 0.040188998 -0.012102207 0.2902095
000070 8a fa aa bd 01 30 95 3e 12 e7 9e 3e 82 75 40 3e
       -0.08348568 0.29138187 0.31035668 0.18794826
000080 4c 3c 85 be 8a c6 7e 3e 8c 62 64 be ad 73 14 3d
       -0.26022565 0.24880424 -0.22303218 0.03624313
000090 a8 ff c8 bd 3f a8 5e 3e 48 97 97 be a3 c9 5a 3e
       -0.098143876 0.21743868 -0.29607606 0.21365981
0000a0 6b 0b 53 be 26 ed 02 3e 6c 88 bf 3b 4c cb be 3d
       -0.20609824 0.12785777 0.00584512 0.093161196
0000b0 b2 4b 96 3e f7 da b5 bd 26 3b b8 3d b2 91 69 3e
       0.29354626 -0.08879655 0.08995657 0.22809485
0000c0 87 b1 53 3e 2a 22 20 3d 88 ea 97 bd 1c 5b 61 39
       0.2067319 0.03909508 -0.0741778 0.00021491613
0000d0 fc 02 04 3e 6c fa 1d be 25 60 af ba 1b a7 a1 be
       0.12891763 -0.1542756 -0.0013380094 -0.31572804
0000e0 79 93 75 3e 49 d8 15 be f0 2c 1e be c6 31 b7 bc
       0.23982038 -0.14633287 -0.1544683 -0.022362601
0000f0 29 ac fa 3d c5 d0 9f 3d 80 0e 00 3e 16 7a 18 3c
       0.12239868 0.078034915 0.12505531 0.009306451
000100 1b 40 44 be 2f f3 a9 bd 39 4e 3a 3e ef 6d 20 be
       -0.1916508 -0.08298337 0.18193902 -0.15666936
000110 01 07 9b 3b a1 02 8a be 49 d1 8c 3e 43 39 a7 be
       0.0047310595 -0.2695513 0.27503422 -0.32660875
000120 09 14 e7 bd 9b d6 34 be 42 cf 55 be 2a 8c 64 3d
       -0.11283118 -0.1765999 -0.20879844 0.055797733
000130 d2 bd 14 3c 75 68 ef 3c e3 19 83 be cf c9 87 be
       0.00907846 0.029224614 -0.25605687 -0.26521155
000140 5f b4 28 be a3 fd 01 3e 22 23 2e be c8 2d a0 be
       -0.16475056 0.12694411 -0.1700559 -0.31284928
000150 cb 44 8c be b8 a4 9f be 2e 41 6c 3d fa 00 7d 3c
       -0.27396235 -0.31180358 0.057679348 0.015442127
000160 89 dd da 3d 58 b7 43 3e 82 ad 4e be 0c 42 8a bd
       0.10686786 0.19112909 -0.20183375 -0.06750879
000170 d2 83 92 3e 98 ec 26 3e 21 69 8e 3b 14 ef 5c 3e
       0.28616196 0.16301191 0.0043460284 0.21575576
000180 29 54 6c 3e 5b b2 a8 bd 17 e7 d2 3d c1 43 dd bd
       0.2307898 -0.082371436 0.10297983 -0.10803939
000190 53 89 4b bd 03 0e 7c 3e 01 5f 2a 3a 57 98 81 be
       -0.04969151 0.2461472 0.0006499142 -0.2531154
0001a0 2b 2d 3e bd 1b 3d 3d 3e c6 f2 e3 bc 14 4a 4f ba
       -0.046429794 0.18480341 -0.027825724 -0.0007907462
0001b0 24 a0 1d be 66 ef 2c 3e b4 05 0a 3e 1f 0f 08 3e
       -0.1539312 0.16888198 0.13478738 0.13287018
0001c0 08 e8 47 be e8 37 ab bc d0 b4 6c 3e 82 e2 bc 3d
       -0.19522107 -0.020900682 0.2311585 0.092228904
0001d0 87 36 51 3e 9e e1 69 3e 3e 9e 59 be fb 9c 2e 3e
       0.20430957 0.22839972 -0.21251771 0.17052071
0001e0 ae bf 10 3e b0 7a 0b 3e 73 ac 88 3e 8c 7d d0 39
       0.1413562 0.1362102 0.26694068 0.0003976639
0001f0 d9 c8 15 3e 8c f3 a8 3d 8c 69 30 be 3b 8a 83 3e
       0.14627399 0.08249578 -0.17227763 0.256914
000200 33 60 3d be c4 01 de bc 1e 6f 93 be a7 a6 25 be
       -0.18493728 -0.027100451 -0.28795713 -0.16176854
000210 e4 94 34 3e 68 d6 86 bc 82 b8 35 be 8f 64 89 3d
       0.17634922 -0.016459659 -0.17746165 0.06708633
000220 70 2e 60 be b0 58 95 be b6 9b 5b be 1c fd 9b 3e
       -0.21892715 -0.29169226 -0.21446118 0.30466545
000230 fd 42 58 bd f3 13 86 3e e3 b9 c0 bb 8b 70 62 3d
       -0.05279826 0.26187095 -0.0058815344 0.05528311
000240 d9 3f f5 bd 1c a9 87 be 35 03 46 bd 67 a7 77 3e
       -0.119750686 -0.26496208 -0.048342902 0.24184953
000250 20 25 61 3e ea b9 8d 3e 9b 3a 6b be 13 f2 0b 3e
       0.21986818 0.27680904 -0.22971575 0.13666563
000260 d7 7d ef 3d da a2 ff 3d bf dd 2a be d5 8c 58 3e
       0.11693924 0.12482233 -0.16686152 0.21147473
000270 c8 ef 51 be e2 68 1b 3e 89 a9 8b 3e 0a c1 b6 bd
       -0.20501626 0.15176728 0.27277783 -0.08923538
000280 20 78 1a bd c0 69 df bd 9b 44 06 be 79 2e 6d 3d
       -0.037712216 -0.10908842 -0.13112108 0.057905648
000290 c7 79 ed 3d 6a 50 49 3e 45 ef 88 be 77 90 14 be
       0.11595493 0.19659582 -0.26745048 -0.14508234
0002a0 a9 25 2b be 5e d5 75 bd 79 b2 09 3d 59 80 01 bd
       -0.16713585 -0.060017936 0.03361747 -0.031616542
0002b0 55 d1 f7 bc 73 b9 f2 bd dc 57 9d 3e 29 a4 0a be
       -0.030251184 -0.11851778 0.30731094 -0.13539185
0002c0 07 6f 71 be 60 10 b9 bd 00 13 92 bd c3 9d 91 be
       -0.2357751 -0.090363264 -0.0713253 -0.28440675
0002d0 64 63 30 be cb 26 f2 3c 5b a7 23 be c7 46 e4 3d
       -0.17225415 0.029559514 -0.1598181 0.11146312
0002e0 e5 95 a7 3d 34 8d be 3d f5 f8 95 be ea fd 02 bd
       0.08182887 0.09304276 -0.29291502 -0.031980433
0002f0 42 2e 5e 3e 49 f6 83 bd db 0b 8d be 2e f0 13 be
       0.21697333 -0.064434595 -0.27548108 -0.1444709
000300 44 5e 43 be dd 21 e1 3d 2c 15 93 3e 96 9c 18 be
       -0.19078928 0.10992787 0.2872709 -0.14903483
000310 a6 78 22 3e cc 0c 72 3e d3 be a0 bc 73 6e d6 bd
       0.15866336 0.23637694 -0.019622242 -0.10470285
000320 a9 a5 92 3d 52 5f 89 3e 35 f9 f8 3c b8 d6 42 bd
       0.071605034 0.26830536 0.030392269 -0.047568053
000330 50 03 79 be 39 8f c6 3d 75 39 49 3d 80 48 35 3e
       -0.2431767 0.09695286 0.04912706 0.17703438
000340 70 d5 ba 3d 65 62 ba 3d 10 ed d2 bd 05 5a 8b 3c
       0.09122741 0.091007985 -0.10299122 0.017010698
000350 82 9d 65 3e c7 29 8e be b9 bc 2f 3d 23 e0 77 3e
       0.22423366 -0.2776625 0.04290459 0.24206595
000360 1a e4 6f bd 80 d3 17 3d 8b 67 16 be cd 2a 37 bd
       -0.058567144 0.037066936 -0.14687936 -0.044718552
000370 92 79 32 be 18 3c 13 3e de 70 2d 3e d9 d4 ca bd
       -0.17429188 0.14378393 0.16937587 -0.09903879
000380 bf 4b 63 be 7e 70 96 bd f1 50 35 3e de 2b 8f 3e
       -0.22196864 -0.07345675 0.17706658 0.27963156
000390 a4 f0 84 be 89 49 aa bd df 5d 81 be a5 98 5d be
       -0.25964844 -0.08314807 -0.2526693 -0.2164026
0003a0 82 ac a7 be 04 bb 03 be f6 7d 3c 3d 13 21 86 be
       -0.327488 -0.1286431 0.046018563 -0.2619711
0003b0 0f 5e 9b be 2d 9b 65 3d 1d dd 0d bd a1 2e c1 bc
       -0.303452 0.05605619 -0.0346347 -0.023581805
0003c0 72 2f 8a 3e 78 e3 7e bd c6 15 f1 3d 2c 37 72 3e
       0.26989323 -0.06222865 0.11771731 0.23653859
0003d0 39 70 d1 bc 00 b4 82 bd 08 9e 71 3e 3e 64 75 3e
       -0.025566207 -0.063819885 0.2359544 0.2396402
0003e0 97 52 05 be 33 3c 02 bd 99 33 5b be 3b 1f 51 3e
       -0.13019787 -0.03179569 -0.21406402 0.2042207
0003f0 8e f1 4c 3e 51 47 77 3e fc c8 1c bd 12 52 30 be
       0.20014021 0.24148299 -0.03827761 -0.17218807

lstm.bias_ih_l0 f4 [40]
000000 33 54 0c bd 83 38 93 3e 3d a3 01 be 90 52 bb 3d
       -0.034259986 0.28754053 -0.12659927 0.09146607
000010 12 c1 48 3e d8 f7 86 3e 3f 7d cc 3d 7c 13 36 be
       0.196049 0.26360965 0.09984826 -0.1778087
000020 e6 6b df 3d e9 8a 1c be 21 6e 77 bb 68 4b b6 bc
       0.10909252 -0.15287365 -0.003775485 -0.022252753
000030 19 25 bb bd a0 e7 f4 3d 8b d8 d9 bd 53 62 23 be
       -0.09137935 0.119582415 -0.106370054 -0.15955476
000040 ee 5f 81 3e 48 15 66 3d b4 99 91 3d ef f6 a2 3e
       0.252685 0.05617264 0.07109395 0.3182902
000050 88 09 52 3e 0c aa b9 3d 72 1e a0 be d2 3b 79 3e
       0.20511448 0.09065637 -0.31273228 0.24339226
000060 bf 70 b4 be 8f fd d1 bd 01 9c 36 3e 45 12 aa 3d
       -0.35242268 -0.102534406 0.17832948 0.08304266
000070 53 cb ef bd 96 7d c3 3e 05 66 88 3d 6d d8 db bd
       -0.11708703 0.38181752 0.06660084 -0.10734639
000080 38 2b 64 be 71 2c 12 be b2 87 9b 3e 5a 06 a7 3e
       -0.22282112 -0.14274766 0.30376965 0.32622033
000090 5e f1 a3 3e 9a 1f a5 bc 59 69 f4 3e 86 8e 91 3e
       0.32020086 -0.02015667 0.47736624 0.2842905

lstm.bias_hh_l0 f4 [40]
000000 bd f4 8c 3d 74 5c 94 be 79 fe 75 bd 45 d8 a0 3d
       0.068826176 -0.28976786 -0.060057137 0.0785375
000010 4c 72 66 3e 70 20 18 be d5 de 85 3e ef 5e 63 be
       0.22504538 -0.14856124 0.2614657 -0.22204183
000020 46 84 d9 3e 66 bd 46 3e b6 59 08 bc 05 11 b5 3b
       0.4248373 0.19408187 -0.00832217 0.0055257105
000030 4e a0 17 bd a8 df 75 be 26 ec 82 bd 4c 65 95 bd
       -0.037018113 -0.240111 -0.06392698 -0.072947115
000040 52 fe 8e be 44 7d c2 3d bb 66 7c 3d aa 20 52 be
       -0.27928406 0.09496549 0.06162141 -0.20520273
000050 32 09 03 3e 54 b0 7e be 9e 40 44 be d9 09 64 bd
       0.12796476 -0.24871951 -0.19165275 -0.055673454
000060 4d 41 66 be 24 05 87 3e 22 3c 1f bd db 0c 48 be
       -0.22485848 0.2637111 -0.038875706 -0.19536154
000070 c3 94 9a be 42 7b 8b 3e 6b 11 19 be 99 4d f7 3c
       -0.3019162 0.27242476 -0.1494805 0.030188369
000080 a8 e1 ac bc 0e 58 18 be e8 b7 94 bd f3 97 84 3d
       -0.021103695 -0.1487734 -0.0726164 0.064742945
000090 5a d7 52 bd 5f bc 91 3e 87 f1 e3 3e 83 0d f6 bd
       -0.051474907 0.28464028 0.44520208 -0.12014296

lstm.weight_ih_l1 f4 [40, 10]
000000 fa 18 30 be c8 6d 75 3e 68 62 a3 3e 3f 79 77 be
       -0.17197028 0.2396766 0.31911016 -0.24167345
000010 90 d8 84 be fd 51 a8 3e 82 7f 33 3e f7 aa 6a bd
       -0.25946474 0.32875052 0.17529109 -0.05729195
000020 98 89 51 be 69 5e a8 3d 66 22 a3 bd 5c 0c 4e 3c
       -0.20462644 0.08221132 -0.07965545 0.012576189
000030 8e f6 74 3e 2e 02 7d be b5 9f 1c 3d 48 17 18 bc
       0.23922178 -0.24707863 0.038238246 -0.009282894
000040 97 d6 34 3d c5 40 a4 bd 82 62 6a 3b d5 89 43 be
       0.04414996 -0.08020166 0.0035764282 -0.19095547
000050 11 08 0d 3e 80 7b 07 3d e4 ca b7 bd 1d d3 26 be
       0.13772608 0.033076763 -0.08974245 -0.16291471
000060 90 ef e3 bd 6a 06 53 be 20 0d cb bd 9d d1 43 be
       -0.11129677 -0.20607916 -0.09914613 -0.1912293
000070 e9 53 0c 3e f2 f4 4c 3e 2a fc d7 bc dc 33 09 3e
       0.13703884 0.20015314 -0.026365358 0.13398689
000080 0c 50 02 3c bd 0d 9b be 08 58 8e 3b 53 66 26 bd
       0.007953655 -0.3028392 0.0043439902 -0.040624928
000090 47 49 90 3e a4 ed 3d 3e b8 13 97 be 52 fb 2a 3e
       0.28180906 0.18547684 -0.29507232 0.16697434
0000a0 89 5c 11 be dc 33 0d bd 44 d4 a1 be ab 9f 64 3d
       -0.14195456 -0.034473285 -0.31607258 0.055816334
0000b0 ab d7 85 3e 56 e1 07 be e8 32 7f be 48 8e 8d be
       0.26141104 -0.13269553 -0.24921763 -0.27647614
0000c0 65 74 72 3e 5a 55 a3 bd 55 38 d2 bd 9c cf f9 bd
       0.23677213 -0.07975264 -0.10264651 -0.121978015
0000d0 31 cd 34 3e 98 10 c7 bd cd 27 27 3e 1b aa 81 bd
       0.176564 -0.09719962 0.16323777 -0.06331273
0000e0 5d 28 99 3d b8 b8 99 3c d1 4c 6a be ae 3e 81 3e
       0.07478402 0.018764839 -0.22880866 0.25243133
0000f0 20 b3 5f bd 6c 63 80 bd 68 12 3f be 6e bc ce bc
       -0.054614186 -0.06268963 -0.18659365 -0.025236335
000100 d9 f0 22 3d 3d 4a 6c bd 66 e4 bf bd 40 e7 3c be
       0.03978047 -0.057687987 -0.093697354 -0.1844759
000110 1a fe 7c be c6 8f a1 3e d0 82 8c 3e 23 cc 9a bd
       -0.24706307 0.31555003 0.27443552 -0.07558467
000120 e0 e7 1a bd be c1 7e be 6c 82 62 3e 66 61 8d 3e
       -0.03781879 -0.24878594 0.22120064 0.27613372
000130 06 45 8c 3e 4b 56 9e be 10 dd 91 bc 7f 55 24 be
       0.2739641 -0.3092521 -0.017805606 -0.16048239
000140 aa e5 06 bc 13 eb 35 3e e5 8b 08 be a8 16 28 be
       -0.008233467 0.17765455 -0.13334616 -0.16414893
000150 2f b0 bc be 6e ff 01 3e a5 f0 8f bc b8 37 0c 3e
       -0.36853167 0.12695095 -0.017570803 0.1369313
000160 0c fc 17 be 10 bd 86 3e 2f f9 0d 3d 4f 21 a3 be
       -0.14842242 0.26316118 0.034661468 -0.3186135
000170 ff ae 74 3e 55 3e 67 be df a7 7a be dc 82 84 3e
       0.2389488 -0.22582372 -0.244781 0.25881088
000180 85 6e 61 be fa bd 1d be c0 77 b8 be 6a c7 92 3e
       -0.22014816 -0.15404502 -0.36028862 0.28667766
000190 6d 2a 5c be dd 2c 42 3e 66 94 17 be 99 ce df bc
       -0.21500559 0.18962426 -0.14802703 -0.027320193
0001a0 08 65 4f bd e8 4f 5d 3e c1 1e a8 3d 19 d1 8c be
       -0.05063346 0.21612513 0.08208991 -0.2750328
0001b0 f6 9c 09 3e 16 c4 58 3e 80 9e db 3c 52 e1 80 be
       0.13438782 0.21168551 0.026808977 -0.25171906
0001c0 dc 53 87 3d ba 48 93 be ba 5f f0 bd d4 d8 04 3e
       0.06607792 -0.28766423 -0.117370084 0.12973338
0001d0 14 ba 32 be d0 18 44 be 30 d1 cb 3a 40 e9 a4 bd
       -0.17453796 -0.1915009 0.0015550014 -0.080523014
0001e0 1d 7e 2e 3e 59 10 2f be a2 1b 3f be 62 db 54 3e
       0.17040296 -0.1709608 -0.18662885 0.20786813
0001f0 28 a6 8c be 7d da 8e 3e b5 75 c3 bd e5 df 52 3c
       -0.27470517 0.27901068 -0.09543935 0.012870763
000200 4b 36 b4 bd 6d d5 bb 3e b2 ce 62 3e b6 36 21 3e
       -0.08799418 0.36686268 0.2214916 0.15743527
000210 77 1e ee bd 08 e2 1c 3e bb 11 c1 bd e6 54 a1 3e
       -0.116269045 0.15320599 -0.0942721 0.31510085
000220 7e 48 6e 3e 4e e4 78 3e 1b 8a 8c be a9 0f 9a be
       0.23269841 0.24305841 -0.27449116 -0.30090073
000230 30 62 9f be 04 1d 55 3d 90 c1 6f 3e 7c c1 71 3e
       -0.311296 0.052029625 0.23413682 0.23608965
000240 a7 bf 35 3e 31 53 8f be ab 20 2c be 37 a7 4f bd
       0.17748891 -0.27993158 -0.16809337 -0.050696578
000250 6b 8d 90 3e 21 93 a3 3e fd 95 9c 3d e8 7d 8e 3e
       0.28232893 0.31948188 0.076457955 0.27830434
000260 44 bc 2e 3e 2c 51 9c 3d 13 41 9e 3e 9a 08 9a 3e
       0.17064005 0.0763267 0.30909023 0.30084687
000270 85 b8 4f 3e c7 4f 51 3d 28 20 8a be 56 e8 56 bd
       0.20285232 0.051101472 -0.26977658 -0.052467667
000280 b1 98 2a be 2e 3b 1a 3e 12 13 9a 3e 54 69 d3 3d
       -0.1665981 0.15061638 0.30092674 0.10322824
000290 24 17 0a be c7 21 69 3e 10 a6 8f bd 78 b4 a4 3e
       -0.1348539 0.22766791 -0.07014096 0.32168937
0002a0 5e d3 c2 3d 83 43 a0 bd d2 ff 4b bd f4 b4 40 bd
       0.09512971 -0.07825377 -0.049804516 -0.04704757
0002b0 f3 33 77 3e 55 bd 4b be 20 d2 23 3e 2e 3a de 3b
       0.24140911 -0.19896443 0.15998125 0.006781838
0002c0 65 af cf bc 98 24 89 3e 8f 98 84 3e 07 85 ae bd
       -0.02535219 0.2678573 0.25897643 -0.08521467
0002d0 9c d1 f9 bd c6 66 20 be e1 27 32 3e fe 5b 79 3d
       -0.12198183 -0.15664205 0.17398025 0.060878746
0002e0 07 40 96 be 26 c3 91 3e db 20 2a 3d 78 88 72 be
       -0.29345724 0.284692 0.04153524 -0.23684871
0002f0 75 18 14 3e e9 88 49 3e 9f 7e 83 be ba ee 10 3e
       0.14462455 0.19681133 -0.25682542 0.14153567
000300 fc 5f 32 be eb 7f 67 3e 8e cf 5c be e7 4e 91 3c
       -0.17419428 0.2260739 -0.21563551 0.017737819
000310 24 aa b8 3d cf 7e ab 3d 1f a3 87 3e 62 22 4d bc
       0.09016827 0.08373796 0.2649164 -0.0125204045
000320 75 8b b0 be 33 e6 8d 3e b8 3b 14 be e1 09 aa 3e
       -0.34481397 0.2771469 -0.14475906 0.33210662
000330 d9 6d 8c be 83 d4 79 3d 63 49 23 3e 87 5d c7 bc
       -0.27427557 0.060993683 0.15945964 -0.02433659
000340 65 ea b0 3c 72 e2 46 be b4 8b 88 be 4a 8d 1c be
       0.021596143 -0.1942232 -0.26669085 -0.15288273
000350 ca 27 c9 3d ff f6 48 3d bc 5d 08 3e 58 8c c3 3e
       0.09822042 0.04906368 0.13317007 0.3819301
000360 db 6a 0f be 8c 6a 24 3e ea 92 c0 be f4 d4 59 be
       -0.14005606 0.1605627 -0.37612087 -0.21272641
000370 61 4e 98 3e 84 a3 14 be 0b 01 b3 bd ca b9 ac 3d
       0.29747298 -0.14515501 -0.08740433 0.08433874
000380 26 57 79 be 0f cd c4 bc c8 d7 5a 3e 58 ce 87 bd
       -0.2434965 -0.02402356 0.21371377 -0.06631154
000390 82 a5 03 3f e8 2e 9e 3e b3 e9 9b be ec d3 ed bd
       0.5142442 0.30895162 -0.30451736 -0.116126865
0003a0 2d f3 86 3e 9d b9 80 bd 16 3c 96 be cb ad a6 3e
       0.26357403 -0.06285403 -0.29342717 0.3255447
0003b0 16 97 42 3e 08 90 67 be 42 51 10 be 4c ce 2e bd
       0.19002947 -0.22613537 -0.14093497 -0.04267721
0003c0 40 2a 59 3c 73 de 1b be c6 d9 c1 be 65 2d 42 be
       0.013254702 -0.15221576 -0.3786146 -0.18962629
0003d0 90 46 94 be 98 5e 83 be e0 c5 bb bd 70 3b 99 3e
       -0.28960085 -0.25658107 -0.09168601 0.2992816
0003e0 19 67 c1 3e 20 ea 7d bd 86 31 3a 3e dd a6 92 be
       0.3777397 -0.061990857 0.18182954 -0.28642932
0003f0 a6 ee 4d 3e ac ad 78 be fd ef a3 3c d5 ba c2 be
       0.20110568 -0.24285 0.020011896 -0.38033167
