SourceCode/models/lstm/LSTM_open_loop.pt (torch, 32047 bytes, 40 tensors)

weight_ih_l0 f4 [40, 2]
000000 ff 34 97 3e e9 08 b5 3d dc b1 17 be 87 c7 f0 3e
       0.2953262 0.0883959 -0.14813942 0.47027227
000010 40 ec 75 3e 7c f7 72 bd 35 21 69 3e 69 c7 e6 3e
       0.24015903 -0.05931805 0.22766574 0.45074013
000020 05 7b 7d 3d 40 e8 00 3d 43 62 40 be 19 3c 8f be
       0.0618849 0.03147149 -0.18787484 -0.27975538
000030 da 81 31 3e 68 9e a7 be 52 92 05 3d 03 c6 1d bd
       0.1733469 -0.32738042 0.032610245 -0.038518917
000040 7c d0 8f 3d 46 54 07 3c c5 78 6a 3d 3f a5 39 be
       0.07022187 0.008259838 0.05724408 -0.18129443
000050 af 63 5c be 58 61 fb 3b 16 fc fa bc d8 f2 19 3f
       -0.21522401 0.0076715164 -0.030637782 0.60136175
000060 94 d2 d6 3e 25 fc 76 be 0e 19 25 3e 9b 9e dc 3d
       0.41957533 -0.24119623 0.16122839 0.10772439
000070 57 6b 9c 3d 01 5f a3 bd b7 b6 5c 3e 2d 52 f3 be
       0.07637661 -0.07977105 0.21554075 -0.47523633
000080 c4 f1 09 be 81 14 9c be 1c 76 29 3b e2 e5 f4 be
       -0.13471133 -0.30484393 0.0025857752 -0.47831637
000090 61 ec 5b bd 27 8e 6d 3d ae 69 8b be c7 bd ac be
       -0.053692225 0.057996895 -0.27229065 -0.3373854
0000a0 f4 5c 05 bf 4f 45 37 be 06 6a 06 bf aa fb 45 bf
       -0.5209496 -0.17897533 -0.5250553 -0.77337134
0000b0 51 2d 28 3e fa e5 9a 3d 17 40 0e bf e2 86 88 be
       0.16423537 0.07563396 -0.55566543 -0.26665407
0000c0 90 73 50 be 8c be e3 be 0a e8 3b 3d fa 6a c1 bd
       -0.20356584 -0.44481313 0.045875587 -0.09444232
0000d0 a3 66 2c bc ce 07 40 bf 0c 7d 63 3e 04 8e 9b 3e
       -0.010522517 -0.7501191 0.2221567 0.30381787
0000e0 ff 59 75 be 42 b6 17 3c a2 3a 56 3d 13 6f 4d 3e
       -0.23960112 0.009259762 0.05230201 0.20061903
0000f0 15 dc 6f be a7 bc 91 be c3 d1 94 bd e2 fc 0c 3f
       -0.23423798 -0.28464243 -0.072665714 0.5507337
000100 7b c4 fd 3c a7 00 23 be 43 3f 09 3e d8 da 10 3f
       0.030977478 -0.15918218 0.13403039 0.5658393
000110 6c 80 40 3e 8d c9 69 be 62 8d a0 3d e0 b2 a7 be
       0.18798989 -0.22830792 0.07839467 -0.32753658
000120 42 1f 2e 3e 78 e0 59 be 65 67 01 3e 2f 94 06 bf
       0.17004111 -0.21277034 0.12637098 -0.5256986
000130 b9 77 09 3f 2b 57 3a 3e 62 80 9b be fb 05 e4 be
       0.5369831 0.18197314 -0.30371386 -0.44535813

weight_hh_l0 f4 [40, 10]
000000 a8 c0 2d 3e 3d 6a 08 bf f8 11 10 3c 44 73 5b be
       0.16968024 -0.53287107 0.008793347 -0.21430689
000010 f4 79 42 ba 89 44 12 be d5 9b d0 bd d5 ac 7c bd
       -0.0007418685 -0.14283957 -0.101859726 -0.061688263
000020 d5 df 76 be 96 b7 a6 be dc b3 0e 3e 5e 10 b4 be
       -0.24108823 -0.3256194 0.13935798 -0.35168737
000030 73 7b 8c 3e 46 cc 43 bf ff 28 86 be f6 c1 b8 be
       0.27437934 -0.7648357 -0.26203153 -0.3608548
000040 52 c3 85 3e 92 9b 8d 3d b6 a5 59 bf 91 b8 92 3d
       0.2612558 0.06914438 -0.8501848 0.071641095
000050 e5 2f 30 3e 95 65 98 3e 3d 28 b2 be 2c ea 8f be
       0.1720577 0.29765 -0.34796324 -0.28108346
000060 f1 ce 65 3e 0c dc b2 be 5d 48 49 be c3 80 0c 3e
       0.22442223 -0.34933507 -0.1965651 0.13720994
000070 1f 3b 64 3e e6 e2 ed bd e4 1c 6f bd ab 02 8b bb
       0.22288178 -0.11615543 -0.05837716 -0.0042422614
000080 35 25 cc 3e 25 b7 15 be 89 37 06 be fc 82 9a bd
       0.39872137 -0.14620645 -0.13107122 -0.075445145
000090 28 07 3c be 76 12 80 bd d8 ce 2c be 8b b6 e1 bd
       -0.18362105 -0.06253521 -0.1687578 -0.110211454
0000a0 ab 5f 63 3e 79 db 91 be 8d c5 48 3d b8 d8 a6 be
       0.22204463 -0.28487757 0.049016524 -0.32587218
0000b0 32 e6 96 be ec f9 96 be 88 8d dc 39 41 00 f3 3d
       -0.294725 -0.2948755 0.0004206712 0.11865283
0000c0 65 bf 26 be e2 9d 3f bc 07 18 27 be 03 d9 01 be
       -0.16283949 -0.011695357 -0.1631776 -0.1268044
0000d0 d2 e1 7d be c0 dd 8e be 46 3a 27 be 91 83 a1 bd
       -0.24793175 -0.27903557 -0.16330823 -0.078864224
0000e0 85 55 0a be aa e4 a4 be 87 3f 54 3e 59 61 f5 3c
       -0.13509186 -0.32205707 0.20727359 0.029953646
0000f0 71 f4 fe 3d 07 c7 1f bf 8d e3 4d 3d 39 ab db bf
       0.12448967 -0.62413067 0.050265837 -1.7161628
000100 a8 67 04 bd 4e de c7 be 0d 49 63 bd 60 d6 f4 3d
       -0.032325417 -0.39036793 -0.05548959 0.11954951
000110 fe e4 4b bf f3 a7 9a be 17 7b 12 3e 59 b4 e1 bd
       -0.7964629 -0.3020626 0.14304768 -0.11020727
000120 08 fe 93 bc 4f b5 b9 be 68 11 a4 3e 08 ed 6c be
       -0.018065467 -0.3627114 0.3204453 -0.23137295
000130 fb 30 9a bd ac 32 85 be c6 58 18 3d 04 6f 84 3d
       -0.075288735 -0.26015222 0.037194036 0.06466487
000140 25 b1 f5 3d 42 11 21 be 22 e2 c6 3d 61 11 7a bd
       0.11996678 -0.1572924 0.097111 -0.06105173
000150 28 8d ab be ec 92 85 bd a7 d3 37 be 5f f8 67 3e
       -0.3350613 -0.06522164 -0.17951833 0.2265334
000160 b1 c6 a1 be a8 ef 74 be 03 95 5c bd 0b 41 3e 3e
       -0.31596902 -0.23919547 -0.053853046 0.185795
000170 a3 fb 97 be 40 1a fe be 8d 6b c9 3c a0 4a 88 3e
       -0.2968417 -0.49629402 0.024587417 0.26619434
000180 2f e3 88 3e a9 c5 b6 be bb 42 46 be ba e8 b2 be
       0.26735827 -0.35697678 -0.19361393 -0.3494318
000190 72 86 89 3d a4 60 50 bf 60 46 ee 3d 43 d8 bb be
       0.067150965 -0.8139746 0.11634517 -0.36688432
0001a0 67 a7 90 be 59 af 82 be 08 5a b1 3d 83 85 b0 bc
       -0.28252718 -0.25524405 0.0865975 -0.021548038
0001b0 9a 56 11 be ea aa a6 be 0f a0 c7 be 27 5e eb 3d
       -0.14193192 -0.32552272 -0.38989303 0.114925675
0001c0 ec 0c e3 bd 39 a1 0d be 42 8c f4 be cc 87 af be
       -0.11086449 -0.13831033 -0.47763258 -0.34283292
0001d0 1c 50 26 bd e4 ad d1 bb 8d aa 17 be 02 f3 6d be
       -0.040603742 -0.006398903 -0.14811154 -0.23237231
0001e0 b0 9e 89 3e e9 4f a3 3d 6c 33 40 3d ec 0d 0d 3e
       0.2687888 0.07974226 0.04692404 0.13774842
0001f0 4b f2 28 bd 01 08 fb be b6 7f f9 3e b0 ba 8e be
       -0.041246694 -0.49029544 0.48730248 -0.27876806
000200 9b 48 d7 3d fd e6 86 be da af b2 bc e0 6d 9d be
       0.10511895 -0.26348105 -0.021812368 -0.3074789
000210 6e 08 b8 3d 35 bc 21 bd ea 40 d9 be 70 07 5c be
       0.08985983 -0.03948613 -0.42432338 -0.21487212
000220 3e 41 3a 3e 8c 84 09 3d 5b ed 3b be b0 71 a6 be
       0.1818895 0.033573672 -0.18352263 -0.32508612
000230 eb c4 04 be be a7 08 bc d0 ca fa 3c 5a 43 c4 be
       -0.12965743 -0.008340774 0.030614287 -0.38332635
000240 3c bd 6a 3d 1e ef a7 be 8a a5 e7 3e 48 3e b0 be
       0.057309374 -0.3279962 0.45243484 -0.34422517
000250 1d 53 fd bd 53 7c d0 be 58 2b 45 3e 2f 8e 0b 3d
       -0.12369368 -0.40719852 0.19254816 0.034071144
000260 dc 7e 9e 3c e9 be c8 3d 57 0a 42 be 14 97 28 be
       0.0193476 0.09802038 -0.18949257 -0.16463882
000270 0c 9d dc 3e 8e 51 6f 3d a9 94 bb 3d 70 01 b1 be
       0.43088567 0.058427386 0.09159214 -0.3457141
000280 40 17 73 3e 84 07 07 3f b1 44 f2 bd 58 18 a6 3e
       0.23739338 0.5274584 -0.11829508 0.32440448
000290 ef b8 f0 bc 05 68 43 be 1b ae 90 3e f0 ab 93 3c
       -0.029385058 -0.19082649 0.28257832 0.018026322
0002a0 40 e4 98 3e cb 2c 1f bd 99 f8 08 3e 02 b6 3d 3e
       0.2986164 -0.038861077 0.13376082 0.18526462
0002b0 52 94 12 be 3e 5e 56 3e 18 93 a9 3e fa 5d 56 be
       -0.14314392 0.20934388 0.33120036 -0.20934287
0002c0 5f 0b bc 3e f9 4c 8e be e5 f8 28 3d 6f e0 c2 3d
       0.36727425 -0.277931 0.04125299 0.095154636
0002d0 9a 02 06 be a9 05 36 be 4e c4 db 3d e1 3a 06 bf
       -0.1308693 -0.17775597 0.107308015 -0.5243359
0002e0 fd 3b 34 3d a2 19 87 be eb 63 62 bd 4a b5 d5 3c
       0.04400252 -0.26386744 -0.05527107 0.026087422
0002f0 6f e6 cf be e7 a4 19 3d e1 b9 62 be 09 24 39 3e
       -0.40605494 0.03751078 -0.2214122 0.18080153
000300 6b 4b 14 bd df 03 61 3d b4 d5 14 be b1 ae a5 bc
       -0.036204737 0.054935332 -0.14534646 -0.0202249
000310 9e 43 bb 3e 64 4e bf be 64 bf ad 3b d1 4b d9 be
       0.36575025 -0.37364495 0.0053023566 -0.42440656
000320 a0 bd 2a 3e 25 e6 78 be 79 01 a3 be ea 6c 37 3e
       0.16673899 -0.24306543 -0.3183706 0.17912641
000330 aa 81 fe 3b da 1b 92 be 7f f3 5b be 4a b2 9e be
       0.007766922 -0.28536874 -0.21479605 -0.309954
000340 b1 2a 87 be ce 22 84 be e4 c6 b2 39 5f 94 39 be
       -0.26399758 -0.25807804 0.0003409899 -0.18123005
000350 bf 6e e1 3d 24 a5 24 be e7 a6 8f 3e da f7 bd 3e
       0.11007451 -0.16078621 0.28057024 0.37103158
000360 69 fd 55 be 91 96 07 be f0 fc d5 bd 42 9b 62 3e
       -0.2089745 -0.1324103 -0.104486346 0.22129539
000370 42 91 32 3e c1 0b b1 bc e1 27 9e 3e 69 a1 a2 be
       0.17438224 -0.02161205 0.308898 -0.3176377
000380 76 cc ba be cc 5c 45 3e b9 2d 8c 3e 46 e2 8b 3e
       -0.36484116 0.1927368 0.27378634 0.2732107
000390 be a5 f0 3d bf c2 90 3e f3 23 00 3f fd 20 1e be
       0.11750363 0.2827358 0.50054854 -0.15442272
0003a0 19 95 04 bf cd ca be 3e 7b e4 f3 3c f3 d3 7a 3c
       -0.51790005 0.372641 0.029772034 0.015309322
0003b0 0a 77 db be e0 81 07 3c a0 c0 57 3e 81 94 ca be
       -0.42864257 0.008270711 0.21069574 -0.39566424
0003c0 1d 28 b1 3e 77 f6 c3 bd 30 96 ee bd 98 d7 6c be
       0.34600917 -0.09568494 -0.1164974 -0.23129117
0003d0 2d 29 60 be 95 d9 01 be 60 40 8a be 4a cb 66 3e
       -0.21890707 -0.12680657 -0.2700224 0.22538486
0003e0 eb 92 9f bd a6 cb ec 3d bf 96 0b 3e d2 a8 be bd
       -0.07791694 0.1156228 0.13631724 -0.09309544
0003f0 74 d2 9c 3d 43 db 18 3e de 72 ca bd 49 c7 12 be
       0.07657328 0.14927392 -0.098851904 -0.14333834

bias_ih_l0 f4 [40]
000000 19 de 6c 3e f8 43 ba 3e 30 d5 74 3e be bd ba 3c
       0.23131599 0.3637998 0.2390945 0.022795554
000010 76 6d 06 3e 7f b9 05 3e 85 0e ea 3e 03 46 f3 bc
       0.13127694 0.13059042 0.45714203 -0.02969647
000020 68 0b e2 bd 18 ee fb 3d 44 f4 e0 3e d2 11 2e 3e
       -0.11037332 0.12301272 0.4393636 0.16998985
000030 1b 63 68 3e 94 ac b7 3c d2 9e ab 3e 32 59 bf 3e
       0.22694056 0.022421159 0.33519608 0.37372738
000040 bf 60 a3 be 7a e3 79 be a5 a1 2a 3e 40 99 52 be
       -0.3190975 -0.24403182 0.16663225 -0.20566273
000050 83 49 82 bd 44 9c 4f 3e 52 2b 2d 3c da 41 8f bc
       -0.063616775 0.20274454 0.01056941 -0.017487455
000060 d5 ee 67 be f2 e3 e1 bd 8b 44 27 3d 68 a7 87 3e
       -0.22649701 -0.11029805 0.040836852 0.26494908
000070 dc 8e d5 be a3 7e ac 3c b7 ee 05 3f ac 6b 31 3e
       -0.41710556 0.021056479 0.52317375 0.1732623
000080 bd 4d 75 3e 23 da 05 3d 88 17 03 3e 20 c9 80 3e
       0.23955436 0.032678735 0.12801945 0.25153446
000090 88 19 30 3f b6 c5 9c 3e ab 96 ac 3e a9 82 90 3c
       0.6878896 0.3061959 0.337087 0.017640429

bias_hh_l0 f4 [40]
000000 56 64 17 bd 65 fa f1 3d 96 76 70 bd 29 28 c9 3e
       -0.036960922 0.11815337 -0.058706842 0.39288452
000010 d8 5d 87 3e ea 93 ba bc 7e 6c e2 3e fa da bb 3d
       0.26438785 -0.022775609 0.44223398 0.09172626
000020 80 eb db 3c 14 d1 47 bd ff 9a dc 3e ac 9b ed bd
       0.026845694 -0.048783377 0.43087003 -0.11601958
000030 28 4a 80 3e 17 bf f3 bd 26 9e 3f 3e 93 f1 e7 bd
       0.25056577 -0.11901682 0.18712673 -0.113253735
000040 c2 ff 2f 3d 56 95 4b bd 0b 97 a2 bc c5 6a ed bc
       0.04296852 -0.049702965 -0.019847414 -0.028981576
000050 de 1e 0f 3d 85 17 69 be 87 d6 55 3e 54 4b 9d be
       0.034941547 -0.22762878 0.20882617 -0.30721533
000060 88 7a 56 3e 34 79 b4 be 7d 9e 05 bd dd bf 8a be
       0.2094518 -0.3524872 -0.03262185 -0.27099505
000070 33 04 a0 be 25 9b 9f bd f5 fb 47 3e f4 e6 b8 3e
       -0.31253204 -0.07793263 0.19529708 0.36113703
000080 e8 7a ec bd 14 68 20 3e 26 9f f7 3d c5 8d da 3d
       -0.1154688 0.15664703 0.12090902 0.10671572
000090 91 65 dc 3e 50 c7 0c 3e 7f 89 a9 3e 21 96 96 bc
       0.4304624 0.13747907 0.33112714 -0.018382134

weight_ih_l1 f4 [40, 10]
000000 e5 df e0 bd fc 45 9b 3e 7a 2a 43 be e3 32 79 be
       -0.109802045 0.3032683 -0.19059172 -0.24335818
000010 d7 c6 b1 3e ed 77 75 3d 46 35 ea 3d 8f 3d dd be
       0.34722015 0.059928823 0.11435942 -0.43211028
000020 12 8f 8d 3b 90 4b 33 3d 2f 47 ab 3e 80 62 2f 3e
       0.004320034 0.043773234 0.33452746 0.17127419
000030 0d 16 0a 3e c0 dd c3 3d 33 cb 4e be 19 a0 87 bc
       0.13484974 0.0956378 -0.20194702 -0.016555833
000040 33 32 c0 be fa ad af 3d 07 26 01 be 1e ed 83 be
       -0.375383 0.08578105 -0.12612163 -0.25766844
000050 b0 10 2f 3e 3b c7 13 bd c1 b5 99 3e bc 1f 0c 3e
       0.1709621 -0.036078673 0.3002148 0.1368398
000060 a5 63 db 3d 1d d4 99 be 73 ce 7a 3d 45 13 10 be
       0.10712365 -0.30044642 0.06123204 -0.1406985
000070 5f e4 30 be be 1c c9 bd c9 c7 7d 3e ee f9 60 3d
       -0.17274617 -0.09819935 0.24783243 0.05492585
000080 73 0f 48 bd e0 b4 dd bd bd fb 40 3e f2 7f 18 bf
       -0.04884286 -0.10825515 0.1884603 -0.5957023
000090 6f b2 bd bd 22 29 29 be f0 27 1a bf 9d ba bf 3d
       -0.09262549 -0.16519597 -0.6021719 0.093617655
0000a0 0a 5e 40 3f f5 5a b5 3e cc 12 3f bd 72 e9 8f 3b
       0.7514349 0.35420957 -0.046648785 0.0043918425
0000b0 c7 0c 25 3e 9c 5c de be cf 4b ea 3e 04 7f 14 bf
       0.16118155 -0.4343003 0.45760962 -0.5800631
0000c0 f9 44 ee be 8d a3 d3 be a6 4c 6a 3e 18 4e 44 3d
       -0.46536997 -0.41335717 0.22880802 0.04792604
0000d0 6d b1 e9 3e 22 5c 08 bf 7a 43 9d bc ba e4 de bd
       0.45643178 -0.53265584 -0.019197214 -0.1088347
0000e0 4a 5a ab 3c fa b4 29 3d 24 07 24 be bc bb c5 bd
       0.020917077 0.04143236 -0.16018349 -0.09654948
0000f0 21 d5 48 3e 2e 19 5f bc 70 11 81 3e cd 34 05 3e
       0.19612552 -0.013616843 0.25208616 0.13008423
000100 81 3d 52 3d a5 f7 df 3d 2f 18 23 be 2d d1 f9 3d
       0.051328186 0.10935906 -0.15927194 0.121981
000110 db 88 ce be f7 f5 3a be 32 a8 15 3d be b1 b6 be
       -0.40338787 -0.1825789 0.036537357 -0.35682482
000120 a5 6a 7b 3e a7 7a b6 be 45 de c2 be cd f5 9b be
       0.245524 -0.3564045 -0.38060203 -0.3046097
000130 2a 74 10 3e ea 6b 57 3e be b1 04 bf e2 74 bf 3d
       0.14106813 0.2103726 -0.51833713 0.093484655
000140 e3 65 9d 3d 7f 56 b0 3d bc f0 22 be 43 17 a8 be
       0.07685449 0.08610248 -0.15912145 -0.32830247
000150 ce 15 e9 3d e1 3e 98 be 55 16 c5 3d 9c 22 49 3e
       0.11381112 -0.29735473 0.096234 0.19642109
000160 1b 85 74 be 6d f0 ed bc c9 91 b6 3d ca 09 66 be
       -0.238789 -0.029045308 0.08914525 -0.22464672
000170 4c 22 58 3e 5e 73 9d be 5d af 9f be 30 5b 60 3e
       0.21106833 -0.3075208 -0.3118848 0.21909785
000180 8f 14 60 bd a3 af 6e 3e 50 42 df bd 64 ea 52 3c
       -0.054707106 0.23309188 -0.1090132 0.012873266
000190 93 a3 e8 3d 04 f9 ff 3d f8 a9 ab be aa c8 4e bc
       0.11359324 0.12498668 -0.33528113 -0.012621084
0001a0 b6 45 4b bd 81 f8 dc bc 55 e6 ce 3e 73 17 fc bd
       -0.04962703 -0.026973965 0.40410104 -0.1230916
0001b0 18 70 28 be fb 4e c1 3d a4 79 72 3d 3d 8e 6b 3d
       -0.1644901 0.094388925 0.059198037 0.057508696
0001c0 4e f1 19 3e 0a 78 01 bd 61 40 72 be 5f f5 97 3e
       0.15033457 -0.03160862 -0.23657371 0.2967939
0001d0 80 37 f6 bd 99 7c f9 3d f2 d4 88 3d 21 62 34 be
       -0.120223045 0.12181968 0.06681241 -0.17615558
0001e0 31 b9 a2 be 40 e5 38 3e 6e 2b a4 3d 45 76 6a be
       -0.31781915 0.18056202 0.08016096 -0.22896679
0001f0 21 2d 2d be 8a dd 5c 3e 25 28 c0 bd 2e 7d 9a 3e
       -0.16911747 0.21568885 -0.09382657 0.3017363
000200 20 6c 2d 3e a0 95 05 bd d6 e1 5f 3e a3 69 9d bd
       0.16935778 -0.032613397 0.21863493 -0.07686164
000210 dc 4a 43 be dc 1a 04 3e 23 20 74 3e bc d6 78 be
       -0.19071525 0.12900871 0.23840384 -0.24300665
000220 2c c6 a3 3e 46 e7 50 3b f3 9f 7d 3e 92 10 84 be
       0.3198713 0.003187613 0.24768047 -0.25793892
000230 d9 97 cb 3e 28 8c dc 3e cb 2a 4b be 50 9a 1d 3f
       0.39764288 0.4307568 -0.19840543 0.6156359
000240 a5 d0 f5 3e a8 62 b8 be e1 6a 3e 3f fd c7 06 bf
       0.48010746 -0.3601277 0.74381834 -0.5264891
000250 37 a4 12 3e 10 69 66 3d bd f5 d3 be 9d 29 d4 3b
       0.14320455 0.05625254 -0.4139842 0.0064746873
000260 7a 90 99 3e 4d 56 ae be b6 22 c9 bd c9 eb 7f 3e
       0.2999304 -0.34050217 -0.09821074 0.24992289
000270 4c db c7 bd f0 5a c7 3e 79 4d 16 be cf ff 49 3e
       -0.097586244 0.38936567 -0.14677991 0.1972649
000280 4d 4b 86 3d 15 40 c3 be b5 7f d7 3d cd 55 ed 3d
       0.06557331 -0.38134828 0.10522405 0.11588631
000290 42 7c 07 3e 8a 80 bd be 63 db e4 be bd f5 d7 3c
       0.13230994 -0.3701213 -0.4469863 0.026362294
0002a0 e3 f4 92 be e4 e4 9d 3d 09 5c 65 be df 3f 09 bf
       -0.2870246 0.07709673 -0.2239839 -0.53613085
0002b0 90 6e af 3e ed c5 a2 be a6 cb 21 be dd f5 38 be
       0.3426404 -0.3179163 -0.15800342 -0.1806254
0002c0 28 64 ba bd ce b9 cd 3e 6a 7e 0e bb b7 41 32 be
       -0.091011345 0.4018082 -0.002174283 -0.1740788
0002d0 87 5e a1 3c 8f 21 29 be a6 77 8b be 24 7b 77 be
       0.019698394 -0.16516708 -0.27239722 -0.24168068
0002e0 bd 57 62 3e 8f 5c ff bd ac 32 f2 bd 18 5d 36 bd
       0.22103782 -0.12468826 -0.11826071 -0.044522375
0002f0 c8 c9 7f be 80 8c 16 bc a3 5c 21 be 53 ac 9b be
       -0.24979317 -0.009188771 -0.15757994 -0.3040491
000300 58 e4 1f 3e cb 61 30 be a7 2a 85 be 9e 4d 6c be
       0.1561445 -0.17224805 -0.26009104 -0.23076484
000310 d7 c2 05 be 09 0f a4 3d e3 c2 cb 3d 2f 9a 74 3e
       -0.13062607 0.0801068 0.09949281 0.23886941
000320 66 74 b5 bd e7 20 5e 3e 6a d1 6f 3e 8a 47 28 bd
       -0.08860092 0.21692239 0.23419729 -0.04108385
000330 8e 5a 06 3e d8 af 25 3e 24 9d 0b bf fd 68 97 bd
       0.13120481 0.1618036 -0.5453665 -0.07393072
000340 af fe cc 3c c0 a4 b6 3e 04 60 85 bc cc a3 95 3e
       0.025023786 0.3567257 -0.016281135 0.2922653
000350 6f da 73 bd a9 d4 16 be cc 20 2b 3e 93 1b da bd
       -0.059534486 -0.14729561 0.1671173 -0.106497906
000360 56 42 92 bd d4 02 18 bd ed 90 a7 3e 35 a5 96 be
       -0.07141559 -0.037112072 0.32727757 -0.29422918
000370 37 25 31 3e c9 bd 91 be 1a cf 95 be 78 47 3f be
       0.17299353 -0.28465107 -0.29259568 -0.18679607
000380 40 e5 97 be d6 09 85 3d 91 52 d7 be 8e ce c4 3e
       -0.2966709 0.06496017 -0.4205518 0.3843884
000390 6a 33 9c bd 1a 6c bc 3e 20 13 34 3f bc c5 68 3f
       -0.07626994 0.36801225 0.7034168 0.9092672
0003a0 aa 88 b9 be e2 63 16 3f ba cc 06 3f d8 9b 99 bc
       -0.3623708 0.5874616 0.5265614 -0.01875107
0003b0 66 ed 3e 3f 01 c0 16 bf 2d 25 81 3e 3c 65 9e be
       0.7458099 -0.58886725 0.25223675 -0.3093661
0003c0 9b 49 4b bf 41 7d 34 be 6b 52 cf 3e 0e ea 0b be
       -0.7940919 -0.17625906 0.40492567 -0.13663504
0003d0 e4 5c f4 be b9 7b 84 3e af a3 16 bf db 02 cf 3e
       -0.4772712 0.25875643 -0.5884351 0.40431866
0003e0 8c 6d bd bd 35 30 c0 3e a1 47 20 be a5 4e e0 be
       -0.0924941 0.3753678 -0.15652324 -0.4381
0003f0 62 4b 5b 3c 05 0a 2f be b7 89 00 bc 80 d7 3f be
       0.013384672 -0.17093666 -0.007845334 -0.1873455

weight_hh_l1 f4 [40, 10]
000000 a5 c6 bc 3d b5 3e cf bd 9b 0b 7b 3e 85 01 a0 3d
       0.09217576 -0.10119382 0.24516146 0.0781279
000010 b7 0e d0 bc ba ac 8a 3d ff 71 d2 3e 88 dd f4 bc
       -0.025397642 0.06771226 0.41102597 -0.02989079
000020 dd d2 3a 3d da f6 95 3e 86 dc 9c 3d cc 6e 1e be
       0.04561125 0.29289895 0.07659249 -0.15471953
000030 54 ad 7f 3d ba a7 d7 bb 7c 5d 1b 3e 5d 40 62 3e
       0.062421158 -0.006581274 0.1517238 0.22094865
000040 d4 8d 4f be 26 ad 43 3e 9c d6 63 bb a6 c7 92 3e
       -0.20268947 0.1910902 -0.0034765368 0.28667945
000050 c9 2e 3f 3d 14 ae 33 be a0 02 19 3d 0b ca e1 bd
       0.046675477 -0.17546874 0.03735602 -0.11024865
000060 ed 74 e2 be 39 3e 74 3e cc 65 85 3d 70 b9 1b 3e
       -0.44229832 0.23851861 0.06513557 0.15207458
000070 61 26 bc 3e d1 6b 69 3e 04 00 dd bd 76 7d a5 be
       0.3674803 0.22795035 -0.107910186 -0.32322282
000080 2d 61 47 3e 00 ed 1a be cd 29 03 bf e5 22 0d 3e
       0.19470663 -0.15129471 -0.5123566 0.13782842
000090 b2 a2 1f 3f a9 c3 da 3e 05 96 ad 3e 3b 71 f9 be
       0.6235763 0.42727402 0.33903518 -0.487192
0000a0 bd d1 2f be d1 1c 50 3c 13 dc b3 3c 46 b5 5c 3d
       -0.17169853 0.012702183 0.021955526 0.053883813
0000b0 70 3f ae 3b e9 55 49 be 10 a1 6a 3f 72 74 55 be
       0.005317621 -0.19661678 0.9165201 -0.20845202
0000c0 cc 85 ea 3e 75 da 2e 3d c3 15 f1 bd 55 78 1c 3e
       0.45805204 0.042688806 -0.11771729 0.15280278
0000d0 7e 84 0e be e1 d4 81 bd 51 ec f7 be ea cf e3 3e
       -0.1391773 -0.063394316 -0.48422483 0.44494563
0000e0 1a b4 61 bc 88 bc c1 3d de 71 7c 3e 77 74 a5 bd
       -0.01377585 0.094597876 0.24652812 -0.080788545
0000f0 86 96 be bd 85 c0 3a bd 1b a5 4d bd e7 6f f2 3d
       -0.09306054 -0.045593757 -0.050206285 0.1183775
000100 f7 d7 b4 3d ec 81 0e 3e f7 d5 17 3e 6a 15 4d bd
       0.088302545 0.13916749 0.14827715 -0.05006925
000110 d5 5a 49 bd e6 a9 cf be cf 50 21 3c d8 8f e0 be
       -0.04915889 -0.4055931 0.009845926 -0.43859744
000120 3c 89 97 3e 00 28 38 bd 8e 9c 9b 3d 56 f1 e2 3c
       0.2959689 -0.044960022 0.0759822 0.027702969
000130 5f 0d 9e 3e 2f 7a 2d 3e 53 81 69 bd 50 05 ae be
       0.30869576 0.1694114 -0.0570081 -0.33988428
000140 f9 50 9d be bd 7a 34 3e 45 bf 7c bd a3 e9 d3 bc
       -0.3072584 0.17624946 -0.061705846 -0.025868243
000150 0c de 4a bc 02 04 2d bd a9 34 74 be e8 96 38 be
       -0.012382042 -0.04224015 -0.23848213 -0.18026316
000160 0b 70 39 3e 19 0a 65 3e 38 a4 87 be 77 d4 6e 3e
       0.18109147 0.22367133 -0.26492476 0.23323236
000170 e6 ab 8b 3e 91 db 76 3e a4 aa 13 bf 1c c3 0f be
       0.27279586 0.24107195 -0.5768225 -0.14039272
000180 ea 19 3d be 1e 98 7d be 1a 33 eb 3c a3 4a cc 3d
       -0.18466917 -0.2476506 0.02871089 0.09975173
000190 e4 67 d7 3d 2f 46 83 3d 0b 3c b9 be ae d7 74 be
       0.105178624 0.06409871 -0.36178622 -0.239104
0001a0 27 93 91 be d1 93 72 be 40 8e 86 3d ee f7 61 3e
       -0.2843258 -0.236892 0.06570101 0.22067234
0001b0 85 6b 08 be f6 0b 9f 3e 4f 32 7d 3e f0 08 08 bd
       -0.13322265 0.31063813 0.24726222 -0.03321165
0001c0 7b d3 6b be 20 e7 4b 3d fc 8f b4 be 81 35 cd be
       -0.23029892 0.049780965 -0.352661 -0.40079883
0001d0 00 15 61 3e ae c9 a2 be 09 08 2f 3e 90 9b 5a 3e
       0.21980667 -0.31794494 0.17092909 0.21348405
0001e0 dc f6 8c be 8c 5a 58 3e 00 28 2a be ae fa 13 bd
       -0.2753209 0.21128291 -0.16616821 -0.03612774
0001f0 5a fc 94 be 19 0e 9b be 5d 6f 34 be 66 4a df bd
       -0.2909878 -0.30284193 -0.17620607 -0.10902862
000200 53 7e a6 3d 77 f4 a9 3e 2b b4 ef bc 9d d6 94 be
       0.08129563 0.33194324 -0.029260715 -0.29069987
000210 94 95 80 3e 24 3e d5 3d 61 c7 22 be 03 47 8a 3e
       0.2511412 0.10412243 -0.1589637 0.27007303
000220 6f 14 ad be cb cd a5 bc 2e a1 8b 3e 95 e7 99 bd
       -0.33804652 -0.020239731 0.27271408 -0.07514874
000230 59 23 88 be 7e ab 31 3d bf a6 ca be e1 ec 42 3d
       -0.26589468 0.04337644 -0.39580342 0.047589187
000240 00 15 15 3c 29 b5 e6 be 14 49 85 3e ae 00 95 be
       0.009099245 -0.4506009 0.26032317 -0.2910208
000250 70 d3 ab be 7f a2 6f 3e 0b bf 04 3d 6d 32 3c 3e
       -0.33559752 0.23401831 0.032408755 0.18378611
000260 b5 26 25 3e 87 e5 91 bd a5 26 f5 3d 51 40 13 3e
       0.16128047 -0.07123857 0.119702615 0.14380004
000270 b6 ce 46 3e 67 7a d5 3d d2 62 b0 bd ca 73 8e 3b
       0.19414791 0.10423737 -0.086125985 0.004347299
000280 ba b3 a2 be 81 bb 45 3d 85 5b 33 3e 1c 00 21 3d
       -0.31777745 0.04827452 0.1751538 0.039306745
000290 f8 de 0e bf 04 74 55 bd a4 f7 9a 3c 60 c6 9c 3e
       -0.55808973 -0.052112594 0.018916912 0.30620098
0002a0 f3 4b 3b be 81 db 0a bd 3e 06 42 be fc c2 17 be
       -0.18290691 -0.03390074 -0.18947694 -0.14820474
0002b0 4d 62 05 be db 81 d3 bb 28 39 39 3e 9a da 12 3e
       -0.1302578 -0.006454689 0.1808821 0.14341202
0002c0 2b d1 b0 3d 54 3b 45 3e 77 8f 00 be 82 b4 08 be
       0.086336456 0.19260913 -0.12554727 -0.13350108
0002d0 01 48 3b bc 8e 07 52 bd ad 95 ce bd 01 c4 ea 3e
       -0.011430741 -0.051276736 -0.10087142 0.45852664
0002e0 33 dc c2 be 28 59 99 be 39 1c 80 bd c7 bb b3 3d
       -0.38058624 -0.29950833 -0.06255383 0.0877605
0002f0 94 63 d7 be c3 5d f5 3c cf d0 e7 3d 29 ab 7a 3e
       -0.4206816 0.029951936 0.11319124 0.24479355
000300 3c 57 13 bd 7e 8f 49 be e0 a6 6a be 53 ce 0a be
       -0.035971865 -0.19683644 -0.2291522 -0.13555269
000310 e4 b7 ae 3d 28 51 b2 b9 3d 48 a4 bd 9d 0c 69 be
       0.08531168 -0.00034011272 -0.08021591 -0.22758718
000320 53 f6 3b be 0b 31 6f be 04 5c 21 3e 73 ad 51 3e
       -0.18355684 -0.23358552 0.15757757 0.20476322
000330 a9 58 71 be 6a c3 7b bd 83 7f b9 bc e4 05 97 be
       -0.23568977 -0.06146566 -0.02264381 -0.29496682
000340 2d dd 1d 3d 52 5a 2b bd f4 d4 36 3e 38 00 54 be
       0.038541008 -0.041834183 0.17854673 -0.20703208
000350 c2 5a 06 bc 19 89 64 3d 05 dc 9d 3d 1e 4a 76 be
       -0.008200349 0.05579481 0.07707981 -0.24051711
000360 65 24 99 3d f4 ac a0 3e e7 6f 3c 3e 8d 60 9b 3e
       0.07477645 0.31381953 0.18402062 0.303471
000370 31 b7 a3 be 73 af 60 3e 6d db 78 3c 84 75 25 bb
       -0.319757 0.21941929 0.015189034 -0.0025247047
000380 17 5d dc be 12 d6 bc bd 1d df 9d bb ae 23 94 be
       -0.43039772 -0.09220518 -0.004817857 -0.2893347
000390 ff 74 97 3e dc 02 8a bd d8 0e 9b 3b 95 7a 04 be
       0.29581448 -0.06738827 0.004731994 -0.12937386
0003a0 9b e7 a4 be 66 39 11 be 09 0c 50 bd 9a f4 55 be
       -0.3220795 -0.14182052 -0.050792728 -0.2089409
0003b0 87 b6 52 3e b4 eb 3a bb 98 f6 92 be b2 1b 9a 3e
       0.20577441 -0.0028521838 -0.2870376 0.30099255
0003c0 a5 64 33 bd 2b 88 f6 bd 44 d8 dd 3e 78 fe 98 be
       -0.043797154 -0.12037691 0.4332906 -0.29881644
0003d0 3f e9 cf bd c2 cf ab 3e 56 ec 04 be cf 74 dc bb
       -0.1015191 0.33556944 -0.1298078 -0.006727792
0003e0 9d 00 8b bd 8c d8 54 be 25 d7 4c 3e 5a 64 a6 bd
       -0.06787226 -0.20785731 0.20003946 -0.08124609
0003f0 0a 52 ed bd 48 29 81 bd 94 d1 c1 be 9c 9f 02 be
       -0.11587913 -0.06306702 -0.37855208 -0.12756199

bias_ih_l1 f4 [40]
000000 85 3c a4 be 3b 21 41 be c5 96 ba 3e 5d da ee 3e
       -0.32077423 -0.18860333 0.36443153 0.46650973
000010 65 83 5b 3e 18 aa 32 bc d0 42 0e be 27 4e d8 3d
       0.21436842 -0.010904811 -0.13892674 0.105617814
000020 c3 8f 22 be af b4 5a be dc b3 86 be a8 70 6d bb
       -0.15875153 -0.21357988 -0.26309097 -0.0036230478
000030 a8 da 26 be 80 0e 51 be 05 54 b1 3d da 2e fc bc
       -0.16294348 -0.20415688 0.086586036 -0.03078406
000040 b6 f5 71 3e 87 bd 5b 3e dc 8f a8 3e 68 07 49 bd
       0.23628888 0.21459018 0.32922256 -0.04907933
000050 24 02 28 be 75 29 aa be 3d 3c 30 3e 92 20 ff 3c
       -0.16407067 -0.33234754 0.17210479 0.03114346
000060 a9 d4 8c bd 3d b7 92 be 20 02 54 3d 6a 2b 33 be
       -0.06876499 -0.28655425 0.05175984 -0.1749703
000070 23 28 d8 bc b6 73 5d be a6 d0 38 be cf 0c 6f 3e
       -0.026386326 -0.21626171 -0.18048343 0.2334473
000080 ca 17 8d 3d 36 5e 46 3e 1d b3 0b 3e 59 c0 0c 3e
       0.06889303 0.19371876 0.13642545 0.1374525
000090 6b 07 32 3d 39 07 73 3d 73 35 1a be a2 62 4c be
       0.043464106 0.05933306 -0.15059452 -0.199595

bias_hh_l1 f4 [40]
000000 41 e4 5c be 84 cd 09 be b2 e0 ff bd c5 36 f0 3d
       -0.21571447 -0.13457304 -0.12494029 0.117291965
000010 5f 6f 2f bc 03 f4 17 bd bf 7e b9 bd 8c 5b 4e 3e
       -0.010707705 -0.037097942 -0.09057378 0.2015211
000020 e9 93 63 bd f9 52 1c 3e 3a a8 f3 3d 76 d0 2b be
       -0.05556098 0.15266027 0.11897321 -0.1677874
000030 21 10 77 be 05 be 11 be 2f ec be bd 43 e1 33 be
       -0.24127246 -0.14232643 -0.09322392 -0.175664
000040 80 e7 2f 3e 04 45 66 bc 19 40 9b 3e 22 04 1c 3e
       0.17178154 -0.014054541 0.3032234 0.15235952
000050 95 1e 42 be 8e 08 ac 3d ae 2b 1f 3d 57 41 1f 3e
       -0.18956979 0.08400069 0.038860016 0.15552269
000060 d3 24 40 be da 99 84 3e 87 9a 31 3e ed 5d 31 3e
       -0.18764047 0.2589863 0.17344104 0.17320986
000070 a6 fe 6d 3e d9 c9 84 be db e3 db 3c 1f 70 82 be
       0.23241672 -0.25935248 0.026842048 -0.25476167
000080 4e b8 5a 3d 45 3e ff 3d bb d9 ae bd c2 cd 03 3e
       0.053398423 0.12463049 -0.085376225 0.12871459
000090 fb ff 0d 3d 7b 83 ac 3e 30 c3 aa bd d8 dc 06 be
       0.03466795 0.33694062 -0.0833801 -0.13170183

weight f4 [10, 10]
000000 48 48 98 bd 38 bc f9 bd 5b ca 17 be ae 89 7e 3e
       -0.074356616 -0.12194103 -0.14823286 0.24857208
000010 00 37 c5 3b 6c cf c1 bd d3 d9 09 be 00 ba e1 3d
       0.0060185194 -0.09463391 -0.13462 0.11021805
000020 e5 3e 9f 3e d3 70 09 be b5 e4 96 be b9 14 81 3e
       0.31102672 -0.13421945 -0.29471365 0.25211123
000030 68 a6 e0 bd 51 da 9d 3e 2c 4b 8e be 10 48 69 bd
       -0.109692395 0.30830625 -0.27791727 -0.05695349
000040 9c 59 91 3d eb a6 9d 3e ee 6e 4b be 64 de b7 3d
       0.0709717 0.3079141 -0.19866535 0.089779645
000050 8b cc 99 3e 82 97 5e 3e d8 6d 14 bd b4 a6 d7 3d
       0.30038866 0.21737483 -0.036237568 0.10529843
000060 84 92 87 be 10 62 a8 3c fe 61 db bd bb 4c 88 3e
       -0.2647897 0.020554572 -0.1071205 0.2662104
000070 32 a2 63 be 52 5b 6b be a0 ed 26 bc 02 d0 0e 3e
       -0.22229841 -0.22984055 -0.01018849 0.13946536
000080 9a 08 74 3e 50 39 8a bc 9b 49 a1 3e 59 b4 87 be
       0.23831406 -0.016873032 0.3150147 -0.26504782
000090 8a e7 9b be be 16 4d 3e 33 73 33 be eb 3b 72 be
       -0.30450088 0.20028207 -0.17524414 -0.2365567
0000a0 25 63 61 be 15 23 87 3e 2d 93 21 be c8 4c a6 3d
       -0.22010477 0.26393953 -0.157788 0.081201136
0000b0 fa bb e8 bd 1a 5c 64 3e 60 5c 20 3e 10 3e c2 bd
       -0.11363979 0.22300759 0.15660238 -0.09484494
0000c0 8d b1 97 3e 7a 05 5e 3e f6 f3 63 be 36 48 ca bd
       0.29627648 0.21681777 -0.22261032 -0.098770544
0000d0 e6 94 3d 3e bc c5 d0 bd 80 e9 48 bd c4 b4 6b be
       0.18513831 -0.10193965 -0.049050808 -0.23018175
0000e0 34 d5 bb 3d f9 f4 9e be fa 0a 70 3e 00 18 e5 bb
       0.09171525 -0.31046274 0.23441687 -0.0069913864
0000f0 d4 1e b3 3d 2f 32 20 be fc 34 29 3e bc 18 69 be
       0.087461144 -0.15644144 0.16524118 -0.22763342
000100 fe cc 4b 3e c0 55 96 3b 24 db b3 3d d8 49 68 3d
       0.19902417 0.004587859 0.08782032 0.056711048
000110 18 e3 6f be ea de 3f 3e bc 8f 7e be 12 7d 65 3e
       -0.23426473 0.18737379 -0.24859518 0.22410992
000120 77 ca 9b 3e cb 4e 90 3e 18 8a 03 3d 08 2a 77 be
       0.30427906 0.28185114 0.03211412 -0.24137127
000130 56 c9 a0 bd 24 7c 01 be 81 64 8e be 96 98 05 3e
       -0.07850902 -0.12645012 -0.27811053 0.13046488
000140 9d af 93 3e e8 a2 6d 3d 64 a4 7d be 8a c0 35 be
       0.2884492 0.058016688 -0.24769741 -0.17749229
000150 40 62 27 bc 82 e0 25 3e 20 0a 64 bc a8 35 0a 3d
       -0.010216296 0.16198924 -0.01391843 0.033742577
000160 f0 e5 c8 bd da 1e 12 3e e0 01 40 3d 1d bb 1a be
       -0.09809482 0.14269581 0.04687679 -0.1511044
000170 c0 c5 bf bc 22 6b 62 3e c0 88 fe 3b 40 67 54 bd
       -0.023409724 0.2211118 0.0077677667 -0.05185628
000180 d0 60 e3 3d 1b 1b 56 be ed 6b 8e 3e 20 67 02 3d
       0.1110245 -0.20908777 0.27816716 0.03183663

bias f4 [10]
000000 b3 e6 89 be d2 40 15 3e a7 65 8d be 1a 28 76 3e
       -0.26933822 0.14575508 -0.27616617 0.24038735
000010 07 6b 8b be 56 61 61 be d4 4f 37 3e 56 fe 64 3e
       -0.27230093 -0.22009787 0.17901546 0.22362646
000020 80 2d 10 3d 39 f5 85 3e
       0.035199642 0.26163653

weight f4 [1, 10]
000000 5a fb 72 3e ef 92 bc bb c0 23 83 3e 11 20 03 bf
       0.23728696 -0.0057548205 0.25613213 -0.51220804
000010 2f 8a 36 3e 53 ce 9f 3e cb fa 5f 3e 6d a2 82 3e
       0.1782615 0.312121 0.21873014 0.25514546
000020 44 ff bf 3e d4 72 5a be
       0.3749944 -0.21332866

lstm.weight_ih_l0 f4 [40, 2]
000000 ff 34 97 3e e9 08 b5 3d dc b1 17 be 87 c7 f0 3e
       0.2953262 0.0883959 -0.14813942 0.47027227
000010 40 ec 75 3e 7c f7 72 bd 35 21 69 3e 69 c7 e6 3e
       0.24015903 -0.05931805 0.22766574 0.45074013
000020 05 7b 7d 3d 40 e8 00 3d 43 62 40 be 19 3c 8f be
       0.0618849 0.03147149 -0.18787484 -0.27975538
000030 da 81 31 3e 68 9e a7 be 52 92 05 3d 03 c6 1d bd
       0.1733469 -0.32738042 0.032610245 -0.038518917
000040 7c d0 8f 3d 46 54 07 3c c5 78 6a 3d 3f a5 39 be
       0.07022187 0.008259838 0.05724408 -0.18129443
000050 af 63 5c be 58 61 fb 3b 16 fc fa bc d8 f2 19 3f
       -0.21522401 0.0076715164 -0.030637782 0.60136175
000060 94 d2 d6 3e 25 fc 76 be 0e 19 25 3e 9b 9e dc 3d
       0.41957533 -0.24119623 0.16122839 0.10772439
000070 57 6b 9c 3d 01 5f a3 bd b7 b6 5c 3e 2d 52 f3 be
       0.07637661 -0.07977105 0.21554075 -0.47523633
000080 c4 f1 09 be 81 14 9c be 1c 76 29 3b e2 e5 f4 be
       -0.13471133 -0.30484393 0.0025857752 -0.47831637
000090 61 ec 5b bd 27 8e 6d 3d ae 69 8b be c7 bd ac be
       -0.053692225 0.057996895 -0.27229065 -0.3373854
0000a0 f4 5c 05 bf 4f 45 37 be 06 6a 06 bf aa fb 45 bf
       -0.5209496 -0.17897533 -0.5250553 -0.77337134
0000b0 51 2d 28 3e fa e5 9a 3d 17 40 0e bf e2 86 88 be
       0.16423537 0.07563396 -0.55566543 -0.26665407
0000c0 90 73 50 be 8c be e3 be 0a e8 3b 3d fa 6a c1 bd
       -0.20356584 -0.44481313 0.045875587 -0.09444232
0000d0 a3 66 2c bc ce 07 40 bf 0c 7d 63 3e 04 8e 9b 3e
       -0.010522517 -0.7501191 0.2221567 0.30381787
0000e0 ff 59 75 be 42 b6 17 3c a2 3a 56 3d 13 6f 4d 3e
       -0.23960112 0.009259762 0.05230201 0.20061903
0000f0 15 dc 6f be a7 bc 91 be c3 d1 94 bd e2 fc 0c 3f
       -0.23423798 -0.28464243 -0.072665714 0.5507337
000100 7b c4 fd 3c a7 00 23 be 43 3f 09 3e d8 da 10 3f
       0.030977478 -0.15918218 0.13403039 0.5658393
000110 6c 80 40 3e 8d c9 69 be 62 8d a0 3d e0 b2 a7 be
       0.18798989 -0.22830792 0.07839467 -0.32753658
000120 42 1f 2e 3e 78 e0 59 be 65 67 01 3e 2f 94 06 bf
       0.17004111 -0.21277034 0.12637098 -0.5256986
000130 b9 77 09 3f 2b 57 3a 3e 62 80 9b be fb 05 e4 be
       0.5369831 0.18197314 -0.30371386 -0.44535813

lstm.weight_hh_l0 f4 [40, 10]
000000 a8 c0 2d 3e 3d 6a 08 bf f8 11 10 3c 44 73 5b be
       0.16968024 -0.53287107 0.008793347 -0.21430689
000010 f4 79 42 ba 89 44 12 be d5 9b d0 bd d5 ac 7c bd
       -0.0007418685 -0.14283957 -0.101859726 -0.061688263
000020 d5 df 76 be 96 b7 a6 be dc b3 0e 3e 5e 10 b4 be
       -0.24108823 -0.3256194 0.13935798 -0.35168737
000030 73 7b 8c 3e 46 cc 43 bf ff 28 86 be f6 c1 b8 be
       0.27437934 -0.7648357 -0.26203153 -0.3608548
000040 52 c3 85 3e 92 9b 8d 3d b6 a5 59 bf 91 b8 92 3d
       0.2612558 0.06914438 -0.8501848 0.071641095
000050 e5 2f 30 3e 95 65 98 3e 3d 28 b2 be 2c ea 8f be
       0.1720577 0.29765 -0.34796324 -0.28108346
000060 f1 ce 65 3e 0c dc b2 be 5d 48 49 be c3 80 0c 3e
       0.22442223 -0.34933507 -0.1965651 0.13720994
000070 1f 3b 64 3e e6 e2 ed bd e4 1c 6f bd ab 02 8b bb
       0.22288178 -0.11615543 -0.05837716 -0.0042422614
000080 35 25 cc 3e 25 b7 15 be 89 37 06 be fc 82 9a bd
       0.39872137 -0.14620645 -0.13107122 -0.075445145
000090 28 07 3c be 76 12 80 bd d8 ce 2c be 8b b6 e1 bd
       -0.18362105 -0.06253521 -0.1687578 -0.110211454
0000a0 ab 5f 63 3e 79 db 91 be 8d c5 48 3d b8 d8 a6 be
       0.22204463 -0.28487757 0.049016524 -0.32587218
0000b0 32 e6 96 be ec f9 96 be 88 8d dc 39 41 00 f3 3d
       -0.294725 -0.2948755 0.0004206712 0.11865283
0000c0 65 bf 26 be e2 9d 3f bc 07 18 27 be 03 d9 01 be
       -0.16283949 -0.011695357 -0.1631776 -0.1268044
0000d0 d2 e1 7d be c0 dd 8e be 46 3a 27 be 91 83 a1 bd
       -0.24793175 -0.27903557 -0.16330823 -0.078864224
0000e0 85 55 0a be aa e4 a4 be 87 3f 54 3e 59 61 f5 3c
       -0.13509186 -0.32205707 0.20727359 0.029953646
0000f0 71 f4 fe 3d 07 c7 1f bf 8d e3 4d 3d 39 ab db bf
       0.12448967 -0.62413067 0.050265837 -1.7161628
000100 a8 67 04 bd 4e de c7 be 0d 49 63 bd 60 d6 f4 3d
       -0.032325417 -0.39036793 -0.05548959 0.11954951
000110 fe e4 4b bf f3 a7 9a be 17 7b 12 3e 59 b4 e1 bd
       -0.7964629 -0.3020626 0.14304768 -0.11020727
000120 08 fe 93 bc 4f b5 b9 be 68 11 a4 3e 08 ed 6c be
       -0.018065467 -0.3627114 0.3204453 -0.23137295
000130 fb 30 9a bd ac 32 85 be c6 58 18 3d 04 6f 84 3d
       -0.075288735 -0.26015222 0.037194036 0.06466487
000140 25 b1 f5 3d 42 11 21 be 22 e2 c6 3d 61 11 7a bd
       0.11996678 -0.1572924 0.097111 -0.06105173
000150 28 8d ab be ec 92 85 bd a7 d3 37 be 5f f8 67 3e
       -0.3350613 -0.06522164 -0.17951833 0.2265334
000160 b1 c6 a1 be a8 ef 74 be 03 95 5c bd 0b 41 3e 3e
       -0.31596902 -0.23919547 -0.053853046 0.185795
000170 a3 fb 97 be 40 1a fe be 8d 6b c9 3c a0 4a 88 3e
       -0.2968417 -0.49629402 0.024587417 0.26619434
000180 2f e3 88 3e a9 c5 b6 be bb 42 46 be ba e8 b2 be
       0.26735827 -0.35697678 -0.19361393 -0.3494318
000190 72 86 89 3d a4 60 50 bf 60 46 ee 3d 43 d8 bb be
       0.067150965 -0.8139746 0.11634517 -0.36688432
0001a0 67 a7 90 be 59 af 82 be 08 5a b1 3d 83 85 b0 bc
       -0.28252718 -0.25524405 0.0865975 -0.021548038
0001b0 9a 56 11 be ea aa a6 be 0f a0 c7 be 27 5e eb 3d
       -0.14193192 -0.32552272 -0.38989303 0.114925675
0001c0 ec 0c e3 bd 39 a1 0d be 42 8c f4 be cc 87 af be
       -0.11086449 -0.13831033 -0.47763258 -0.34283292
0001d0 1c 50 26 bd e4 ad d1 bb 8d aa 17 be 02 f3 6d be
       -0.040603742 -0.006398903 -0.14811154 -0.23237231
0001e0 b0 9e 89 3e e9 4f a3 3d 6c 33 40 3d ec 0d 0d 3e
       0.2687888 0.07974226 0.04692404 0.13774842
0001f0 4b f2 28 bd 01 08 fb be b6 7f f9 3e b0 ba 8e be
       -0.041246694 -0.49029544 0.48730248 -0.27876806
000200 9b 48 d7 3d fd e6 86 be da af b2 bc e0 6d 9d be
       0.10511895 -0.26348105 -0.021812368 -0.3074789
000210 6e 08 b8 3d 35 bc 21 bd ea 40 d9 be 70 07 5c be
       0.08985983 -0.03948613 -0.42432338 -0.21487212
000220 3e 41 3a 3e 8c 84 09 3d 5b ed 3b be b0 71 a6 be
       0.1818895 0.033573672 -0.18352263 -0.32508612
000230 eb c4 04 be be a7 08 bc d0 ca fa 3c 5a 43 c4 be
       -0.12965743 -0.008340774 0.030614287 -0.38332635
000240 3c bd 6a 3d 1e ef a7 be 8a a5 e7 3e 48 3e b0 be
       0.057309374 -0.3279962 0.45243484 -0.34422517
000250 1d 53 fd bd 53 7c d0 be 58 2b 45 3e 2f 8e 0b 3d
       -0.12369368 -0.40719852 0.19254816 0.034071144
000260 dc 7e 9e 3c e9 be c8 3d 57 0a 42 be 14 97 28 be
       0.0193476 0.09802038 -0.18949257 -0.16463882
000270 0c 9d dc 3e 8e 51 6f 3d a9 94 bb 3d 70 01 b1 be
       0.43088567 0.058427386 0.09159214 -0.3457141
000280 40 17 73 3e 84 07 07 3f b1 44 f2 bd 58 18 a6 3e
       0.23739338 0.5274584 -0.11829508 0.32440448
000290 ef b8 f0 bc 05 68 43 be 1b ae 90 3e f0 ab 93 3c
       -0.029385058 -0.19082649 0.28257832 0.018026322
0002a0 40 e4 98 3e cb 2c 1f bd 99 f8 08 3e 02 b6 3d 3e
       0.2986164 -0.038861077 0.13376082 0.18526462
0002b0 52 94 12 be 3e 5e 56 3e 18 93 a9 3e fa 5d 56 be
       -0.14314392 0.20934388 0.33120036 -0.20934287
0002c0 5f 0b bc 3e f9 4c 8e be e5 f8 28 3d 6f e0 c2 3d
       0.36727425 -0.277931 0.04125299 0.095154636
0002d0 9a 02 06 be a9 05 36 be 4e c4 db 3d e1 3a 06 bf
       -0.1308693 -0.17775597 0.107308015 -0.5243359
0002e0 fd 3b 34 3d a2 19 87 be eb 63 62 bd 4a b5 d5 3c
       0.04400252 -0.26386744 -0.05527107 0.026087422
0002f0 6f e6 cf be e7 a4 19 3d e1 b9 62 be 09 24 39 3e
       -0.40605494 0.03751078 -0.2214122 0.18080153
000300 6b 4b 14 bd df 03 61 3d b4 d5 14 be b1 ae a5 bc
       -0.036204737 0.054935332 -0.14534646 -0.0202249
000310 9e 43 bb 3e 64 4e bf be 64 bf ad 3b d1 4b d9 be
       0.36575025 -0.37364495 0.0053023566 -0.42440656
000320 a0 bd 2a 3e 25 e6 78 be 79 01 a3 be ea 6c 37 3e
       0.16673899 -0.24306543 -0.3183706 0.17912641
000330 aa 81 fe 3b da 1b 92 be 7f f3 5b be 4a b2 9e be
       0.007766922 -0.28536874 -0.21479605 -0.309954
000340 b1 2a 87 be ce 22 84 be e4 c6 b2 39 5f 94 39 be
       -0.26399758 -0.25807804 0.0003409899 -0.18123005
000350 bf 6e e1 3d 24 a5 24 be e7 a6 8f 3e da f7 bd 3e
       0.11007451 -0.16078621 0.28057024 0.37103158
000360 69 fd 55 be 91 96 07 be f0 fc d5 bd 42 9b 62 3e
       -0.2089745 -0.1324103 -0.104486346 0.22129539
000370 42 91 32 3e c1 0b b1 bc e1 27 9e 3e 69 a1 a2 be
       0.17438224 -0.02161205 0.308898 -0.3176377
000380 76 cc ba be cc 5c 45 3e b9 2d 8c 3e 46 e2 8b 3e
       -0.36484116 0.1927368 0.27378634 0.2732107
000390 be a5 f0 3d bf c2 90 3e f3 23 00 3f fd 20 1e be
       0.11750363 0.2827358 0.50054854 -0.15442272
0003a0 19 95 04 bf cd ca be 3e 7b e4 f3 3c f3 d3 7a 3c
       -0.51790005 0.372641 0.029772034 0.015309322
0003b0 0a 77 db be e0 81 07 3c a0 c0 57 3e 81 94 ca be
       -0.42864257 0.008270711 0.21069574 -0.39566424
0003c0 1d 28 b1 3e 77 f6 c3 bd 30 96 ee bd 98 d7 6c be
       0.34600917 -0.09568494 -0.1164974 -0.23129117
0003d0 2d 29 60 be 95 d9 01 be 60 40 8a be 4a cb 66 3e
       -0.21890707 -0.12680657 -0.2700224 0.22538486
0003e0 eb 92 9f bd a6 cb ec 3d bf 96 0b 3e d2 a8 be bd
       -0.07791694 0.1156228 0.13631724 -0.09309544
0003f0 74 d2 9c 3d 43 db 18 3e de 72 ca bd 49 c7 12 be
       0.07657328 0.14927392 -0.098851904 -0.14333834

lstm.bias_ih_l0 f4 [40]
000000 19 de 6c 3e f8 43 ba 3e 30 d5 74 3e be bd ba 3c
       0.23131599 0.3637998 0.2390945 0.022795554
000010 76 6d 06 3e 7f b9 05 3e 85 0e ea 3e 03 46 f3 bc
       0.13127694 0.13059042 0.45714203 -0.02969647
000020 68 0b e2 bd 18 ee fb 3d 44 f4 e0 3e d2 11 2e 3e
       -0.11037332 0.12301272 0.4393636 0.16998985
000030 1b 63 68 3e 94 ac b7 3c d2 9e ab 3e 32 59 bf 3e
       0.22694056 0.022421159 0.33519608 0.37372738
000040 bf 60 a3 be 7a e3 79 be a5 a1 2a 3e 40 99 52 be
       -0.3190975 -0.24403182 0.16663225 -0.20566273
000050 83 49 82 bd 44 9c 4f 3e 52 2b 2d 3c da 41 8f bc
       -0.063616775 0.20274454 0.01056941 -0.017487455
000060 d5 ee 67 be f2 e3 e1 bd 8b 44 27 3d 68 a7 87 3e
       -0.22649701 -0.11029805 0.040836852 0.26494908
000070 dc 8e d5 be a3 7e ac 3c b7 ee 05 3f ac 6b 31 3e
       -0.41710556 0.021056479 0.52317375 0.1732623
000080 bd 4d 75 3e 23 da 05 3d 88 17 03 3e 20 c9 80 3e
       0.23955436 0.032678735 0.12801945 0.25153446
000090 88 19 30 3f b6 c5 9c 3e ab 96 ac 3e a9 82 90 3c
       0.6878896 0.3061959 0.337087 0.017640429

lstm.bias_hh_l0 f4 [40]
000000 56 64 17 bd 65 fa f1 3d 96 76 70 bd 29 28 c9 3e
       -0.036960922 0.11815337 -0.058706842 0.39288452
000010 d8 5d 87 3e ea 93 ba bc 7e 6c e2 3e fa da bb 3d
       0.26438785 -0.022775609 0.44223398 0.09172626
000020 80 eb db 3c 14 d1 47 bd ff 9a dc 3e ac 9b ed bd
       0.026845694 -0.048783377 0.43087003 -0.11601958
000030 28 4a 80 3e 17 bf f3 bd 26 9e 3f 3e 93 f1 e7 bd
       0.25056577 -0.11901682 0.18712673 -0.113253735
000040 c2 ff 2f 3d 56 95 4b bd 0b 97 a2 bc c5 6a ed bc
       0.04296852 -0.049702965 -0.019847414 -0.028981576
000050 de 1e 0f 3d 85 17 69 be 87 d6 55 3e 54 4b 9d be
       0.034941547 -0.22762878 0.20882617 -0.30721533
000060 88 7a 56 3e 34 79 b4 be 7d 9e 05 bd dd bf 8a be
       0.2094518 -0.3524872 -0.03262185 -0.27099505
000070 33 04 a0 be 25 9b 9f bd f5 fb 47 3e f4 e6 b8 3e
       -0.31253204 -0.07793263 0.19529708 0.36113703
000080 e8 7a ec bd 14 68 20 3e 26 9f f7 3d c5 8d da 3d
       -0.1154688 0.15664703 0.12090902 0.10671572
000090 91 65 dc 3e 50 c7 0c 3e 7f 89 a9 3e 21 96 96 bc
       0.4304624 0.13747907 0.33112714 -0.018382134

lstm.weight_ih_l1 f4 [40, 10]
000000 e5 df e0 bd fc 45 9b 3e 7a 2a 43 be e3 32 79 be
       -0.109802045 0.3032683 -0.19059172 -0.24335818
000010 d7 c6 b1 3e ed 77 75 3d 46 35 ea 3d 8f 3d dd be
       0.34722015 0.059928823 0.11435942 -0.43211028
000020 12 8f 8d 3b 90 4b 33 3d 2f 47 ab 3e 80 62 2f 3e
       0.004320034 0.043773234 0.33452746 0.17127419
000030 0d 16 0a 3e c0 dd c3 3d 33 cb 4e be 19 a0 87 bc
       0.13484974 0.0956378 -0.20194702 -0.016555833
000040 33 32 c0 be fa ad af 3d 07 26 01 be 1e ed 83 be
       -0.375383 0.08578105 -0.12612163 -0.25766844
000050 b0 10 2f 3e 3b c7 13 bd c1 b5 99 3e bc 1f 0c 3e
       0.1709621 -0.036078673 0.3002148 0.1368398
000060 a5 63 db 3d 1d d4 99 be 73 ce 7a 3d 45 13 10 be
       0.10712365 -0.30044642 0.06123204 -0.1406985
000070 5f e4 30 be be 1c c9 bd c9 c7 7d 3e ee f9 60 3d
       -0.17274617 -0.09819935 0.24783243 0.05492585
000080 73 0f 48 bd e0 b4 dd bd bd fb 40 3e f2 7f 18 bf
       -0.04884286 -0.10825515 0.1884603 -0.5957023
000090 6f b2 bd bd 22 29 29 be f0 27 1a bf 9d ba bf 3d
       -0.09262549 -0.16519597 -0.6021719 0.093617655
0000a0 0a 5e 40 3f f5 5a b5 3e cc 12 3f bd 72 e9 8f 3b
       0.7514349 0.35420957 -0.046648785 0.0043918425
0000b0 c7 0c 25 3e 9c 5c de be cf 4b ea 3e 04 7f 14 bf
       0.16118155 -0.4343003 0.45760962 -0.5800631
0000c0 f9 44 ee be 8d a3 d3 be a6 4c 6a 3e 18 4e 44 3d
       -0.46536997 -0.41335717 0.22880802 0.04792604
0000d0 6d b1 e9 3e 22 5c 08 bf 7a 43 9d bc ba e4 de bd
       0.45643178 -0.53265584 -0.019197214 -0.1088347
0000e0 4a 5a ab 3c fa b4 29 3d 24 07 24 be bc bb c5 bd
       0.020917077 0.04143236 -0.16018349 -0.09654948
0000f0 21 d5 48 3e 2e 19 5f bc 70 11 81 3e cd 34 05 3e
       0.19612552 -0.013616843 0.25208616 0.13008423
000100 81 3d 52 3d a5 f7 df 3d 2f 18 23 be 2d d1 f9 3d
       0.051328186 0.10935906 -0.15927194 0.121981
000110 db 88 ce be f7 f5 3a be 32 a8 15 3d be b1 b6 be
       -0.40338787 -0.1825789 0.036537357 -0.35682482
000120 a5 6a 7b 3e a7 7a b6 be 45 de c2 be cd f5 9b be
       0.245524 -0.3564045 -0.38060203 -0.3046097
000130 2a 74 10 3e ea 6b 57 3e be b1 04 bf e2 74 bf 3d
       0.14106813 0.2103726 -0.51833713 0.093484655
000140 e3 65 9d 3d 7f 56 b0 3d bc f0 22 be 43 17 a8 be
       0.07685449 0.08610248 -0.15912145 -0.32830247
000150 ce 15 e9 3d e1 3e 98 be 55 16 c5 3d 9c 22 49 3e
       0.11381112 -0.29735473 0.096234 0.19642109
000160 1b 85 74 be 6d f0 ed bc c9 91 b6 3d ca 09 66 be
       -0.238789 -0.029045308 0.08914525 -0.22464672
000170 4c 22 58 3e 5e 73 9d be 5d af 9f be 30 5b 60 3e
       0.21106833 -0.3075208 -0.3118848 0.21909785
000180 8f 14 60 bd a3 af 6e 3e 50 42 df bd 64 ea 52 3c
       -0.054707106 0.23309188 -0.1090132 0.012873266
000190 93 a3 e8 3d 04 f9 ff 3d f8 a9 ab be aa c8 4e bc
       0.11359324 0.12498668 -0.33528113 -0.012621084
0001a0 b6 45 4b bd 81 f8 dc bc 55 e6 ce 3e 73 17 fc bd
       -0.04962703 -0.026973965 0.40410104 -0.1230916
0001b0 18 70 28 be fb 4e c1 3d a4 79 72 3d 3d 8e 6b 3d
       -0.1644901 0.094388925 0.059198037 0.057508696
0001c0 4e f1 19 3e 0a 78 01 bd 61 40 72 be 5f f5 97 3e
       0.15033457 -0.03160862 -0.23657371 0.2967939
0001d0 80 37 f6 bd 99 7c f9 3d f2 d4 88 3d 21 62 34 be
       -0.120223045 0.12181968 0.06681241 -0.17615558
0001e0 31 b9 a2 be 40 e5 38 3e 6e 2b a4 3d 45 76 6a be
       -0.31781915 0.18056202 0.08016096 -0.22896679
0001f0 21 2d 2d be 8a dd 5c 3e 25 28 c0 bd 2e 7d 9a 3e
       -0.16911747 0.21568885 -0.09382657 0.3017363
000200 20 6c 2d 3e a0 95 05 bd d6 e1 5f 3e a3 69 9d bd
       0.16935778 -0.032613397 0.21863493 -0.07686164
000210 dc 4a 43 be dc 1a 04 3e 23 20 74 3e bc d6 78 be
       -0.19071525 0.12900871 0.23840384 -0.24300665
000220 2c c6 a3 3e 46 e7 50 3b f3 9f 7d 3e 92 10 84 be
       0.3198713 0.003187613 0.24768047 -0.25793892
000230 d9 97 cb 3e 28 8c dc 3e cb 2a 4b be 50 9a 1d 3f
       0.39764288 0.4307568 -0.19840543 0.6156359
000240 a5 d0 f5 3e a8 62 b8 be e1 6a 3e 3f fd c7 06 bf
       0.48010746 -0.3601277 0.74381834 -0.5264891
000250 37 a4 12 3e 10 69 66 3d bd f5 d3 be 9d 29 d4 3b
       0.14320455 0.05625254 -0.4139842 0.0064746873
000260 7a 90 99 3e 4d 56 ae be b6 22 c9 bd c9 eb 7f 3e
       0.2999304 -0.34050217 -0.09821074 0.24992289
000270 4c db c7 bd f0 5a c7 3e 79 4d 16 be cf ff 49 3e
       -0.097586244 0.38936567 -0.14677991 0.1972649
000280 4d 4b 86 3d 15 40 c3 be b5 7f d7 3d cd 55 ed 3d
       0.06557331 -0.38134828 0.10522405 0.11588631
000290 42 7c 07 3e 8a 80 bd be 63 db e4 be bd f5 d7 3c
       0.13230994 -0.3701213 -0.4469863 0.026362294
0002a0 e3 f4 92 be e4 e4 9d 3d 09 5c 65 be df 3f 09 bf
       -0.2870246 0.07709673 -0.2239839 -0.53613085
0002b0 90 6e af 3e ed c5 a2 be a6 cb 21 be dd f5 38 be
       0.3426404 -0.3179163 -0.15800342 -0.1806254
0002c0 28 64 ba bd ce b9 cd 3e 6a 7e 0e bb b7 41 32 be
       -0.091011345 0.4018082 -0.002174283 -0.1740788
0002d0 87 5e a1 3c 8f 21 29 be a6 77 8b be 24 7b 77 be
       0.019698394 -0.16516708 -0.27239722 -0.24168068
0002e0 bd 57 62 3e 8f 5c ff bd ac 32 f2 bd 18 5d 36 bd
       0.22103782 -0.12468826 -0.11826071 -0.044522375
0002f0 c8 c9 7f be 80 8c 16 bc a3 5c 21 be 53 ac 9b be
       -0.24979317 -0.009188771 -0.15757994 -0.3040491
000300 58 e4 1f 3e cb 61 30 be a7 2a 85 be 9e 4d 6c be
       0.1561445 -0.17224805 -0.26009104 -0.23076484
000310 d7 c2 05 be 09 0f a4 3d e3 c2 cb 3d 2f 9a 74 3e
       -0.13062607 0.0801068 0.09949281 0.23886941
000320 66 74 b5 bd e7 20 5e 3e 6a d1 6f 3e 8a 47 28 bd
       -0.08860092 0.21692239 0.23419729 -0.04108385
000330 8e 5a 06 3e d8 af 25 3e 24 9d 0b bf fd 68 97 bd
       0.13120481 0.1618036 -0.5453665 -0.07393072
000340 af fe cc 3c c0 a4 b6 3e 04 60 85 bc cc a3 95 3e
       0.025023786 0.3567257 -0.016281135 0.2922653
000350 6f da 73 bd a9 d4 16 be cc 20 2b 3e 93 1b da bd
       -0.059534486 -0.14729561 0.1671173 -0.106497906
000360 56 42 92 bd d4 02 18 bd ed 90 a7 3e 35 a5 96 be
       -0.07141559 -0.037112072 0.32727757 -0.29422918
000370 37 25 31 3e c9 bd 91 be 1a cf 95 be 78 47 3f be
       0.17299353 -0.28465107 -0.29259568 -0.18679607
000380 40 e5 97 be d6 09 85 3d 91 52 d7 be 8e ce c4 3e
       -0.2966709 0.06496017 -0.4205518 0.3843884
000390 6a 33 9c bd 1a 6c bc 3e 20 13 34 3f bc c5 68 3f
       -0.07626994 0.36801225 0.7034168 0.9092672
0003a0 aa 88 b9 be e2 63 16 3f ba cc 06 3f d8 9b 99 bc
       -0.3623708 0.5874616 0.5265614 -0.01875107
0003b0 66 ed 3e 3f 01 c0 16 bf 2d 25 81 3e 3c 65 9e be
       0.7458099 -0.58886725 0.25223675 -0.3093661
0003c0 9b 49 4b bf 41 7d 34 be 6b 52 cf 3e 0e ea 0b be
       -0.7940919 -0.17625906 0.40492567 -0.13663504
0003d0 e4 5c f4 be b9 7b 84 3e af a3 16 bf db 02 cf 3e
       -0.4772712 0.25875643 -0.5884351 0.40431866
0003e0 8c 6d bd bd 35 30 c0 3e a1 47 20 be a5 4e e0 be
       -0.0924941 0.3753678 -0.15652324 -0.4381
0003f0 62 4b 5b 3c 05 0a 2f be b7 89 00 bc 80 d7 3f be
       0.013384672 -0.17093666 -0.007845334 -0.1873455
