SourceCode/models/ff/FFNN_closed_loop.pt (torch, 19855 bytes, 15 tensors)

weight f4 [24, 40]
00000000: a686 7c3e d782 ca3d f274 b83d ca99 bfbc
00000010: 3589 9b3d bad6 1cbd 0c7f ee3d 8079 dabd
00000020: 181e 223c 95ba 253e 2767 273e 84a1 bf3d
00000030: 423b 9bbd ad75 55bc 8588 143e 4454 9dbd
00000040: 3680 24be a47c 003e ef5b c0bd 19ba 59be
00000050: 57a5 5f3b 9eaf 69be 54b3 2ebe 862c 16be
00000060: ed37 0c3d c715 7fbb 6f9b 683d 8594 45bc
00000070: ee2d 2bbe 9e5a a43c 3dfd e73d c285 18be
00000080: 7d59 093b 96cb cf3d 2b21 963b d646 03be
00000090: 3097 19be f7a2 c9bd af47 16bd 11b9 ffbd
000000a0: cc26 20be 5b14 41bd 6dfd 19bd 645e c83d
000000b0: 46ef 4ebd f2fa b9bd 4dd6 073e 89fd 163e
000000c0: 4458 73bd 745f 5a3d f84f 2fbd b31a e23d
000000d0: 50b4 85bd fd1e ad3d 5475 6d3d 9a00 e23d
000000e0: df1d 0d3e e9e6 d53d 7f53 4f3e 6b22 c2bd
000000f0: bd3c 383e 5545 e43c 3a63 a43d dfd3 5a3d
00000100: 8960 333e 2dc6 ec3c 494b 163e aa4b b8bd
00000110: 1711 1e3e f4a6 bebd 560a 853d 698c 1d3b
00000120: 4b79 9f3d 55c2 71bd a908 88bd 8021 eb3d
00000130: 30cc 1ebd 9796 a0bd 87ff 273e dc7c dbbd
00000140: b6cc fa3b ee4f ca3c 60c7 85bd 505a 1abe
00000150: 17e5 a73d 0b36 033e ed4a 3ebd a261 b1bc
00000160: a015 c0bd 1061 943d b3c2 293e e60d 4a3d
00000170: b590 623d ab76 ddbd e176 a73d e995 06bd
00000180: 85aa 523d 5e54 8ebd d942 d6bc 305d 3ebd
00000190: 4969 ac3c 77e3 21bc f8bc 01be 2c8d 96bd
000001a0: f715 e53d dedf ee3d 55d3 4b3d 9826 a7bc
000001b0: d704 7c3d 5bfa e43d 7842 353d 0b8a b83d
000001c0: 5125 083e 62b6 90bd f603 69bd d2cf 4d3d
000001d0: 640f 60bd c1ec d0bb 5280 84bd 54f8 273e
000001e0: 2762 00bd 8e70 3cbd 4fd4 ca3b fcff 6ebd
000001f0: 354b 6ebc ee6e 403c 5a33 e63d d880 adbd
00000200: 098d c0bd f69f 113d 4a07 75bd 4a0b f2bd
00000210: babf cdbd 56f0 e23d b54d 67bc b6c5 41be
00000220: 74c7 46be 81ad 38be 739a b6bd 7a94 563a
00000230: 6ae9 23be af1f 2dbe fd79 83bd 5ee9 eaba
00000240: 8c1b 6cbd 231d 3cbd 514b 203e 3bf7 353d
00000250: 2a03 00bd cfa5 083e ddf4 c9bd 8182 643d
00000260: 7713 0a3e 9daf 693d 6f7e db3d 8a0e ae3d
00000270: fe5b 183d fc3a 503e 9899 00be 9402 d0bd
00000280: d131 ecbd a710 7e3d 1c18 d53d 8498 bcbd
00000290: 5aa2 c3bd f32a 60bd 2fa4 053e 6b0f 423d
000002a0: 3125 6e3d f6df a2bb 91f6 fd3d bddf b3bd
000002b0: 2555 b6bd e98a 1ebc 43ef c5bd fcc3 923b
000002c0: 1c6e a73d 1071 c1bd 4d30 cfbc 2666 f53d
000002d0: 7185 3dbe 4495 2dbe b418 9fbd f39d bcbd
000002e0: a74f a63c 03e6 ea3c a19d 93bc b7c9 113b
000002f0: e3c2 9fbd 31a2 82bd f340 90bd f7a5 1c3d
00000300: f533 fc3d 7be9 883c bf12 cb3d 33e5 803c
00000310: 4a43 35bd a22e 37ba dc1a 1cbe 7318 cd3d
00000320: 2850 0dbe 0a3d a03d b902 ae3d 862f 0dbe
00000330: 0b9e a93d c043 7c3b 5522 00be 7616 963d
00000340: 5890 4a3d 644e 40bd 5b7e 21bc e656 01bd
00000350: 4492 763d 3808 f3bd 1314 8e3d cc9d f03d
00000360: 0bad 8e3d 2264 a83d 74df 11be 5c88 b3bd
00000370: 5694 91be fb39 f9bd fdcf 79bd e13a 543b
00000380: 8b8d a63d 3a21 55bc 8010 02be 04cc 823d
00000390: 0ae8 1c3d d4e0 b23d ef50 e7bd 2e5a 133e
000003a0: ab2a febd b21b fd3d 26c2 04be 7ed2 13be
000003b0: 4f23 34bc cdda b23d f2c4 fb3d 9651 65bd
000003c0: ab97 643d 1d00 193d f2d3 4cbd 1b7b 44bd
000003d0: 9999 df3d 7364 3f3d 1619 e0bd 5cec 27be
000003e0: cff5 20be 2247 11be 18cf b53d bca6 c5bd
000003f0: 04c4 b03d c8b5 bebc 8021 3b3c b59c 84bd
0.2466074 0.09888237 0.090066805 -0.023388762 0.075945295 -0.038290717 0.11645326 -0.106677055
0.00989487 0.16184457 0.16347943 0.093569785 -0.07579662 -0.013028544 0.14505203 -0.07682088
-0.16064534 0.12547547 -0.09392535 -0.21262397 0.003412565 -0.22820899 -0.17060596 -0.14665422
0.034233022 -0.0038922892 0.056788858 -0.012059336 -0.1671674 0.02006274 0.11327598 -0.14894775
0.002095788 0.10146253 0.0045815906 -0.1281999 -0.1499908 -0.09845536 -0.036689457 -0.124864705
-0.156398 -0.047138553 -0.0375952 0.097836286 -0.050521158 -0.09081067 0.13265343 0.14745153
-0.05941035 0.053313687 -0.042800874 0.11040249 -0.065285325 0.08453176 0.05797322 0.11035271
0.13780926 0.10444433 0.20246695 -0.09479221 0.1799192 0.027865091 0.080267385 0.053424712
0.17517294 0.028903091 0.14677157 -0.08998807 0.15436207 -0.093091875 0.06496112 0.002403999
0.07786807 -0.05902322 -0.06642277 0.11480999 -0.038768947 -0.07841223 0.1640607 -0.107171744
0.007653798 0.024696317 -0.065321684 -0.15073514 0.08197992 0.12813585 -0.046458174 -0.021653
-0.09379125 0.07245076 0.16578178 0.04932966 0.055313785 -0.1081365 0.08176971 -0.03285781
0.05143215 -0.069496855 -0.026154922 -0.04647559 0.021046298 -0.009880892 -0.12669742 -0.07351145
0.1118583 0.11663793 0.04976209 -0.020404145 0.061528053 0.11180564 0.044252843 0.090107046
0.13295485 -0.07066037 -0.056888543 0.05024702 -0.054702178 -0.0063758795 -0.06469788 0.16403323
-0.031343605 -0.046005778 0.00618986 -0.058349594 -0.014544298 0.011745198 0.11240263 -0.084718406
-0.094019 0.03555294 -0.059821405 -0.118185595 -0.100463346 0.11080997 -0.014117648 -0.18923077
-0.19412023 -0.18034936 -0.089161776 0.0008185577 -0.16007009 -0.16906618 -0.06419752 -0.0017922332
-0.05764346 -0.045926224 0.15653731 0.04442523 -0.031253017 0.13344501 -0.09861157 0.05578852
0.13483988 0.057052244 0.10717475 0.08498867 0.037197106 0.20335001 -0.12558591 -0.10156742
-0.11532939 0.0620276 0.10404989 -0.092087775 -0.095524505 -0.05472846 0.13050912 0.047377985
0.058140937 -0.004970546 0.124005444 -0.08782909 -0.08902959 -0.009676673 -0.09664776 0.0044789296
0.081752986 -0.09445393 -0.025291586 0.11982374 -0.18507935 -0.16951472 -0.077683836 -0.09209814
0.020301653 0.028674131 -0.0180195 0.0022245476 -0.078008436 -0.06378592 -0.07043638 0.038244214
0.123145975 0.016712895 0.09915685 0.01573429 -0.044253625 -0.0006987845 -0.15244621 0.10014429
-0.13800108 0.07824142 0.08496613 -0.1378766 0.082820974 0.003849253 -0.12513097 0.07328503
0.049454063 -0.04694976 -0.009856786 -0.031577013 0.060198084 -0.11866802 0.069374226 0.11748847
0.06966599 0.08222224 -0.14245397 -0.08766243 -0.28433484 -0.12169262 -0.06098937 0.0032383727
0.08132466 -0.01300841 -0.12701607 0.06386569 0.038307227 0.08734289 -0.11294734 0.1438987
-0.12410482 0.12358798 -0.12964687 -0.14435765 -0.010994746 0.08733139 0.12293424 -0.05598601
0.055808704 0.037353624 -0.050006814 -0.047968965 0.10917968 0.046726655 -0.10942285 -0.16398758
-0.15718769 -0.14187291 0.088773906 -0.09650943 0.08631137 -0.02328004 0.011421561 -0.06475202

bias f4 [24]
00000000: f30e 533e 99cc a2bb f1c4 14be 97a2 afbd
00000010: 3f94 cd3d 4ad8 933d 598b c73d 3dac fc3b
00000020: 4aa5 77bd 5a53 c43d ad6c 86bc 9d17 153e
00000030: 65ac 453c fd16 263d 6b65 96bd 3bcf 8e3d
00000040: 9233 7cbc 2616 23be 27ef dcbd 42b7 6a3e
00000050: 589f e63d 01d5 263e ee5d 8abc 2cb3 2a3e
0.20611171 -0.0049682376 -0.14528252 -0.085759334 0.10038041 0.07218988 0.09743375 0.007710962
-0.060460366 0.095862105 -0.016409243 0.14559789 0.012065028 0.040549267 -0.07343563 0.0697312
-0.015393155 -0.15926418 -0.10787802 0.2292147 0.11260861 0.16292192 -0.016890492 0.16669911

weight f4 [24, 24]
00000000: cb73 643d 456a 8a3d 86b3 3fbe 1741 04be
00000010: 7e62 4f3e 3d28 bfbd 3cb1 d5bd 8c29 42be
00000020: 49f6 fb3d 3b77 33bd 4f08 053e 0775 7a3d
00000030: 829e a5bd a117 21be 6cf5 a0bd 7bcf 7b3b
00000040: 5cc3 893c 335f 81bc d900 ff3d cfad 923d
00000050: 1e08 553d 952e c1bd f2fc b63d f6d3 753d
00000060: 861c 3e3e 420f b6bc bd8c a7bd c257 23bd
00000070: c063 153e ce50 a3bd 7cff 4a3e d239 3a3e
00000080: 3bdc 143e 85cc a6bd b916 603c 7bad 41be
00000090: 927d 63be 9f60 34bd 6577 933c c2e7 a0bd
000000a0: c0ca 9cbc df97 c63d c67f cdbd 005c dfbd
000000b0: 489b 0cbe a8fd 1fbe a265 933d 120e 043e
000000c0: e277 6c3e 0ace 56be 6113 703e 30c2 703a
000000d0: 01fa 21be d57e 31be 25c5 303d 2971 aa3c
000000e0: 7786 9fbc b587 803c 400b 6d3d 3bd7 8ebd
000000f0: 1d58 88bd 6fff 85bd e0d2 f1bd 6e68 673e
00000100: 72e7 063c 4ff0 eb3d 5b1c 0f3e 4a22 b9bd
00000110: de6a 54bd 1aa9 82bc 5d21 82be 6678 71bd
00000120: 1b03 2fbb 6bec 8c3d 9a38 803d 63a2 1ebe
00000130: 8e45 7dbc 33fb f5bc 8bb1 e2bd 2682 c83c
00000140: 7182 3abe 1592 f93d 429f 753d 7ce0 803c
00000150: b324 223e 813f 00be 3969 383e 8338 f13d
00000160: debf 233e 391a c53c f159 e23d f939 153e
00000170: 000c 8e3d 3a64 1e3e 6987 b83d addd 29bd
00000180: ab39 0a3e a676 65bc ee50 33be 7b24 d33d
00000190: d3a9 bb39 b124 f23d 318d 123e c572 25be
000001a0: 9bc3 b5bd 6e6e e73d e35b 963c 71bb 513e
000001b0: b8d9 fabc 4db4 26bb d1ac 283e e2ae c6bb
000001c0: 3c86 04bd bbac 4abd f66b cbbc 2355 3d3e
000001d0: 4c6e 033e 338f 243e 35ca 9cbd 574e 8d3d
000001e0: a928 e43d 667a 5fbd 450a 173e d43c 1cbe
000001f0: 2741 3fbe 6ae8 ca3c 88ca d0bd 9449 633e
00000200: 760b 17bd d04d 273e 0614 d33d 6fb0 12be
00000210: 2b57 c63d 0253 9b3d 769b f23d 5fd1 16be
00000220: bb4a 523e 25dd 4e3e 3a89 4d3d 9005 41be
00000230: 75a7 0ebe 5181 c1bc 308c 723d 8901 2dbe
00000240: 47e1 503d ca89 9c3c e0aa 2ebd f020 83bd
00000250: 6d4a 1bbe bc4e a83c 98c1 143d ebf2 d93b
00000260: bc52 b4bd 7afb 413e cf01 a03c 52b5 833d
00000270: b71c 463d eb87 fb3d 6f21 a93c 35f0 4e3d
00000280: b423 07be 22ec f5bd 4f6b 73bd 4d13 1bbe
00000290: 0c22 1e3e 8999 b1bd 9dcd 393e f582 50bd
000002a0: 2062 4dbe 1c06 8aba 1f8e 183d b6fc 24be
000002b0: 16ec 853d ac1c 1bbd e76f 79bd 9101 66be
000002c0: c65b 3e3e 2681 2bbe f6ca f13d e68e 493e
000002d0: 6d73 d93d e60b 10be 6fc1 193e 0d76 3cbe
000002e0: c468 d23c 500e cdbd f85d 0ebe 7abc 183e
000002f0: cef7 a23d 0f1c a9bc 0f0d 243e ae24 d7bc
00000300: ba4b 283e 6e79 d23d aeb6 683c 5883 df3d
00000310: 0f87 8e3d 0980 1dbe b0c5 c33d a3a2 51be
00000320: 7808 1f39 0ce5 b8bd 4b2c 013e 8d6d 07be
00000330: 225c d5bd cab7 e63d a09c 45be cd45 47be
00000340: 7e5e 303e a3be 34be 1c01 943d 430e aabb
00000350: c183 dbbc b7cc bbbd baba 673d 4b52 23be
00000360: f246 d6bb 464e d4bd a49c f33c 9dca 3b3e
00000370: 12a4 d03d 95fe 4b3e 53f0 9c3d e2e9 183e
00000380: 1bb0 96bd cb13 073e 540d 013e 53c2 22be
00000390: 6158 65be a183 38bc 0eaf 0b3e e7ba f63d
000003a0: 7fbe 373d dc4e 4fbd ea54 aebd fba4 dabc
000003b0: c471 963d 3228 68be ddb2 033d 330a 05bd
000003c0: d4de 273b defe 2f3e 0175 073d 275c 373e
000003d0: 5bf2 9c3c f873 1d3e e62f b83d 8c21 79be
000003e0: 872f 163e a17f 7cbd 9e15 ea3d 7e4c 313e
000003f0: 4831 5abe d357 083e 7c0c 3fbc 28a8 ea3d
0.05577449 0.067585506 -0.18720827 -0.12915455 0.20252416 -0.09333847 -0.104341954 -0.18961161
0.123028345 -0.04381488 0.1299145 0.061146762 -0.080868736 -0.1573167 -0.078593105 0.0038423229
0.016816787 -0.015792465 0.124513336 0.071620576 0.052009694 -0.09432713 0.08934964 0.060016595
0.18565568 -0.022224072 -0.081811406 -0.039878614 0.14588833 -0.07974397 0.19824022 0.18186119
0.14537136 -0.08144478 0.0136772925 -0.18913834 -0.2221587 -0.044037458 0.018001268 -0.07856704
-0.019139647 0.09696936 -0.100341365 -0.109062195 -0.1373111 -0.15624106 0.07197119 0.12895992
0.23092607 -0.20977035 0.23444892 0.00091842096 -0.15818025 -0.17333539 0.04315676 0.020805912
-0.019473298 0.01568971 0.057872057 -0.06974646 -0.06657431 -0.06542861 -0.11807799 0.2259843
0.008233892 0.115204446 0.1397566 -0.09039743 -0.05185973 -0.015949775 -0.2541608 -0.05895271
-0.0026704732 0.06881031 0.06260796 -0.15491633 -0.015458478 -0.030027008 -0.1106902 0.024476122
-0.18213822 0.12186066 0.059966333 0.015732042 0.15834312 -0.12524225 0.1800889 0.11778357
0.1599116 0.024060355 0.11052311 0.14572896 0.069358826 0.15467921 0.090102024 -0.041471172
0.13498561 -0.014005339 -0.17511341 0.103096925 0.00035793948 0.118234046 0.14311673 -0.16157062
-0.088751994 0.1130036 0.018354362 0.2048166 -0.030621395 -0.0025437057 0.16472174 -0.006063328
-0.03235458 -0.049481135 -0.024831753 0.18489508 0.12835044 0.16070251 -0.076557554 0.06899708
0.11140568 -0.054560088 0.14750011 -0.15257579 -0.18677197 0.024769027 -0.1019488 0.22196037
-0.036876164 0.16338277 0.103065535 -0.14325117 0.09684595 0.07584192 0.11846058 -0.14728306
0.2053632 0.20201547 0.050179698 -0.18849778 -0.13931067 -0.023621233 0.059215724 -0.16895117
0.05099609 0.019108672 -0.042643428 -0.06402767 -0.1516511 0.020545356 0.036317438 0.0066512725
-0.08804843 0.18943587 0.019532112 0.064310685 0.04836723 0.12281784 0.020645825 0.050522048
-0.13197213 -0.120079294 -0.05942851 -0.15144081 0.15442675 -0.08671863 0.18144841 -0.05090614
-0.20056963 -0.0010530385 0.037244912 -0.16112027 0.065391704 -0.03786914 -0.060897734 -0.22461535
0.18589696 -0.16748485 0.1180629 0.19683418 0.10617719 -0.14067039 0.15015195 -0.18404408
0.025684722 -0.100124955 -0.13903034 0.14915648 0.07957421 -0.020643262 0.16020606 -0.026262607
0.16435137 0.10277067 0.0142037105 0.10913724 0.06959354 -0.15380873 0.0955919 -0.20472197
0.00015166576 -0.09028062 0.12614553 -0.13225384 -0.104179636 0.11265524 -0.19298029 -0.1946022
0.17223546 -0.17650847 0.07226774 -0.0051896884 -0.026796224 -0.09169906 0.05657456 -0.15949361
-0.006539219 -0.10366492 0.029737778 0.1833901 0.10187544 0.19921334 0.07663026 0.14932969
-0.07357808 0.13191144 0.1260274 -0.15894441 -0.22396995 -0.0112618515 0.13640997 0.120473675
0.044859406 -0.050612316 -0.0851229 -0.026689997 0.07345918 -0.22671583 0.032153 -0.03248043
0.0025614994 0.17187068 0.033070568 0.17906247 0.019158533 0.1537627 0.08993511 -0.24329203
0.14666568 -0.061645154 0.114299044 0.17314336 -0.21307862 0.13314752 -0.011660691 0.114578545

bias f4 [24]
00000000: 73c8 10bd aeac 463e ed54 0fbe fe28 243e
00000010: e059 f0bb f2b4 cd3d e35b 423e 248a 0bbd
00000020: 837d b63b d250 c6bd 2760 013d 9d03 b6bd
00000030: 4ade 3fbe b2bc d73d b06f eabb 4fb4 1abe
00000040: 360b 32be 9932 1abe f077 2a3e 9b61 eebc
00000050: d057 10be b2d5 adbd 27c8 06be e92c 293e
-0.035347413 0.1940181 -0.1399724 0.16031262 -0.0073349327 0.10044278 0.18980365 -0.034067288
0.0055691614 -0.09683384 0.03158584 -0.08887408 -0.1873714 0.10534038 -0.0071544275 -0.15107845
-0.17387089 -0.15058364 0.16647315 -0.029099276 -0.14095998 -0.08488025 -0.1316229 0.16521038

weight f4 [1, 24]
00000000: 356c 30be 5fa5 58bd d25d 983e 491d 5a3e
00000010: bb7e 80bd c486 cd3e 7f75 6c3c 9049 a2be
00000020: a1b3 32be 3c7b 9abd 29a5 02bf c7d5 82bd
00000030: 42c2 d73e 059c 01bd 68d1 0a3e 2b81 06be
00000040: f5f7 c83d 0677 d23d 8f3f d53c 3415 b8bd
00000050: c401 863e dc4f 64be a740 77be 5081 533e
-0.17228778 -0.052892085 0.2975908 0.21300234 -0.06274172 0.4014188 0.01443231 -0.3169675
-0.17451335 -0.07543036 -0.51033264 -0.06388431 0.42140394 -0.031642932 0.13556445 -0.13135211
0.09812919 0.10276608 0.026031284 -0.08988419 0.26173222 -0.22296089 -0.24145757 0.20654798

fc1.weight f4 [24, 40]
00000000: a686 7c3e d782 ca3d f274 b83d ca99 bfbc
00000010: 3589 9b3d bad6 1cbd 0c7f ee3d 8079 dabd
00000020: 181e 223c 95ba 253e 2767 273e 84a1 bf3d
00000030: 423b 9bbd ad75 55bc 8588 143e 4454 9dbd
00000040: 3680 24be a47c 003e ef5b c0bd 19ba 59be
00000050: 57a5 5f3b 9eaf 69be 54b3 2ebe 862c 16be
00000060: ed37 0c3d c715 7fbb 6f9b 683d 8594 45bc
00000070: ee2d 2bbe 9e5a a43c 3dfd e73d c285 18be
00000080: 7d59 093b 96cb cf3d 2b21 963b d646 03be
00000090: 3097 19be f7a2 c9bd af47 16bd 11b9 ffbd
000000a0: cc26 20be 5b14 41bd 6dfd 19bd 645e c83d
000000b0: 46ef 4ebd f2fa b9bd 4dd6 073e 89fd 163e
000000c0: 4458 73bd 745f 5a3d f84f 2fbd b31a e23d
000000d0: 50b4 85bd fd1e ad3d 5475 6d3d 9a00 e23d
000000e0: df1d 0d3e e9e6 d53d 7f53 4f3e 6b22 c2bd
000000f0: bd3c 383e 5545 e43c 3a63 a43d dfd3 5a3d
00000100: 8960 333e 2dc6 ec3c 494b 163e aa4b b8bd
00000110: 1711 1e3e f4a6 bebd 560a 853d 698c 1d3b
00000120: 4b79 9f3d 55c2 71bd a908 88bd 8021 eb3d
00000130: 30cc 1ebd 9796 a0bd 87ff 273e dc7c dbbd
00000140: b6cc fa3b ee4f ca3c 60c7 85bd 505a 1abe
00000150: 17e5 a73d 0b36 033e ed4a 3ebd a261 b1bc
00000160: a015 c0bd 1061 943d b3c2 293e e60d 4a3d
00000170: b590 623d ab76 ddbd e176 a73d e995 06bd
00000180: 85aa 523d 5e54 8ebd d942 d6bc 305d 3ebd
00000190: 4969 ac3c 77e3 21bc f8bc 01be 2c8d 96bd
000001a0: f715 e53d dedf ee3d 55d3 4b3d 9826 a7bc
000001b0: d704 7c3d 5bfa e43d 7842 353d 0b8a b83d
000001c0: 5125 083e 62b6 90bd f603 69bd d2cf 4d3d
000001d0: 640f 60bd c1ec d0bb 5280 84bd 54f8 273e
000001e0: 2762 00bd 8e70 3cbd 4fd4 ca3b fcff 6ebd
000001f0: 354b 6ebc ee6e 403c 5a33 e63d d880 adbd
00000200: 098d c0bd f69f 113d 4a07 75bd 4a0b f2bd
00000210: babf cdbd 56f0 e23d b54d 67bc b6c5 41be
00000220: 74c7 46be 81ad 38be 739a b6bd 7a94 563a
00000230: 6ae9 23be af1f 2dbe fd79 83bd 5ee9 eaba
00000240: 8c1b 6cbd 231d 3cbd 514b 203e 3bf7 353d
00000250: 2a03 00bd cfa5 083e ddf4 c9bd 8182 643d
00000260: 7713 0a3e 9daf 693d 6f7e db3d 8a0e ae3d
00000270: fe5b 183d fc3a 503e 9899 00be 9402 d0bd
00000280: d131 ecbd a710 7e3d 1c18 d53d 8498 bcbd
00000290: 5aa2 c3bd f32a 60bd 2fa4 053e 6b0f 423d
000002a0: 3125 6e3d f6df a2bb 91f6 fd3d bddf b3bd
000002b0: 2555 b6bd e98a 1ebc 43ef c5bd fcc3 923b
000002c0: 1c6e a73d 1071 c1bd 4d30 cfbc 2666 f53d
000002d0: 7185 3dbe 4495 2dbe b418 9fbd f39d bcbd
000002e0: a74f a63c 03e6 ea3c a19d 93bc b7c9 113b
000002f0: e3c2 9fbd 31a2 82bd f340 90bd f7a5 1c3d
00000300: f533 fc3d 7be9 883c bf12 cb3d 33e5 803c
00000310: 4a43 35bd a22e 37ba dc1a 1cbe 7318 cd3d
00000320: 2850 0dbe 0a3d a03d b902 ae3d 862f 0dbe
00000330: 0b9e a93d c043 7c3b 5522 00be 7616 963d
00000340: 5890 4a3d 644e 40bd 5b7e 21bc e656 01bd
00000350: 4492 763d 3808 f3bd 1314 8e3d cc9d f03d
00000360: 0bad 8e3d 2264 a83d 74df 11be 5c88 b3bd
00000370: 5694 91be fb39 f9bd fdcf 79bd e13a 543b
00000380: 8b8d a63d 3a21 55bc 8010 02be 04cc 823d
00000390: 0ae8 1c3d d4e0 b23d ef50 e7bd 2e5a 133e
000003a0: ab2a febd b21b fd3d 26c2 04be 7ed2 13be
000003b0: 4f23 34bc cdda b23d f2c4 fb3d 9651 65bd
000003c0: ab97 643d 1d00 193d f2d3 4cbd 1b7b 44bd
000003d0: 9999 df3d 7364 3f3d 1619 e0bd 5cec 27be
000003e0: cff5 20be 2247 11be 18cf b53d bca6 c5bd
000003f0: 04c4 b03d c8b5 bebc 8021 3b3c b59c 84bd
0.2466074 0.09888237 0.090066805 -0.023388762 0.075945295 -0.038290717 0.11645326 -0.106677055
0.00989487 0.16184457 0.16347943 0.093569785 -0.07579662 -0.013028544 0.14505203 -0.07682088
-0.16064534 0.12547547 -0.09392535 -0.21262397 0.003412565 -0.22820899 -0.17060596 -0.14665422
0.034233022 -0.0038922892 0.056788858 -0.012059336 -0.1671674 0.02006274 0.11327598 -0.14894775
0.002095788 0.10146253 0.0045815906 -0.1281999 -0.1499908 -0.09845536 -0.036689457 -0.124864705
-0.156398 -0.047138553 -0.0375952 0.097836286 -0.050521158 -0.09081067 0.13265343 0.14745153
-0.05941035 0.053313687 -0.042800874 0.11040249 -0.065285325 0.08453176 0.05797322 0.11035271
0.13780926 0.10444433 0.20246695 -0.09479221 0.1799192 0.027865091 0.080267385 0.053424712
0.17517294 0.028903091 0.14677157 -0.08998807 0.15436207 -0.093091875 0.06496112 0.002403999
0.07786807 -0.05902322 -0.06642277 0.11480999 -0.038768947 -0.07841223 0.1640607 -0.107171744
0.007653798 0.024696317 -0.065321684 -0.15073514 0.08197992 0.12813585 -0.046458174 -0.021653
-0.09379125 0.07245076 0.16578178 0.04932966 0.055313785 -0.1081365 0.08176971 -0.03285781
0.05143215 -0.069496855 -0.026154922 -0.04647559 0.021046298 -0.009880892 -0.12669742 -0.07351145
0.1118583 0.11663793 0.04976209 -0.020404145 0.061528053 0.11180564 0.044252843 0.090107046
0.13295485 -0.07066037 -0.056888543 0.05024702 -0.054702178 -0.0063758795 -0.06469788 0.16403323
-0.031343605 -0.046005778 0.00618986 -0.058349594 -0.014544298 0.011745198 0.11240263 -0.084718406
-0.094019 0.03555294 -0.059821405 -0.118185595 -0.100463346 0.11080997 -0.014117648 -0.18923077
-0.19412023 -0.18034936 -0.089161776 0.0008185577 -0.16007009 -0.16906618 -0.06419752 -0.0017922332
-0.05764346 -0.045926224 0.15653731 0.04442523 -0.031253017 0.13344501 -0.09861157 0.05578852
0.13483988 0.057052244 0.10717475 0.08498867 0.037197106 0.20335001 -0.12558591 -0.10156742
-0.11532939 0.0620276 0.10404989 -0.092087775 -0.095524505 -0.05472846 0.13050912 0.047377985
0.058140937 -0.004970546 0.124005444 -0.08782909 -0.08902959 -0.009676673 -0.09664776 0.0044789296
0.081752986 -0.09445393 -0.025291586 0.11982374 -0.18507935 -0.16951472 -0.077683836 -0.09209814
0.020301653 0.028674131 -0.0180195 0.0022245476 -0.078008436 -0.06378592 -0.07043638 0.038244214
0.123145975 0.016712895 0.09915685 0.01573429 -0.044253625 -0.0006987845 -0.15244621 0.10014429
-0.13800108 0.07824142 0.08496613 -0.1378766 0.082820974 0.003849253 -0.12513097 0.07328503
0.049454063 -0.04694976 -0.009856786 -0.031577013 0.060198084 -0.11866802 0.069374226 0.11748847
0.06966599 0.08222224 -0.14245397 -0.08766243 -0.28433484 -0.12169262 -0.06098937 0.0032383727
0.08132466 -0.01300841 -0.12701607 0.06386569 0.038307227 0.08734289 -0.11294734 0.1438987
-0.12410482 0.12358798 -0.12964687 -0.14435765 -0.010994746 0.08733139 0.12293424 -0.05598601
0.055808704 0.037353624 -0.050006814 -0.047968965 0.10917968 0.046726655 -0.10942285 -0.16398758
-0.15718769 -0.14187291 0.088773906 -0.09650943 0.08631137 -0.02328004 0.011421561 -0.06475202

fc1.bias f4 [24]
00000000: f30e 533e 99cc a2bb f1c4 14be 97a2 afbd
00000010: 3f94 cd3d 4ad8 933d 598b c73d 3dac fc3b
00000020: 4aa5 77bd 5a53 c43d ad6c 86bc 9d17 153e
00000030: 65ac 453c fd16 263d 6b65 96bd 3bcf 8e3d
00000040: 9233 7cbc 2616 23be 27ef dcbd 42b7 6a3e
00000050: 589f e63d 01d5 263e ee5d 8abc 2cb3 2a3e
0.20611171 -0.0049682376 -0.14528252 -0.085759334 0.10038041 0.07218988 0.09743375 0.007710962
-0.060460366 0.095862105 -0.016409243 0.14559789 0.012065028 0.040549267 -0.07343563 0.0697312
-0.015393155 -0.15926418 -0.10787802 0.2292147 0.11260861 0.16292192 -0.016890492 0.16669911

fc2.weight f4 [24, 24]
00000000: cb73 643d 456a 8a3d 86b3 3fbe 1741 04be
00000010: 7e62 4f3e 3d28 bfbd 3cb1 d5bd 8c29 42be
00000020: 49f6 fb3d 3b77 33bd 4f08 053e 0775 7a3d
00000030: 829e a5bd a117 21be 6cf5 a0bd 7bcf 7b3b
00000040: 5cc3 893c 335f 81bc d900 ff3d cfad 923d
00000050: 1e08 553d 952e c1bd f2fc b63d f6d3 753d
00000060: 861c 3e3e 420f b6bc bd8c a7bd c257 23bd
00000070: c063 153e ce50 a3bd 7cff 4a3e d239 3a3e
00000080: 3bdc 143e 85cc a6bd b916 603c 7bad 41be
00000090: 927d 63be 9f60 34bd 6577 933c c2e7 a0bd
000000a0: c0ca 9cbc df97 c63d c67f cdbd 005c dfbd
000000b0: 489b 0cbe a8fd 1fbe a265 933d 120e 043e
000000c0: e277 6c3e 0ace 56be 6113 703e 30c2 703a
000000d0: 01fa 21be d57e 31be 25c5 303d 2971 aa3c
000000e0: 7786 9fbc b587 803c 400b 6d3d 3bd7 8ebd
000000f0: 1d58 88bd 6fff 85bd e0d2 f1bd 6e68 673e
00000100: 72e7 063c 4ff0 eb3d 5b1c 0f3e 4a22 b9bd
00000110: de6a 54bd 1aa9 82bc 5d21 82be 6678 71bd
00000120: 1b03 2fbb 6bec 8c3d 9a38 803d 63a2 1ebe
00000130: 8e45 7dbc 33fb f5bc 8bb1 e2bd 2682 c83c
00000140: 7182 3abe 1592 f93d 429f 753d 7ce0 803c
00000150: b324 223e 813f 00be 3969 383e 8338 f13d
00000160: debf 233e 391a c53c f159 e23d f939 153e
00000170: 000c 8e3d 3a64 1e3e 6987 b83d addd 29bd
00000180: ab39 0a3e a676 65bc ee50 33be 7b24 d33d
00000190: d3a9 bb39 b124 f23d 318d 123e c572 25be
000001a0: 9bc3 b5bd 6e6e e73d e35b 963c 71bb 513e
000001b0: b8d9 fabc 4db4 26bb d1ac 283e e2ae c6bb
000001c0: 3c86 04bd bbac 4abd f66b cbbc 2355 3d3e
000001d0: 4c6e 033e 338f 243e 35ca 9cbd 574e 8d3d
000001e0: a928 e43d 667a 5fbd 450a 173e d43c 1cbe
000001f0: 2741 3fbe 6ae8 ca3c 88ca d0bd 9449 633e
00000200: 760b 17bd d04d 273e 0614 d33d 6fb0 12be
00000210: 2b57 c63d 0253 9b3d 769b f23d 5fd1 16be
00000220: bb4a 523e 25dd 4e3e 3a89 4d3d 9005 41be
00000230: 75a7 0ebe 5181 c1bc 308c 723d 8901 2dbe
00000240: 47e1 503d ca89 9c3c e0aa 2ebd f020 83bd
00000250: 6d4a 1bbe bc4e a83c 98c1 143d ebf2 d93b
00000260: bc52 b4bd 7afb 413e cf01 a03c 52b5 833d
00000270: b71c 463d eb87 fb3d 6f21 a93c 35f0 4e3d
00000280: b423 07be 22ec f5bd 4f6b 73bd 4d13 1bbe
00000290: 0c22 1e3e 8999 b1bd 9dcd 393e f582 50bd
000002a0: 2062 4dbe 1c06 8aba 1f8e 183d b6fc 24be
000002b0: 16ec 853d ac1c 1bbd e76f 79bd 9101 66be
000002c0: c65b 3e3e 2681 2bbe f6ca f13d e68e 493e
000002d0: 6d73 d93d e60b 10be 6fc1 193e 0d76 3cbe
000002e0: c468 d23c 500e cdbd f85d 0ebe 7abc 183e
000002f0: cef7 a23d 0f1c a9bc 0f0d 243e ae24 d7bc
00000300: ba4b 283e 6e79 d23d aeb6 683c 5883 df3d
00000310: 0f87 8e3d 0980 1dbe b0c5 c33d a3a2 51be
00000320: 7808 1f39 0ce5 b8bd 4b2c 013e 8d6d 07be
00000330: 225c d5bd cab7 e63d a09c 45be cd45 47be
00000340: 7e5e 303e a3be 34be 1c01 943d 430e aabb
00000350: c183 dbbc b7cc bbbd baba 673d 4b52 23be
00000360: f246 d6bb 464e d4bd a49c f33c 9dca 3b3e
00000370: 12a4 d03d 95fe 4b3e 53f0 9c3d e2e9 183e
00000380: 1bb0 96bd cb13 073e 540d 013e 53c2 22be
00000390: 6158 65be a183 38bc 0eaf 0b3e e7ba f63d
000003a0: 7fbe 373d dc4e 4fbd ea54 aebd fba4 dabc
000003b0: c471 963d 3228 68be ddb2 033d 330a 05bd
000003c0: d4de 273b defe 2f3e 0175 073d 275c 373e
000003d0: 5bf2 9c3c f873 1d3e e62f b83d 8c21 79be
000003e0: 872f 163e a17f 7cbd 9e15 ea3d 7e4c 313e
000003f0: 4831 5abe d357 083e 7c0c 3fbc 28a8 ea3d
0.05577449 0.067585506 -0.18720827 -0.12915455 0.20252416 -0.09333847 -0.104341954 -0.18961161
0.123028345 -0.04381488 0.1299145 0.061146762 -0.080868736 -0.1573167 -0.078593105 0.0038423229
0.016816787 -0.015792465 0.124513336 0.071620576 0.052009694 -0.09432713 0.08934964 0.060016595
0.18565568 -0.022224072 -0.081811406 -0.039878614 0.14588833 -0.07974397 0.19824022 0.18186119
0.14537136 -0.08144478 0.0136772925 -0.18913834 -0.2221587 -0.044037458 0.018001268 -0.07856704
-0.019139647 0.09696936 -0.100341365 -0.109062195 -0.1373111 -0.15624106 0.07197119 0.12895992
0.23092607 -0.20977035 0.23444892 0.00091842096 -0.15818025 -0.17333539 0.04315676 0.020805912
-0.019473298 0.01568971 0.057872057 -0.06974646 -0.06657431 -0.06542861 -0.11807799 0.2259843
0.008233892 0.115204446 0.1397566 -0.09039743 -0.05185973 -0.015949775 -0.2541608 -0.05895271
-0.0026704732 0.06881031 0.06260796 -0.15491633 -0.015458478 -0.030027008 -0.1106902 0.024476122
-0.18213822 0.12186066 0.059966333 0.015732042 0.15834312 -0.12524225 0.1800889 0.11778357
0.1599116 0.024060355 0.11052311 0.14572896 0.069358826 0.15467921 0.090102024 -0.041471172
0.13498561 -0.014005339 -0.17511341 0.103096925 0.00035793948 0.118234046 0.14311673 -0.16157062
-0.088751994 0.1130036 0.018354362 0.2048166 -0.030621395 -0.0025437057 0.16472174 -0.006063328
-0.03235458 -0.049481135 -0.024831753 0.18489508 0.12835044 0.16070251 -0.076557554 0.06899708
0.11140568 -0.054560088 0.14750011 -0.15257579 -0.18677197 0.024769027 -0.1019488 0.22196037
-0.036876164 0.16338277 0.103065535 -0.14325117 0.09684595 0.07584192 0.11846058 -0.14728306
0.2053632 0.20201547 0.050179698 -0.18849778 -0.13931067 -0.023621233 0.059215724 -0.16895117
0.05099609 0.019108672 -0.042643428 -0.06402767 -0.1516511 0.020545356 0.036317438 0.0066512725
-0.08804843 0.18943587 0.019532112 0.064310685 0.04836723 0.12281784 0.020645825 0.050522048
-0.13197213 -0.120079294 -0.05942851 -0.15144081 0.15442675 -0.08671863 0.18144841 -0.05090614
-0.20056963 -0.0010530385 0.037244912 -0.16112027 0.065391704 -0.03786914 -0.060897734 -0.22461535
0.18589696 -0.16748485 0.1180629 0.19683418 0.10617719 -0.14067039 0.15015195 -0.18404408
0.025684722 -0.100124955 -0.13903034 0.14915648 0.07957421 -0.020643262 0.16020606 -0.026262607
0.16435137 0.10277067 0.0142037105 0.10913724 0.06959354 -0.15380873 0.0955919 -0.20472197
0.00015166576 -0.09028062 0.12614553 -0.13225384 -0.104179636 0.11265524 -0.19298029 -0.1946022
0.17223546 -0.17650847 0.07226774 -0.0051896884 -0.026796224 -0.09169906 0.05657456 -0.15949361
-0.006539219 -0.10366492 0.029737778 0.1833901 0.10187544 0.19921334 0.07663026 0.14932969
-0.07357808 0.13191144 0.1260274 -0.15894441 -0.22396995 -0.0112618515 0.13640997 0.120473675
0.044859406 -0.050612316 -0.0851229 -0.026689997 0.07345918 -0.22671583 0.032153 -0.03248043
0.0025614994 0.17187068 0.033070568 0.17906247 0.019158533 0.1537627 0.08993511 -0.24329203
0.14666568 -0.061645154 0.114299044 0.17314336 -0.21307862 0.13314752 -0.011660691 0.114578545

fc2.bias f4 [24]
00000000: 73c8 10bd aeac 463e ed54 0fbe fe28 243e
00000010: e059 f0bb f2b4 cd3d e35b 423e 248a 0bbd
00000020: 837d b63b d250 c6bd 2760 013d 9d03 b6bd
00000030: 4ade 3fbe b2bc d73d b06f eabb 4fb4 1abe
00000040: 360b 32be 9932 1abe f077 2a3e 9b61 eebc
00000050: d057 10be b2d5 adbd 27c8 06be e92c 293e
-0.035347413 0.1940181 -0.1399724 0.16031262 -0.0073349327 0.10044278 0.18980365 -0.034067288
0.0055691614 -0.09683384 0.03158584 -0.08887408 -0.1873714 0.10534038 -0.0071544275 -0.15107845
-0.17387089 -0.15058364 0.16647315 -0.029099276 -0.14095998 -0.08488025 -0.1316229 0.16521038

fc3.weight f4 [1, 24]
00000000: 356c 30be 5fa5 58bd d25d 983e 491d 5a3e
00000010: bb7e 80bd c486 cd3e 7f75 6c3c 9049 a2be
00000020: a1b3 32be 3c7b 9abd 29a5 02bf c7d5 82bd
00000030: 42c2 d73e 059c 01bd 68d1 0a3e 2b81 06be
00000040: f5f7 c83d 0677 d23d 8f3f d53c 3415 b8bd
00000050: c401 863e dc4f 64be a740 77be 5081 533e
-0.17228778 -0.052892085 0.2975908 0.21300234 -0.06274172 0.4014188 0.01443231 -0.3169675
-0.17451335 -0.07543036 -0.51033264 -0.06388431 0.42140394 -0.031642932 0.13556445 -0.13135211
0.09812919 0.10276608 0.026031284 -0.08988419 0.26173222 -0.22296089 -0.24145757 0.20654798

momentum_buffer f4 [24, 40]
00000000: 263c 59bb 25a0 93b9 b6ff e13a a0fe 1337
00000010: fc7f dcb8 8b46 19ba e0c8 8eb8 f923 dbb9
00000020: 9cdc 53ba 4676 69b9 abee e3b9 a01a 61b9
00000030: cb4e 65ba f68f 0aba ea70 72b9 6619 87b9
00000040: ec28 a6b8 ecff d9b8 dc88 bc39 7f6e a33a
00000050: 1004 8abb 0854 8dbb 34df b3bb 2261 b5bb
00000060: 36e4 b1bb b2fc 9ebb 54a0 9fbb c8d5 9ebb
00000070: 3a96 92bb 9d93 8dbb 4fd8 8bbb 35e0 8fbb
00000080: fe59 80bb dce4 7abb 50ce 70bb e805 69bb
00000090: 10f0 5cbb e40f 50bb b8a9 2fbb caca 2cbb
000000a0: 7357 7d3b 1af8 983a 352d 9dba 9df7 7f39
000000b0: 623f e2b8 1aab be39 1abf 8e39 c20b db39
000000c0: 4218 813a aaef 333a f2f3 4d3a 868d d539
000000d0: df81 5f39 58a5 9b38 a458 ceb8 5a78 aeb9
000000e0: 3a7b abb9 4d7b 3ab9 71ec 88b9 f840 2fba
000000f0: a500 0d3b fba7 f23a 74d9 333b 323b 333b
00000100: 7aec 373b 34ea 1e3b 3861 173b fddc 173b
00000110: fd84 ff3a efa5 e43a 4b8f ec3a fdd3 f13a
00000120: b58f d83a 9a74 d33a 3c27 be3a 1efc c53a
00000130: 7a6b c23a f7e1 bd3a 17d7 983a bc6a 8c3a
00000140: 46ae ffbb 9745 e1ba 303b a938 257e c0ba
00000150: 01da 97ba 0a9b e0ba abad c0ba c4bf e4ba
00000160: ab5e 05bb fa84 d8ba 1849 f2ba aa82 a2ba
00000170: 5a6d 41ba 5af9 f7b9 b0da e8b8 d8d6 f0b8
00000180: 908f 88b7 34d0 abb8 8cc5 8b39 6fed c13a
00000190: 3c70 82bb 2ed9 41bb 9de5 7bbb 99d6 7cbb
000001a0: cd06 7ebb be71 5dbb 6d96 4ebb e712 44bb
000001b0: 7511 2dbb aef3 20bb 4e49 1dbb 8bbc 1dbb
000001c0: 84e8 05bb 1418 00bb bb16 ecba a051 dfba
000001d0: fd97 cdba 64c9 c1ba 081d 75ba fca0 6dba
000001e0: dccd 073c 1cf4 313b 38d8 ac3a 6737 263b
000001f0: 5a68 203b 4b83 033b 5a9c 293a 1c60 5839
00000200: 8d94 e239 acdd c439 5a57 b039 8002 b8b7
00000210: c03c 83b7 2033 6ab7 b05b 5cb9 1a35 c8b9
00000220: c800 9db9 f4c8 a3b8 d034 cf38 f06b 7bba
00000230: 0d9c 2f3b a0f3 8f3a fea4 c73a 216f b53a
00000240: 3434 c33a 43b9 993a 0f5e 923a e6ee 993a
00000250: a7cd 813a 0642 463a 4ea9 433a dc8f 533a
00000260: b88c 2a3a 3a8d 103a e00b d039 e8ad d739
00000270: 20d7 9c39 309c 0439 40ee ffb9 2884 17ba
00000280: 8ca2 293c 12ac 613b c626 eb3a 0e29 6f3b
00000290: 3816 493b 8834 353b 55d4 c13a 4883 843a
000002a0: 0a28 dc3a 1e2b ba3a 7e02 cf3a bd39 833a
000002b0: ce84 cb39 ba98 8b39 0036 6737 70c0 cfb7
000002c0: 3483 dd38 b0cd 9cb8 6a6c 2eb9 f2f3 9cba
000002d0: 2b08 7b3b 3e14 0c3b 48e6 3b3b b2bf 313b
000002e0: 0099 403b 320f 213b 604a 143b ee40 0f3b
000002f0: 450e db3a f577 af3a 6916 af3a f48e bd3a
00000300: 7890 a13a 4227 9a3a 281d 833a a81c 723a
00000310: 2427 353a 2096 3b3a 707b 5939 a0db 1939
00000320: ea14 093c 01ed 163b 286b 603a bcbf 353b
00000330: 9894 5f3b 4c54 513b 02a0 e73a 4951 c03a
00000340: 3960 053b 7a7c e53a a374 dd3a 62d1 ab3a
00000350: d83d ba3a 654e 923a 3f00 523a fa1f 3a3a
00000360: ca73 203a 121f 3d3a dd45 8139 e0cd aab9
00000370: 1061 743b 46e6 033b 229d 313b e33e 283b
00000380: a057 2a3b 781c 083b dc25 f83a e80c fc3a
00000390: 8aae c63a 0dcf 9e3a 37ef 9c3a 9b92 9c3a
000003a0: f015 503a 728a 3c3a 5c37 173a 40a5 0d3a
000003b0: 0087 cc39 c0a7 6f39 601a e7b8 f080 55b9
000003c0: 87b3 993b 0635 d53a 9f79 0939 3849 423a
000003d0: 0875 b539 8b6e 0f3a b5b6 aa39 0bf8 5c39
000003e0: 7cb1 dd39 0e4c b739 47b9 1f39 d0b0 9237
000003f0: 9541 c438 082b e637 6463 cfb8 613c 3cb9
-0.0033147424 -0.00028157342 0.0017242345 8.821167e-06 -0.000105142564 -0.00058469985 -6.8085035e-05 -0.00041797737
-0.00080818846 -0.00022264672 -0.00043474635 -0.0002146759 -0.0008747398 -0.0005285734 -0.00023120982 -0.0002576813
-7.923119e-05 -0.000103950355 0.00035960122 0.0012468843 -0.00421191 -0.004312996 -0.0054892544 -0.005535261
-0.005428816 -0.004851901 -0.0048714075 -0.004847262 -0.004473475 -0.0043205754 -0.0042677294 -0.004390741
-0.003916978 -0.0038283383 -0.0036744066 -0.00355565 -0.0033712424 -0.0031747753 -0.002680404 -0.002636599
0.003865686 0.001167062 -0.0011991622 0.00024410938 -0.00010788326 0.00036367105 0.00027226732 0.00041779695
0.0009849148 0.0006864021 0.000785648 0.0004073197 0.00021315318 7.4217736e-05 -9.839356e-05 -0.00033277535
-0.00032707473 -0.00017784275 -0.00026116104 -0.00066854013 0.0021515277 0.0018513197 0.0027442845 0.0027348516
0.0028064535 0.0024248483 0.0023098718 0.002317249 0.001949459 0.0017444472 0.0018048076 0.0018450018
0.001652232 0.0016132772 0.0014507542 0.0015105044 0.0014833056 0.0014486898 0.0011660781 0.0010712962
-0.0078027574 -0.0017186877 8.0695725e-05 -0.0014686031 -0.0011585356 -0.0017136049 -0.0014700195 -0.001745217
-0.0020350616 -0.0016519122 -0.0018484918 -0.001239856 -0.00073786604 -0.00047297293 -0.00011103356 -0.000114841096
-1.6279315e-05 -8.192696e-05 0.0002665933 0.0014795492 -0.0039806645 -0.0029578912 -0.003843642 -0.0038580059
-0.0038761378 -0.003378972 -0.0031522766 -0.0029918493 -0.002640811 -0.0024559307 -0.0023999992 -0.002406868
-0.002043278 -0.0019545602 -0.0018012145 -0.0017037876 -0.0015685555 -0.001478475 -0.00093503343 -0.0009064821
0.008288827 0.0027153557 0.0013186997 0.0025362612 0.002447626 0.002006727 0.00064701366 0.00020635169
0.00043216758 0.00037549192 0.00033634418 -2.1935673e-05 -1.5644706e-05 -1.395939e-05 -0.00021014991 -0.00038186536
-0.00029945956 -7.809876e-05 9.880366e-05 -0.0009590974 0.0026795894 0.001098264 0.0015231667 0.0013842323
0.0014892877 0.0011728186 0.0011166948 0.0011744171 0.0009903208 0.0007562939 0.0007463888 0.0008070448
0.0006505954 0.00055142085 0.000396817 0.00041137566 0.0002991492 0.00012646685 -0.000488149 -0.00057798857
0.010353696 0.0034434837 0.0017940633 0.0036492976 0.003068341 0.002764972 0.0014788011 0.0010109926
0.00167966 0.0014203524 0.0015793589 0.0010011714 0.00038818124 0.00026625936 1.3781246e-05 -2.4765934e-05
0.0001056254 -7.476972e-05 -0.0001663432 -0.0011974557 0.003830443 0.002137437 0.0028671194 0.0027122316
0.002938807 0.0024575708 0.0022627339 0.002185877 0.0016712627 0.001338719 0.0013358119 0.0014462159
0.001232638 0.0011760967 0.0010003196 0.00092358375 0.00069104345 0.0007155854 0.00020740717 0.00014673034
0.008366803 0.002302945 0.00085608894 0.002773269 0.0034115668 0.0031941114 0.0017671587 0.0014672662
0.0020351543 0.001750841 0.0016895722 0.0013108666 0.0014209105 0.0011162279 0.0008010901 0.0007100102
0.00061207695 0.00072144077 0.0002465685 -0.00032578316 0.00372893 0.0020126267 0.0027101715 0.002567225
0.002599217 0.0020768922 0.0018932181 0.001922992 0.0015158218 0.0012116149 0.0011973147 0.0011945547
0.0007937839 0.0007192261 0.0005768442 0.00054033473 0.00039010495 0.00022855308 -0.00011019851 -0.00020361296
0.004690591 0.0016266413 0.00013110646 0.0007411423 0.00034610205 0.0005471489 0.00032561054 0.00021073238
0.0004228464 0.00034961145 0.00015232443 1.7486891e-05 9.358224e-05 2.7438175e-05 -9.889042e-05 -0.0001795157

momentum_buffer f4 [24]
00000000: 6496 22bb cfc5 b23a 2899 2fbb 64a0 8e3a
00000010: 7ed4 173b 5b92 f13a 1f35 6c3a e20c 8cba
00000020: ca85 be3a 50c4 4db9 912b 3839 d59c df3a
00000030: 7823 fa39 f74a 2cba 7abc ccba f1c1 3abb
00000040: f414 d1ba 20cb 48b9 1465 07bb e4a8 7b3b
00000050: afcc 003b fd16 b5ba e01a 6e3a f169 b0ba
-0.0024808878 0.0013639274 -0.002679417 0.001088154 0.0023167427 0.0018430458 0.0009010601 -0.0010684992
0.0014535722 -0.00019623456 0.00017563837 0.0017060289 0.00047710142 -0.000657245 -0.0015620135 -0.0028496946
-0.0015951679 -0.00019149156 -0.0020659612 0.0038400227 0.001965325 -0.0013816055 0.0009082984 -0.0013459307

momentum_buffer f4 [24, 24]
00000000: 4132 47ba e64a a13a d3d2 713a 2840 92ba
00000010: 82d2 f5ba 4912 e5ba f610 3237 346c ed3a
00000020: 8ce8 813a 78b6 d3ba d1b9 d0ba cbb9 7bba
00000030: 1d47 223b 4a31 35ba 0858 c03a 6087 a23a
00000040: e23b df3a fa05 6f3b 017d 763a 1412 e2ba
00000050: d432 c539 8ad5 85b9 903a ddba 8048 c339
00000060: 0e2f 8eb9 5dc4 d539 ebec a039 94c3 bbb9
00000070: a9a5 1eba 6db7 12ba 0203 57b7 641a 1b3a
00000080: 7856 b139 9de9 09ba d8e7 09ba 8cfb a1b9
00000090: ca2d 4d3a 4e68 70b9 b846 f239 cc34 d939
000000a0: b8c5 103a 6a6b 993a cfd3 a439 6876 12ba
000000b0: 17eb c338 4873 7fb8 3fcf 10ba ecd2 0239
000000c0: 381a af3a 3e08 1cbb 84d5 ebba 3341 1e3b
000000d0: e6b1 683b cdd0 573b 3105 8c39 42ff 67bb
000000e0: 66e1 f7ba a8c4 443b 4166 473b 0e94 f43a
000000f0: eed1 9abb da7e a43a 0ac0 42bb 5fdd 24bb
00000100: 1324 5dbb aeea dbbb ae55 f3ba 50cf 563b
00000110: 990f 0fba 0870 7039 70f2 523b 9531 40ba
00000120: 5d29 823a 735c acba 0666 84ba efb0 8b3a
00000130: 3b06 0a3b 57dd f43a 6034 3ab7 b5b0 09bb
00000140: d0e0 9fba 80ba da3a 7400 eb3a 2e4b 943a
00000150: de0d 21bb 8b20 1c3a 8077 b2ba 4453 9bba
00000160: 50dc dbba 245b 80bb bc1d 6cba 39b9 f63a
00000170: 86f8 adb9 6881 aa39 f295 fb3a d378 00ba
00000180: 3490 1eb9 33fd ac39 4749 6639 040a 8db9
00000190: b6ce 03ba eecd f1b9 9e9c 9838 d00e 033a
000001a0: 6f98 8139 8cc8 d7b9 9a9b dcb9 da40 68b9
000001b0: 65b9 353a 774b 29b9 91a8 bd39 67c1 9839
000001c0: 6884 e039 c6d7 893a 3abf 5239 a45f e5b9
000001d0: 5e45 2139 f860 32b9 57be f9b9 cc45 b638
000001e0: 767f 013b ac7b 37bb e2c3 08bb e083 1a3b
000001f0: 94f7 923b ed4c 8d3b 39ad 9539 3546 90bb
00000200: 5669 18bb 0eeb 7c3b 5626 813b 7a02 1d3b
00000210: 053f b3bb 5cce b83a 10d0 5bbb 9c7e 38bb
00000220: 03cb 7bbb 1422 0bbc 2ce3 21bb dc4c 8a3b
00000230: fafe b1b9 0066 0c3a f42b 773b 4d18 11ba
00000240: 8e89 b738 705e 01b9 d359 bfb8 852a c438
00000250: 8d0e 2939 80b6 1e39 2a56 7237 c2a9 2cb9
00000260: 1cad dfb8 099e 2639 ccdb 2139 d357 c438
00000270: 6656 5bb9 b038 8c38 e809 00b9 0e4c f3b8
00000280: c208 1cb9 c66c 9eb9 589f bbb8 0ef6 1d39
00000290: 0e55 74b7 e809 de36 3af3 2139 414a 08b8
000002a0: cb24 cfba 553e 243b 8064 f23a 5e7e 18bb
000002b0: dc75 74bb c03f 61bb b5fc 78b9 3e21 6f3b
000002c0: 2b1d 053b 15e1 4ebb a482 57bb 1a87 faba
000002d0: fcd0 9b3b 339e acba 5f87 413b 01e7 283b
000002e0: ed3e 623b 093c e73b 3808 013b 3100 64bb
000002f0: 6eae 0a3a 28ac 90b9 54f5 54bb ec97 433a
00000300: 6e1f e8b9 f008 633a bc75 273a 6d11 6bba
00000310: 379e d6ba d0aa d0ba e8ce 3039 e925 c33a
00000320: 4625 263a 0ca0 a7ba 5214 a2ba 1089 3aba
00000330: 5a9c 0e3b ad0a ebb9 4988 ab3a 7bec 793a
00000340: fb50 c53a 69e9 5f3b c6ed 553a 886f c7ba
00000350: 2a97 a239 24f4 fcb9 d9de bbba 2af9 4439
00000360: 4ac7 41b9 30e6 cd39 ef40 9539 27e0 d3b9
00000370: 98bd 37ba dce4 20ba 4643 4938 899d 253a
00000380: 520b 9939 a01b fbb9 f9ae 0cba ad44 96b9
00000390: 1b1f 5f3a 8486 40b9 9ea4 0e3a 8a48 d239
000003a0: 88e0 243a 343c b33a 16fd 9b39 e7df 29ba
000003b0: a04d 2239 3661 62b9 cbab 12ba 1249 e138
000003c0: 68f8 3b3a 98d0 513a d871 463a 66bf 3bbb
000003d0: 8dff 8dbb 3045 86bb 6a54 fa39 7bf2 5d3b
000003e0: 0054 bf37 dc60 edba 6af7 07bb acfb b5ba
000003f0: 5630 b73b 9831 02b9 9cf5 8d3b 0db6 ef3a
-0.0007598736 0.0012305647 0.00092248357 -0.0011158036 -0.0018754753 -0.0017476763 1.0613576e-05 0.0018113912
0.0009911223 -0.0016152402 -0.0015924518 -0.00096025754 0.0024761625 -0.00069119467 0.0014674673 0.0012399964
0.0017031396 0.0036472068 0.00094027823 -0.0017247819 0.00037612638 -0.00025526836 -0.0016878415 0.00037247315
-0.0002711941 0.00040772828 0.00030694096 -0.00035813136 -0.0006051907 -0.00055967906 -1.2815699e-05 0.0005916713
0.00033824495 -0.00052609463 -0.00052606827 -0.0003089573 0.00078269525 -0.0002292704 0.00046210526 0.00041428802
0.00055226265 0.0011704986 0.00031438327 -0.0005587102 9.3421135e-05 -6.09041e-05 -0.0005524046 0.0001247634
0.0013359254 -0.0023808624 -0.001799271 0.0024147748 0.0035506426 0.0032930851 0.0002670675 -0.0035399948
-0.0018911778 0.0030024443 0.0030425938 0.0018659846 -0.0047247326 0.0012550012 -0.0029716515 -0.0025156362
-0.0033743426 -0.0067113256 -0.0018564963 0.0032777376 -0.00054573413 0.00022929918 0.003218796 -0.0007331607
0.000993054 -0.0013150111 -0.0010101206 0.0010657589 0.0021060843 0.0018681687 -1.1098658e-05 -0.0021009867
-0.0012197737 0.0016687661 0.0017929212 0.0011313909 -0.0024574916 0.0005955777 -0.0013615936 -0.0011850377
-0.0016774032 -0.003917115 -0.00090071163 0.0018823511 -0.00033182296 0.00032521342 0.0019194467 -0.0004900817
-0.00015121774 0.00032995045 0.00021961807 -0.00026901078 -0.0005028056 -0.00046120532 7.277097e-05 0.00049994607
0.0002471837 -0.00041157415 -0.00042077602 -0.00022149403 0.0006932228 -0.00016145209 0.0003617448 0.00029135795
0.0004282326 0.0010516576 0.00020098398 -0.00043749542 0.00015379998 -0.00017011527 -0.00047634795 8.691437e-05
0.001975981 -0.0027997298 -0.0020868708 0.0023577139 0.00448508 0.004312149 0.00028548556 -0.0044029006
-0.0023256144 0.0038592252 0.0039413376 0.0023957775 -0.005470159 0.0014099586 -0.0033540763 -0.0028151637
-0.0038420565 -0.008492012 -0.0024702055 0.004220588 -0.00033950043 0.00053557754 0.0037715407 -0.0005534932
8.7517416e-05 -0.0001233758 -9.124321e-05 9.353928e-05 0.00016122517 0.00015136041 1.4444386e-05 -0.00016466438
-0.00010665713 0.00015889866 0.00015436037 9.362367e-05 -0.00020917653 6.686279e-05 -0.00012210722 -0.00011601309
-0.00014880582 -0.0003021715 -8.946535e-05 0.0001506435 -1.4563337e-05 6.617269e-06 0.00015444765 -3.249408e-05
-0.0015803812 0.0025061567 0.0018493086 -0.002326868 -0.0037301695 -0.0034370273 -0.00023745264 0.003648832
0.0020311575 -0.0031567265 -0.0032884264 -0.001911375 0.0047551375 -0.0013169706 0.002953015 0.0025772455
0.003452237 0.0070567173 0.0019688737 -0.0034790153 0.0005290274 -0.00027594087 -0.003249486 0.0007461298
-0.00044273905 0.00086606946 0.0006388088 -0.0008967135 -0.0016374056 -0.0015920047 0.00016861747 0.0014888617
0.00063379516 -0.0012788787 -0.0012365675 -0.0007115761 0.0021760673 -0.00044830647 0.0013086881 0.00095338345
0.0015054041 0.0034166223 0.0008160736 -0.0015215734 0.00031011674 -0.00048247084 -0.0014333382 0.00018784837
-0.00018480155 0.0003927215 0.00028467874 -0.00040412063 -0.00070091477 -0.00061376183 4.7984788e-05 0.0006317725
0.00029190868 -0.00047895033 -0.0005366649 -0.00028661397 0.000851141 -0.00018360658 0.00054414 0.00040108367
0.0006289561 0.0013674558 0.00029752468 -0.00064802024 0.00015478441 -0.00021589253 -0.0005595057 0.000107424465
0.00071704993 0.00080038 0.00075700646 -0.0028648018 -0.0043334425 -0.0040976033 0.0004774661 0.0033866453
2.280809e-05 -0.0018110531 -0.0020746836 -0.0013884208 0.005590479 -0.00012416241 0.0043322574 0.0018288508

momentum_buffer f4 [24]
00000000: f728 223b 18db 563a 2f17 8ebb 3eeb 1abb
00000010: f287 343a bab2 65bb e310 46b9 4cdd 9f3b
00000020: b758 f63a 91b0 4d3a d0ae 153b 4a37 733a
00000030: a7cf 97bb 7c21 023a e41f 08bb 521a 083b
00000040: 42b5 cbba a010 cfba c40a d3b9 aadf 993a
00000050: b650 3bbb 4498 3f3b 282e 7c3b 3245 3abb
0.0024743655 0.00081960997 -0.00433626 -0.002363875 0.00068867125 -0.0035049156 -0.00018889042 0.0048786756
0.001879475 0.000784644 0.0022839792 0.0009277953 -0.0046329084 0.0004964096 -0.0020770961 0.0020767641
-0.001554169 -0.0015797801 -0.00040253077 0.0011739631 -0.0028582043 0.0029235044 0.003847966 -0.0028422591

momentum_buffer f4 [1, 24]
00000000: c333 ce3b c4ff 83bb 22f3 e1bb e055 e7bb
00000010: a13d 183c 02d7 5abc 61d2 1f3b f353 8d3b
00000020: 1a08 103c 79d7 063c c6bb 943c f46e b03b
00000030: afda 82bc a4d2 50bb 1c9f b73a 1351 c63a
00000040: 0857 a0bb 417f 9dbb 2c36 27ba a244 073c
00000050: 5232 3bbc f0f7 d53b 32a9 043b f2ba ccbb
0.0062927916 -0.0040282924 -0.006895439 -0.0070597976 0.009292037 -0.013356926 0.002438687 0.004312986
0.008790994 0.008230084 0.018155944 0.0053843204 -0.015973417 -0.0031863833 0.001400921 0.0015130363
-0.0048931874 -0.0048064296 -0.00063786167 0.008256109 -0.0114255715 0.0065298006 0.002024245 -0.0062478716
