SourceCode/models/ff/FFNN_open_loop.pt (torch, 27967 bytes, 20 tensors)

weight f4 [24, 40]
00000000: fa92 f8bd 649e 45be d93f 2cbc c049 07be
00000010: dd0e 10be f870 d93c c661 c63d aee0 963c
00000020: c321 cdbd 967b 233e 773c 483e d965 a23d
00000030: 77fa 963c d603 273e a813 7b3d 87bb bbbc
00000040: abdf 063e 1ad1 18bc 363b 2f3e 3b41 3d3e
00000050: a640 533d da0a b43e 9a1d a93e 2609 043e
00000060: 8d1b c8bb c0d5 933d ecce 85bd 91dd 2b3e
00000070: fa60 8d3c 69f0 1ebd 9cfb 173e 7700 e3bd
00000080: 3ed0 273e 108d 373e f66e 0b3d aa29 583e
00000090: 90cf 1f3e becc ef3d 196a 753e 621c 6d3e
000000a0: 5ca4 7c3d 0315 0c3e ead2 b6bc 64bb c7bd
000000b0: 271d fcbd ccc7 ccbd 6143 f23d 6719 0dbe
000000c0: 06b0 fd3d 21b8 c8bb 25d1 0abe 5227 f13a
000000d0: 5c58 373d 36b5 a93d 785e db3d 2fc9 7fbd
000000e0: 1563 f43c 7a76 e23d 2333 8abd b8a5 debd
000000f0: 1b98 ea3c 0290 2dbc e22f 89bd 0ca1 de3d
00000100: ee3a c1bd 94ce 143e 8d53 12bd 5229 cf3c
00000110: 2bd1 b93d 5b51 bb3d dcac e53d 363a b83d
00000120: acdd 293e a195 783d 1313 093e 3a3c a83d
00000130: 4cbf cabd 98f8 2bbd 8a10 183d 074b 2c3e
00000140: c142 8b3a 5696 01be ce82 6a3c 8376 8b3d
00000150: de19 d43b bd14 e53d 629b 98bd 372d 003e
00000160: 19ab 12be 276e 98bd 40c7 ce3d 7b06 7dbd
00000170: 9fee 483d 9358 703d 9264 e23d 2ec6 563d
00000180: e647 e93d 818f d03c 4a5f b7bd 1f9a 1ebc
00000190: 4bdd 30be 7b99 17be 9bf9 a6bd b0ad 9fbd
000001a0: 9a69 173e f37e a03d 5b80 0a3d 0618 dfbd
000001b0: 18aa 103e 0cc1 b4bd 1593 00bd 0e99 bbbd
000001c0: 052d 12be 8469 833b 218d 25bd f043 523c
000001d0: eca3 9ebd 6631 233d 3ba1 5bbd 1234 f0bd
000001e0: 2fac 81bd 6cc4 473d 9749 1c3d cfd0 4c3d
000001f0: 784d 03be 56e8 d03b 6196 05be 738d 073e
00000200: 96f8 f8bd e1cd 4a3c 5187 213d 1af6 26bc
00000210: 9d68 49bd 456b c93c a138 06be 36f7 ce3c
00000220: 7e00 a93d 3dc7 73bd 6951 523d 804e 21bd
00000230: 9f32 fcbe 18d9 ddbc 3b90 abbd 14f0 8f3d
00000240: 3f08 e9bb 34ec 493d 68fa 383d b79b e33d
00000250: 39af 963d 4b44 1e3e f91c 3cbd edd2 e93d
00000260: edb7 59bc 8183 01be 1a22 6bbd 9c43 223e
00000270: 5969 69bd 4128 efbd e4b8 eebc c7c0 983c
00000280: c3d7 8fbe fba5 2bbf f42c b6be dce4 41be
00000290: 3305 51be 86cf b3be 91a4 94be 1122 39be
000002a0: d11c 1fbd 9dbc 46be 8b3b 08be 1c25 babd
000002b0: 268a 3ebe b9df 29be 19bc 84bc ec73 62be
000002c0: f481 eaba 6904 ad3b 2a18 00be 0917 933d
000002d0: dce2 a3be 3218 debd cfae c1be f16f 2abe
000002e0: 07a0 d4bd 2299 573c a208 dfbd 37a9 583d
000002f0: c1b4 c03d 15a7 c43c d892 313e b174 0b3d
00000300: b49d 6b3c 17c6 1f3e 52ad 81bd 78bb 40bd
00000310: aac4 863d 9bd0 a53d a0da 403b 15e3 8abc
00000320: d22d f4bd 0665 9ebe 1df5 b1bd 349f 55be
00000330: 9e06 26bd 4a41 60be 7107 58be 8bd3 9ebb
00000340: bedb 54be a783 2fbe d79f 19be b864 8fbc
00000350: b212 9cbd 24fb 14be 8d63 833d 15a4 423d
00000360: 27d9 8a3d 1b37 68be d89e bd3d e3c8 a13d
00000370: 7c3b 983d 3f89 07be 6a8f bdbc b13a e3bd
00000380: ff00 10be 6164 c13d 015c 0dbe 872f 0cbe
00000390: aca0 09bd 1bfe 243e ddbd 613d 3d11 7ebd
000003a0: 160f 68bd 6013 7bbd 1d97 073e ab7f 71bd
000003b0: c6b2 cabc 1ce0 ea3d b340 9fbd 6e51 463e
000003c0: 7486 eb3e 80fa 383e 3f6e 653e 71b9 243e
000003d0: 63d9 263e d603 ac3d 6008 263d 5cce 393e
000003e0: 8637 3d3e 3a83 853d 1a9b 163d 0721 233d
000003f0: 20b3 8d3e 601c b73d 6902 bb3d 663c 653c
-0.121374086 -0.19298702 -0.010513269 -0.13211727 -0.1406817 0.026543126 0.096866176 0.018417682
-0.10016205 0.15965113 0.19554316 0.07929582 0.018429978 0.16310057 0.061298043 -0.022916568
0.1317126 -0.009327197 0.17112431 0.18481915 0.051575325 0.3516453 0.33030397 0.12894115
-0.0061068 0.07218504 -0.06533608 0.1678374 0.017258156 -0.03880349 0.14842075 -0.11084073
0.16388032 0.17924905 0.034041367 0.21109644 0.15606523 0.11708973 0.23966254 0.23155358
0.061680183 0.1367989 -0.022317369 -0.09752539 -0.12310248 -0.09999046 0.11829258 -0.13779221
0.123870894 -0.0061254655 -0.13556345 0.0018398559 0.044762 0.08286516 0.10711378 -0.062447723
0.029832402 0.11057754 -0.06748035 -0.10871452 0.028636983 -0.010593416 -0.06698586 0.10870561
-0.09435068 0.14531928 -0.03572421 0.025288258 0.09073099 0.09146377 0.11214611 0.08995478
0.16588467 0.060689572 0.13386182 0.08214612 -0.09899768 -0.041985124 0.037125148 0.16825496
0.0010624753 -0.12655005 0.014313413 0.06809714 0.00647281 0.11185596 -0.07451512 0.12517248
-0.14323081 -0.07442885 0.10096598 -0.06177376 0.04905569 0.05867822 0.110543385 0.052435093
0.11390667 0.025459053 -0.08953722 -0.0096803 -0.17271917 -0.14804642 -0.08153077 -0.077968
0.14786378 0.07836714 0.033813816 -0.10893254 0.14127386 -0.08825883 -0.03139027 -0.09160052
-0.14274986 0.004010381 -0.040417794 0.01283358 -0.07746109 0.039842032 -0.05362056 -0.117286816
-0.063316695 0.048771307 0.03815612 0.050003823 -0.1282252 0.006375353 -0.13045646 0.13237552
-0.12156789 0.012378187 0.03943569 -0.010190511 -0.049172033 0.024587283 -0.1310754 0.025264364
0.08252047 -0.05951618 0.05134717 -0.039381504 -0.4925737 -0.027081057 -0.08377119 0.07028213
-0.0071115787 0.049297526 0.04516068 0.111136846 0.0735764 0.15455739 -0.045926068 0.11417184
-0.01328848 -0.12647821 -0.05740557 0.15846103 -0.056985233 -0.116776 -0.029140897 0.01864661
-0.280943 -0.6705014 -0.35581172 -0.18934959 -0.2041214 -0.35119265 -0.29031804 -0.18079402
-0.03884584 -0.19407888 -0.13303964 -0.09089109 -0.18607387 -0.1658925 -0.016202973 -0.22114533
-0.0017891512 0.0052800667 -0.12509218 0.07182128 -0.32009017 -0.10844459 -0.3782868 -0.16644265
-0.10382085 0.013159068 -0.108903185 0.05289575 0.09409476 0.024005452 0.17341173 0.034046832
0.014380861 0.15602909 -0.06331886 -0.047053784 0.065804794 0.08096429 0.0029427186 -0.016953984
-0.11922802 -0.3093645 -0.0868933 -0.20861512 -0.040533654 -0.21899906 -0.21096589 -0.004846995
-0.2078695 -0.17140065 -0.1500238 -0.017504081 -0.07620753 -0.14548928 0.06415472 0.047519762
0.067797 -0.22677271 0.09258813 0.07899644 0.07433221 -0.13235949 -0.023139674 -0.11095179
-0.1406288 0.09442974 -0.13804628 -0.13690005 -0.033600494 0.16112559 0.05511271 -0.06202816
-0.056655012 -0.061297774 0.13241239 -0.058959644 -0.024743449 0.11468527 -0.07776012 0.19367
0.46001017 0.18064308 0.22405337 0.16086365 0.16293864 0.08399169 0.04053533 0.18145126
0.18478212 0.0651917 0.03676901 0.03982642 0.27675724 0.08940959 0.09131319 0.013991451

bias f4 [24]
00000000: 849a 97be a9e0 823e c7eb 40bc dc46 ee3d
00000010: bda4 453e 8cfa 823e a559 a9be cb5b a93d
00000020: 6442 883d 8079 cb3d 5c1f 383e f779 42bd
00000030: c6c2 e73c 49a6 cdbd c414 49bd c1f4 0c3e
00000040: 0535 773e 2bc3 a2bd b4a0 abbd d2b8 64bd
00000050: acf4 c0bd 7495 f63e 6a77 1e3e 90be 363c
-0.29610074 0.25562027 -0.011774964 0.11634609 0.19301124 0.25581777 -0.33076206 0.08269461
0.06653288 0.09935284 0.17980713 -0.047479596 0.028291117 -0.10041482 -0.04909207 0.13765241
0.24141319 -0.079473816 -0.08380261 -0.05584032 -0.094216675 0.481609 0.1547524 0.011153832

weight f4 [24, 24]
00000000: 7945 c43d 4cc3 673d 9468 0c3e 5cf2 19be
00000010: 57da 02bd 657a 10be b196 1a3e c68c 283e
00000020: 1493 2b3a 1ada 4c3e d2cd 53bd f628 7abe
00000030: d668 2a3d 2a4d 003e 88a5 8dbe 41f3 20be
00000040: e029 a13d 74eb 8abd 8b6d be3d eca8 123e
00000050: 1d56 1a3e b728 bdbe e39b b9bd d09c 13be
00000060: 7d43 033b 8713 b83c 87ca 2abe 22cc 6bbd
00000070: 1db7 5fbd 7b37 acbd 626e e6bd 973e b83d
00000080: 7eb5 223e c2cd 053e b3ac 9abd 2b36 323e
00000090: f73b 4b3d 9f16 56bd 9842 243e a79a 673e
000000a0: 1c86 29be 19bc e3bd a527 afbd 65df 5f3d
000000b0: a4c5 8cbd fff3 513e 34cc c53c c80a c63d
000000c0: 5b36 e7bd dce7 1b3d 2c0c 42be 59ac 033e
000000d0: eeee 803e fb8f bd3d 66e2 4ebe 05f3 0abe
000000e0: d448 3e3e 0d5a d53d 7aba 4d3d f46d b23d
000000f0: c636 a93d 1763 25be 4807 2c3e 9913 b83d
00000100: 58c8 5a3e 4b93 bb3d f71c 503e 4166 293d
00000110: d77e 503e 364b 49bd 6380 1a3e 8eac 573e
00000120: b0a6 d83d f798 c33d d656 443d d07e 29bc
00000130: 858c 993d fdb6 2bbe f48b 173d 99d8 05be
00000140: b9e4 de3d fbd0 bebd 5af0 6cbe f9c4 143d
00000150: 8e71 dcbc baf4 1e3e 86d1 debd b173 36bd
00000160: 5587 053d ad7c 45be 8373 4e3c 739b 5dbe
00000170: d3a5 67be c583 c9bd bcb4 d03d 6526 573d
00000180: e712 683e 0b41 45bd 72aa 6d3d 9e1f 05bd
00000190: 3aeb 0fbe 76ba 133e dddb 14bc 8b2f 3b3e
000001a0: 53d5 f83d 733f 883c 5a7a 133e 7af3 0c3e
000001b0: 98ff efbd a278 053d 2faa e5bc 3739 c3bd
000001c0: f3ea d5bd f34e 11bd a57a ca3d 92d8 1a3e
000001d0: 1c86 3cbe 8ec6 96bd 1dff 4fbe dab1 853c
000001e0: 92de 343e 5408 143e 3473 d63d fd92 763d
000001f0: 3f84 1bbe 461e cb3d 8065 41be c84c 3a3d
00000200: a9ac 42bc 431d 1bbc ed7d 3dbd 17d5 15be
00000210: feed 163e 5e39 3e3e 3c17 00bc b1f8 0fbe
00000220: 6039 19be 780c 163e 618c 3ebe 201e 49bd
00000230: bc05 d33d 81b9 6bbd a756 5ebd 22ba 00be
00000240: 833a f63d fdff ae3c 239f 233d 04be 093e
00000250: a73f 003e 22f4 d43b c922 3fbe 1003 a13c
00000260: 3cf1 a83c b663 933d 3fba 473d 18c9 d7bd
00000270: 54f2 8d3c fe66 89bc 8297 863c 8e1a e63d
00000280: 6765 f63d 832c 093e 3df0 e2bd 1549 5b3e
00000290: 823f 95bd d660 20be 4c17 0cbe 0c97 963d
000002a0: e469 1fbe 6104 f23d bf2d 81bd e311 43be
000002b0: 84d7 cabd eda6 363d 0881 073d a2b8 193e
000002c0: e324 f9bd 4998 c23d dd8e a2bd 40fe 56be
000002d0: b423 96be 7ee6 bf3d 13d6 febd 68a2 79bb
000002e0: a287 433e e163 09be c194 cf3d a593 09be
000002f0: ab64 933d cf82 79be b48b 103e c85a d0bd
00000300: c8fe 5ebe 34bc 5c3e 8a95 9b3d 2dd6 023e
00000310: 867f 9ebd 9b2a 993d bf18 ab3c b187 e7bd
00000320: de83 0e3e 24da 05bd 3ec9 f8bc 0905 4e3e
00000330: 89f5 443e 0d69 45be 0086 f13a a3f2 b6bc
00000340: 1a46 a2bd 3976 15bd c08d 77be a95b 173e
00000350: 0bb5 0d3e cc3a 45bd 22c6 4e3e 65f3 0bbe
00000360: 6dbf 083d e6c7 ddbd 7953 31be b318 90be
00000370: f98a 613c 2ded 933d 2dc2 5d3e 71dd b73d
00000380: 85d5 5b3d 9bc8 2e3b 3596 2b3e 5fd2 80be
00000390: 8902 a6bb de89 44bd 11bc 9ebd e5ff 1fbe
000003a0: ff37 113e fd18 17be 096b 65bd 986c 8c3e
000003b0: 0540 4b3e d1b5 99be 84b6 bd3d cf0d 85be
000003c0: eb6f 7abe af3b bd3d d31f 0e3e d3f6 afbc
000003d0: ff5b 453d cafe fa3d d0f9 2abd aac7 42be
000003e0: a5ff 053e b007 99bd 088f de3c 722e a03d
000003f0: eb04 0c3e e3aa af3c fac4 4a3d c5be bc3d
0.09583563 0.056582734 0.13711768 -0.15033859 -0.031946506 -0.1410919 0.15096547 0.16459951
0.00065450487 0.20005074 -0.051709957 -0.24429688 0.041603886 0.12529436 -0.27665353 -0.15717794
0.07869315 -0.0678319 0.092982374 0.14322251 0.15071912 -0.36945125 -0.09062936 -0.14415288
0.002002924 0.022470249 -0.1667882 -0.057567723 -0.05461799 -0.084090196 -0.112515226 0.08996313
0.15889546 0.13066772 -0.07552471 0.17403476 0.049617734 -0.052267667 0.16041028 0.22617589
-0.16555065 -0.11119861 -0.085524835 0.054656405 -0.068736345 0.20503233 0.024145223 0.09670025
-0.11289664 0.038062915 -0.18949956 0.12858714 0.2518229 0.09255978 -0.20203552 -0.13569267
0.18582469 0.104175664 0.050226666 0.08712378 0.082624 -0.16151081 0.16799653 0.08988113
0.21365488 0.09158953 0.20323549 0.041357283 0.20360886 -0.049143992 0.15088038 0.21061918
0.10578668 0.0955066 0.047934376 -0.010345176 0.07497505 -0.16769023 0.036998704 -0.13070907
0.10883469 -0.093172036 -0.23138562 0.03632066 -0.026909616 0.15523043 -0.10879807 -0.044543926
0.032599766 -0.19285841 0.012600782 -0.2164133 -0.2262185 -0.09839586 0.10190722 0.05252685
0.2266346 -0.048157733 0.058023877 -0.032500856 -0.14054576 0.14426598 -0.009085623 0.18279855
0.12150063 0.016631817 0.14402142 0.13764754 -0.117186725 0.032585748 -0.028035251 -0.09532397
-0.10445204 -0.035475682 0.09886674 0.15121678 -0.18410534 -0.0736209 -0.20312162 0.016320158
0.17663029 0.14456302 0.10471192 0.060198773 -0.15187167 0.099178836 -0.18886375 0.04548338
-0.011881986 -0.009467426 -0.04626267 -0.14632069 0.14739224 0.18576571 -0.0078180395 -0.14059712
-0.14963293 0.14653194 -0.18608238 -0.049100995 0.10303828 -0.057549957 -0.054281857 -0.12571004
0.12022879 0.0213623 0.039946686 0.13451391 0.12524281 0.0064988295 -0.18665613 0.01965478
0.020622842 0.07196753 0.048761602 -0.105364025 0.017327465 -0.016772743 0.016429666 0.11235534
0.1203106 0.13395886 -0.11080978 0.21414597 -0.07287504 -0.1566194 -0.13680762 0.07353029
-0.15567738 0.118172415 -0.063075535 -0.19049792 -0.099043876 0.044592787 0.03308204 0.15011838
-0.12165239 0.09501702 -0.07937405 -0.20995426 -0.29324114 0.09370135 -0.12443175 -0.0038091186
0.19094709 -0.13417007 0.101357944 -0.13435228 0.07196935 -0.24366306 0.14115793 -0.10173565
-0.21776879 0.21556169 0.07596882 0.12777014 -0.07739167 0.074788295 0.020885823 -0.11305178
0.13917491 -0.03267874 -0.030369397 0.20119108 0.19234289 -0.19278355 0.0018426776 -0.022332495
-0.07923527 -0.0364897 -0.24175167 0.1478106 0.13838594 -0.048151776 0.20192769 -0.13667066
0.033385683 -0.10829143 -0.17316999 -0.28143844 0.013766044 0.07222972 0.21656103 0.089777835
0.053670425 0.0026669863 0.16756518 -0.251605 -0.00506622 -0.047983043 -0.077507146 -0.1562496
0.14181517 -0.14755626 -0.05601028 0.274266 0.1984864 -0.30021527 0.09263328 -0.25987098
-0.24456756 0.09239899 0.13879327 -0.02148 0.048183437 0.122556284 -0.041742146 -0.19021478
0.13085802 -0.074721694 0.027167812 0.07821359 0.13673751 0.02144379 0.049504258 0.09216074

bias f4 [24]
00000000: e9f5 5a3d 7b9a 3e3e f9a5 89bd 5a10 763d
00000010: 3b3b 1c3e 3693 e3bb 5b62 60bd 6751 27be
00000020: 21e8 8cbd 63f7 b13d 4b20 70be e8a9 c33d
00000030: 06aa d7bd d1ed 10be 69e0 1abe a35d abbd
00000040: d68f 423e d80d 133b 14dd a7bd 4be9 683e
00000050: 90e7 24bd c3c8 01be 9335 923d fb63 d53d
0.053457174 0.18613617 -0.0672111 0.060074188 0.1525697 -0.006945039 -0.0547813 -0.16339646
-0.068802126 0.086897634 -0.23449819 0.095538914 -0.10530476 -0.1415322 -0.15124668 -0.08367469
0.19000182 0.0022438671 -0.08196464 0.22745244 -0.040259898 -0.12674241 0.07139125 0.104194604

weight f4 [1, 24]
00000000: 0e9c 2a3e b89c f5bc ad0c 3e3e 6dca 5fbd
00000010: ff4e 25be a2ba 06be 5dc1 263c 55a5 323e
00000020: bb61 033d e05d e93d 75ae 3b3e 5704 85bd
00000030: 57ba 26be 81d8 57be f3f9 5f3c 4d87 aebd
00000040: fba1 3bbd c829 f8bd 1f13 6c3e 4765 43bd
00000050: 7b9a a2bd 8c8d 6fbd 95e8 bbba 3551 c1bd
0.16661093 -0.029981956 0.18559523 -0.054636408 -0.16143416 -0.13157132 0.010177937 0.17445882
0.032075625 0.11394858 0.18328269 -0.064949684 -0.1628202 -0.21078683 0.013670432 -0.085219
-0.045808773 -0.12117344 0.23054169 -0.047704007 -0.07939621 -0.0584846 -0.0014336283 -0.09439317

fc1.weight f4 [24, 40]
00000000: fa92 f8bd 649e 45be d93f 2cbc c049 07be
00000010: dd0e 10be f870 d93c c661 c63d aee0 963c
00000020: c321 cdbd 967b 233e 773c 483e d965 a23d
00000030: 77fa 963c d603 273e a813 7b3d 87bb bbbc
00000040: abdf 063e 1ad1 18bc 363b 2f3e 3b41 3d3e
00000050: a640 533d da0a b43e 9a1d a93e 2609 043e
00000060: 8d1b c8bb c0d5 933d ecce 85bd 91dd 2b3e
00000070: fa60 8d3c 69f0 1ebd 9cfb 173e 7700 e3bd
00000080: 3ed0 273e 108d 373e f66e 0b3d aa29 583e
00000090: 90cf 1f3e becc ef3d 196a 753e 621c 6d3e
000000a0: 5ca4 7c3d 0315 0c3e ead2 b6bc 64bb c7bd
000000b0: 271d fcbd ccc7 ccbd 6143 f23d 6719 0dbe
000000c0: 06b0 fd3d 21b8 c8bb 25d1 0abe 5227 f13a
000000d0: 5c58 373d 36b5 a93d 785e db3d 2fc9 7fbd
000000e0: 1563 f43c 7a76 e23d 2333 8abd b8a5 debd
000000f0: 1b98 ea3c 0290 2dbc e22f 89bd 0ca1 de3d
00000100: ee3a c1bd 94ce 143e 8d53 12bd 5229 cf3c
00000110: 2bd1 b93d 5b51 bb3d dcac e53d 363a b83d
00000120: acdd 293e a195 783d 1313 093e 3a3c a83d
00000130: 4cbf cabd 98f8 2bbd 8a10 183d 074b 2c3e
00000140: c142 8b3a 5696 01be ce82 6a3c 8376 8b3d
00000150: de19 d43b bd14 e53d 629b 98bd 372d 003e
00000160: 19ab 12be 276e 98bd 40c7 ce3d 7b06 7dbd
00000170: 9fee 483d 9358 703d 9264 e23d 2ec6 563d
00000180: e647 e93d 818f d03c 4a5f b7bd 1f9a 1ebc
00000190: 4bdd 30be 7b99 17be 9bf9 a6bd b0ad 9fbd
000001a0: 9a69 173e f37e a03d 5b80 0a3d 0618 dfbd
000001b0: 18aa 103e 0cc1 b4bd 1593 00bd 0e99 bbbd
000001c0: 052d 12be 8469 833b 218d 25bd f043 523c
000001d0: eca3 9ebd 6631 233d 3ba1 5bbd 1234 f0bd
000001e0: 2fac 81bd 6cc4 473d 9749 1c3d cfd0 4c3d
000001f0: 784d 03be 56e8 d03b 6196 05be 738d 073e
00000200: 96f8 f8bd e1cd 4a3c 5187 213d 1af6 26bc
00000210: 9d68 49bd 456b c93c a138 06be 36f7 ce3c
00000220: 7e00 a93d 3dc7 73bd 6951 523d 804e 21bd
00000230: 9f32 fcbe 18d9 ddbc 3b90 abbd 14f0 8f3d
00000240: 3f08 e9bb 34ec 493d 68fa 383d b79b e33d
00000250: 39af 963d 4b44 1e3e f91c 3cbd edd2 e93d
00000260: edb7 59bc 8183 01be 1a22 6bbd 9c43 223e
00000270: 5969 69bd 4128 efbd e4b8 eebc c7c0 983c
00000280: c3d7 8fbe fba5 2bbf f42c b6be dce4 41be
00000290: 3305 51be 86cf b3be 91a4 94be 1122 39be
000002a0: d11c 1fbd 9dbc 46be 8b3b 08be 1c25 babd
000002b0: 268a 3ebe b9df 29be 19bc 84bc ec73 62be
000002c0: f481 eaba 6904 ad3b 2a18 00be 0917 933d
000002d0: dce2 a3be 3218 debd cfae c1be f16f 2abe
000002e0: 07a0 d4bd 2299 573c a208 dfbd 37a9 583d
000002f0: c1b4 c03d 15a7 c43c d892 313e b174 0b3d
00000300: b49d 6b3c 17c6 1f3e 52ad 81bd 78bb 40bd
00000310: aac4 863d 9bd0 a53d a0da 403b 15e3 8abc
00000320: d22d f4bd 0665 9ebe 1df5 b1bd 349f 55be
00000330: 9e06 26bd 4a41 60be 7107 58be 8bd3 9ebb
00000340: bedb 54be a783 2fbe d79f 19be b864 8fbc
00000350: b212 9cbd 24fb 14be 8d63 833d 15a4 423d
00000360: 27d9 8a3d 1b37 68be d89e bd3d e3c8 a13d
00000370: 7c3b 983d 3f89 07be 6a8f bdbc b13a e3bd
00000380: ff00 10be 6164 c13d 015c 0dbe 872f 0cbe
00000390: aca0 09bd 1bfe 243e ddbd 613d 3d11 7ebd
000003a0: 160f 68bd 6013 7bbd 1d97 073e ab7f 71bd
000003b0: c6b2 cabc 1ce0 ea3d b340 9fbd 6e51 463e
000003c0: 7486 eb3e 80fa 383e 3f6e 653e 71b9 243e
000003d0: 63d9 263e d603 ac3d 6008 263d 5cce 393e
000003e0: 8637 3d3e 3a83 853d 1a9b 163d 0721 233d
000003f0: 20b3 8d3e 601c b73d 6902 bb3d 663c 653c
-0.121374086 -0.19298702 -0.010513269 -0.13211727 -0.1406817 0.026543126 0.096866176 0.018417682
-0.10016205 0.15965113 0.19554316 0.07929582 0.018429978 0.16310057 0.061298043 -0.022916568
0.1317126 -0.009327197 0.17112431 0.18481915 0.051575325 0.3516453 0.33030397 0.12894115
-0.0061068 0.07218504 -0.06533608 0.1678374 0.017258156 -0.03880349 0.14842075 -0.11084073
0.16388032 0.17924905 0.034041367 0.21109644 0.15606523 0.11708973 0.23966254 0.23155358
0.061680183 0.1367989 -0.022317369 -0.09752539 -0.12310248 -0.09999046 0.11829258 -0.13779221
0.123870894 -0.0061254655 -0.13556345 0.0018398559 0.044762 0.08286516 0.10711378 -0.062447723
0.029832402 0.11057754 -0.06748035 -0.10871452 0.028636983 -0.010593416 -0.06698586 0.10870561
-0.09435068 0.14531928 -0.03572421 0.025288258 0.09073099 0.09146377 0.11214611 0.08995478
0.16588467 0.060689572 0.13386182 0.08214612 -0.09899768 -0.041985124 0.037125148 0.16825496
0.0010624753 -0.12655005 0.014313413 0.06809714 0.00647281 0.11185596 -0.07451512 0.12517248
-0.14323081 -0.07442885 0.10096598 -0.06177376 0.04905569 0.05867822 0.110543385 0.052435093
0.11390667 0.025459053 -0.08953722 -0.0096803 -0.17271917 -0.14804642 -0.08153077 -0.077968
0.14786378 0.07836714 0.033813816 -0.10893254 0.14127386 -0.08825883 -0.03139027 -0.09160052
-0.14274986 0.004010381 -0.040417794 0.01283358 -0.07746109 0.039842032 -0.05362056 -0.117286816
-0.063316695 0.048771307 0.03815612 0.050003823 -0.1282252 0.006375353 -0.13045646 0.13237552
-0.12156789 0.012378187 0.03943569 -0.010190511 -0.049172033 0.024587283 -0.1310754 0.025264364
0.08252047 -0.05951618 0.05134717 -0.039381504 -0.4925737 -0.027081057 -0.08377119 0.07028213
-0.0071115787 0.049297526 0.04516068 0.111136846 0.0735764 0.15455739 -0.045926068 0.11417184
-0.01328848 -0.12647821 -0.05740557 0.15846103 -0.056985233 -0.116776 -0.029140897 0.01864661
-0.280943 -0.6705014 -0.35581172 -0.18934959 -0.2041214 -0.35119265 -0.29031804 -0.18079402
-0.03884584 -0.19407888 -0.13303964 -0.09089109 -0.18607387 -0.1658925 -0.016202973 -0.22114533
-0.0017891512 0.0052800667 -0.12509218 0.07182128 -0.32009017 -0.10844459 -0.3782868 -0.16644265
-0.10382085 0.013159068 -0.108903185 0.05289575 0.09409476 0.024005452 0.17341173 0.034046832
0.014380861 0.15602909 -0.06331886 -0.047053784 0.065804794 0.08096429 0.0029427186 -0.016953984
-0.11922802 -0.3093645 -0.0868933 -0.20861512 -0.040533654 -0.21899906 -0.21096589 -0.004846995
-0.2078695 -0.17140065 -0.1500238 -0.017504081 -0.07620753 -0.14548928 0.06415472 0.047519762
0.067797 -0.22677271 0.09258813 0.07899644 0.07433221 -0.13235949 -0.023139674 -0.11095179
-0.1406288 0.09442974 -0.13804628 -0.13690005 -0.033600494 0.16112559 0.05511271 -0.06202816
-0.056655012 -0.061297774 0.13241239 -0.058959644 -0.024743449 0.11468527 -0.07776012 0.19367
0.46001017 0.18064308 0.22405337 0.16086365 0.16293864 0.08399169 0.04053533 0.18145126
0.18478212 0.0651917 0.03676901 0.03982642 0.27675724 0.08940959 0.09131319 0.013991451

fc1.bias f4 [24]
00000000: 849a 97be a9e0 823e c7eb 40bc dc46 ee3d
00000010: bda4 453e 8cfa 823e a559 a9be cb5b a93d
00000020: 6442 883d 8079 cb3d 5c1f 383e f779 42bd
00000030: c6c2 e73c 49a6 cdbd c414 49bd c1f4 0c3e
00000040: 0535 773e 2bc3 a2bd b4a0 abbd d2b8 64bd
00000050: acf4 c0bd 7495 f63e 6a77 1e3e 90be 363c
-0.29610074 0.25562027 -0.011774964 0.11634609 0.19301124 0.25581777 -0.33076206 0.08269461
0.06653288 0.09935284 0.17980713 -0.047479596 0.028291117 -0.10041482 -0.04909207 0.13765241
0.24141319 -0.079473816 -0.08380261 -0.05584032 -0.094216675 0.481609 0.1547524 0.011153832

fc2.weight f4 [24, 24]
00000000: 7945 c43d 4cc3 673d 9468 0c3e 5cf2 19be
00000010: 57da 02bd 657a 10be b196 1a3e c68c 283e
00000020: 1493 2b3a 1ada 4c3e d2cd 53bd f628 7abe
00000030: d668 2a3d 2a4d 003e 88a5 8dbe 41f3 20be
00000040: e029 a13d 74eb 8abd 8b6d be3d eca8 123e
00000050: 1d56 1a3e b728 bdbe e39b b9bd d09c 13be
00000060: 7d43 033b 8713 b83c 87ca 2abe 22cc 6bbd
00000070: 1db7 5fbd 7b37 acbd 626e e6bd 973e b83d
00000080: 7eb5 223e c2cd 053e b3ac 9abd 2b36 323e
00000090: f73b 4b3d 9f16 56bd 9842 243e a79a 673e
000000a0: 1c86 29be 19bc e3bd a527 afbd 65df 5f3d
000000b0: a4c5 8cbd fff3 513e 34cc c53c c80a c63d
000000c0: 5b36 e7bd dce7 1b3d 2c0c 42be 59ac 033e
000000d0: eeee 803e fb8f bd3d 66e2 4ebe 05f3 0abe
000000e0: d448 3e3e 0d5a d53d 7aba 4d3d f46d b23d
000000f0: c636 a93d 1763 25be 4807 2c3e 9913 b83d
00000100: 58c8 5a3e 4b93 bb3d f71c 503e 4166 293d
00000110: d77e 503e 364b 49bd 6380 1a3e 8eac 573e
00000120: b0a6 d83d f798 c33d d656 443d d07e 29bc
00000130: 858c 993d fdb6 2bbe f48b 173d 99d8 05be
00000140: b9e4 de3d fbd0 bebd 5af0 6cbe f9c4 143d
00000150: 8e71 dcbc baf4 1e3e 86d1 debd b173 36bd
00000160: 5587 053d ad7c 45be 8373 4e3c 739b 5dbe
00000170: d3a5 67be c583 c9bd bcb4 d03d 6526 573d
00000180: e712 683e 0b41 45bd 72aa 6d3d 9e1f 05bd
00000190: 3aeb 0fbe 76ba 133e dddb 14bc 8b2f 3b3e
000001a0: 53d5 f83d 733f 883c 5a7a 133e 7af3 0c3e
000001b0: 98ff efbd a278 053d 2faa e5bc 3739 c3bd
000001c0: f3ea d5bd f34e 11bd a57a ca3d 92d8 1a3e
000001d0: 1c86 3cbe 8ec6 96bd 1dff 4fbe dab1 853c
000001e0: 92de 343e 5408 143e 3473 d63d fd92 763d
000001f0: 3f84 1bbe 461e cb3d 8065 41be c84c 3a3d
00000200: a9ac 42bc 431d 1bbc ed7d 3dbd 17d5 15be
00000210: feed 163e 5e39 3e3e 3c17 00bc b1f8 0fbe
00000220: 6039 19be 780c 163e 618c 3ebe 201e 49bd
00000230: bc05 d33d 81b9 6bbd a756 5ebd 22ba 00be
00000240: 833a f63d fdff ae3c 239f 233d 04be 093e
00000250: a73f 003e 22f4 d43b c922 3fbe 1003 a13c
00000260: 3cf1 a83c b663 933d 3fba 473d 18c9 d7bd
00000270: 54f2 8d3c fe66 89bc 8297 863c 8e1a e63d
00000280: 6765 f63d 832c 093e 3df0 e2bd 1549 5b3e
00000290: 823f 95bd d660 20be 4c17 0cbe 0c97 963d
000002a0: e469 1fbe 6104 f23d bf2d 81bd e311 43be
000002b0: 84d7 cabd eda6 363d 0881 073d a2b8 193e
000002c0: e324 f9bd 4998 c23d dd8e a2bd 40fe 56be
000002d0: b423 96be 7ee6 bf3d 13d6 febd 68a2 79bb
000002e0: a287 433e e163 09be c194 cf3d a593 09be
000002f0: ab64 933d cf82 79be b48b 103e c85a d0bd
00000300: c8fe 5ebe 34bc 5c3e 8a95 9b3d 2dd6 023e
00000310: 867f 9ebd 9b2a 993d bf18 ab3c b187 e7bd
00000320: de83 0e3e 24da 05bd 3ec9 f8bc 0905 4e3e
00000330: 89f5 443e 0d69 45be 0086 f13a a3f2 b6bc
00000340: 1a46 a2bd 3976 15bd c08d 77be a95b 173e
00000350: 0bb5 0d3e cc3a 45bd 22c6 4e3e 65f3 0bbe
00000360: 6dbf 083d e6c7 ddbd 7953 31be b318 90be
00000370: f98a 613c 2ded 933d 2dc2 5d3e 71dd b73d
00000380: 85d5 5b3d 9bc8 2e3b 3596 2b3e 5fd2 80be
00000390: 8902 a6bb de89 44bd 11bc 9ebd e5ff 1fbe
000003a0: ff37 113e fd18 17be 096b 65bd 986c 8c3e
000003b0: 0540 4b3e d1b5 99be 84b6 bd3d cf0d 85be
000003c0: eb6f 7abe af3b bd3d d31f 0e3e d3f6 afbc
000003d0: ff5b 453d cafe fa3d d0f9 2abd aac7 42be
000003e0: a5ff 053e b007 99bd 088f de3c 722e a03d
000003f0: eb04 0c3e e3aa af3c fac4 4a3d c5be bc3d
0.09583563 0.056582734 0.13711768 -0.15033859 -0.031946506 -0.1410919 0.15096547 0.16459951
0.00065450487 0.20005074 -0.051709957 -0.24429688 0.041603886 0.12529436 -0.27665353 -0.15717794
0.07869315 -0.0678319 0.092982374 0.14322251 0.15071912 -0.36945125 -0.09062936 -0.14415288
0.002002924 0.022470249 -0.1667882 -0.057567723 -0.05461799 -0.084090196 -0.112515226 0.08996313
0.15889546 0.13066772 -0.07552471 0.17403476 0.049617734 -0.052267667 0.16041028 0.22617589
-0.16555065 -0.11119861 -0.085524835 0.054656405 -0.068736345 0.20503233 0.024145223 0.09670025
-0.11289664 0.038062915 -0.18949956 0.12858714 0.2518229 0.09255978 -0.20203552 -0.13569267
0.18582469 0.104175664 0.050226666 0.08712378 0.082624 -0.16151081 0.16799653 0.08988113
0.21365488 0.09158953 0.20323549 0.041357283 0.20360886 -0.049143992 0.15088038 0.21061918
0.10578668 0.0955066 0.047934376 -0.010345176 0.07497505 -0.16769023 0.036998704 -0.13070907
0.10883469 -0.093172036 -0.23138562 0.03632066 -0.026909616 0.15523043 -0.10879807 -0.044543926
0.032599766 -0.19285841 0.012600782 -0.2164133 -0.2262185 -0.09839586 0.10190722 0.05252685
0.2266346 -0.048157733 0.058023877 -0.032500856 -0.14054576 0.14426598 -0.009085623 0.18279855
0.12150063 0.016631817 0.14402142 0.13764754 -0.117186725 0.032585748 -0.028035251 -0.09532397
-0.10445204 -0.035475682 0.09886674 0.15121678 -0.18410534 -0.0736209 -0.20312162 0.016320158
0.17663029 0.14456302 0.10471192 0.060198773 -0.15187167 0.099178836 -0.18886375 0.04548338
-0.011881986 -0.009467426 -0.04626267 -0.14632069 0.14739224 0.18576571 -0.0078180395 -0.14059712
-0.14963293 0.14653194 -0.18608238 -0.049100995 0.10303828 -0.057549957 -0.054281857 -0.12571004
0.12022879 0.0213623 0.039946686 0.13451391 0.12524281 0.0064988295 -0.18665613 0.01965478
0.020622842 0.07196753 0.048761602 -0.105364025 0.017327465 -0.016772743 0.016429666 0.11235534
0.1203106 0.13395886 -0.11080978 0.21414597 -0.07287504 -0.1566194 -0.13680762 0.07353029
-0.15567738 0.118172415 -0.063075535 -0.19049792 -0.099043876 0.044592787 0.03308204 0.15011838
-0.12165239 0.09501702 -0.07937405 -0.20995426 -0.29324114 0.09370135 -0.12443175 -0.0038091186
0.19094709 -0.13417007 0.101357944 -0.13435228 0.07196935 -0.24366306 0.14115793 -0.10173565
-0.21776879 0.21556169 0.07596882 0.12777014 -0.07739167 0.074788295 0.020885823 -0.11305178
0.13917491 -0.03267874 -0.030369397 0.20119108 0.19234289 -0.19278355 0.0018426776 -0.022332495
-0.07923527 -0.0364897 -0.24175167 0.1478106 0.13838594 -0.048151776 0.20192769 -0.13667066
0.033385683 -0.10829143 -0.17316999 -0.28143844 0.013766044 0.07222972 0.21656103 0.089777835
0.053670425 0.0026669863 0.16756518 -0.251605 -0.00506622 -0.047983043 -0.077507146 -0.1562496
0.14181517 -0.14755626 -0.05601028 0.274266 0.1984864 -0.30021527 0.09263328 -0.25987098
-0.24456756 0.09239899 0.13879327 -0.02148 0.048183437 0.122556284 -0.041742146 -0.19021478
0.13085802 -0.074721694 0.027167812 0.07821359 0.13673751 0.02144379 0.049504258 0.09216074

fc2.bias f4 [24]
00000000: e9f5 5a3d 7b9a 3e3e f9a5 89bd 5a10 763d
00000010: 3b3b 1c3e 3693 e3bb 5b62 60bd 6751 27be
00000020: 21e8 8cbd 63f7 b13d 4b20 70be e8a9 c33d
00000030: 06aa d7bd d1ed 10be 69e0 1abe a35d abbd
00000040: d68f 423e d80d 133b 14dd a7bd 4be9 683e
00000050: 90e7 24bd c3c8 01be 9335 923d fb63 d53d
0.053457174 0.18613617 -0.0672111 0.060074188 0.1525697 -0.006945039 -0.0547813 -0.16339646
-0.068802126 0.086897634 -0.23449819 0.095538914 -0.10530476 -0.1415322 -0.15124668 -0.08367469
0.19000182 0.0022438671 -0.08196464 0.22745244 -0.040259898 -0.12674241 0.07139125 0.104194604

fc3.weight f4 [1, 24]
00000000: 0e9c 2a3e b89c f5bc ad0c 3e3e 6dca 5fbd
00000010: ff4e 25be a2ba 06be 5dc1 263c 55a5 323e
00000020: bb61 033d e05d e93d 75ae 3b3e 5704 85bd
00000030: 57ba 26be 81d8 57be f3f9 5f3c 4d87 aebd
00000040: fba1 3bbd c829 f8bd 1f13 6c3e 4765 43bd
00000050: 7b9a a2bd 8c8d 6fbd 95e8 bbba 3551 c1bd
0.16661093 -0.029981956 0.18559523 -0.054636408 -0.16143416 -0.13157132 0.010177937 0.17445882
0.032075625 0.11394858 0.18328269 -0.064949684 -0.1628202 -0.21078683 0.013670432 -0.085219
-0.045808773 -0.12117344 0.23054169 -0.047704007 -0.07939621 -0.0584846 -0.0014336283 -0.09439317

exp_avg f4 [24, 40]
00000000: 9dd0 ebb7 db8b eeb7 cd0e eeb7 fe4c 17b8
00000010: c106 1bb8 a810 16b8 18fc 12b8 088f 0fb8
00000020: a186 14b8 22c1 10b8 9bf4 0eb8 e5ae 17b8
00000030: fa9f 1cb8 678a 28b8 3f99 28b8 a3c7 14b8
00000040: 90dd 16b8 d3a7 42b8 fe0c 3ab8 efdc 3fb8
00000050: e2ec 91b8 2530 90b8 0653 69b8 f897 43b8
00000060: a58a 2db8 ff43 33b8 8dc9 2fb8 1cfe 24b8
00000070: 2267 45b8 bb1c 5fb8 b602 5eb8 6c88 75b8
00000080: 014c 87b8 b152 8eb8 8ea0 89b8 8989 87b8
00000090: a158 8cb8 670d 92b8 c4ae 97b8 660e 9cb8
000000a0: 6b14 0a3a cd73 083a 87c5 063a 8393 093a
000000b0: 3a0b 0a3a a7d1 083a c883 063a 070a 033a
000000c0: d66b 063a f5c8 053a 37f9 043a 6ec9 063a
000000d0: 00c4 073a 4b94 083a f1c0 043a 76e0 fa39
000000e0: b103 f239 478a 053a bf85 053a 3d5b 043a
000000f0: c23d 093a 852a 0b3a eb37 083a 2cc6 063a
00000100: 0c27 063a 249a 063a 4b8f 063a 7f38 063a
00000110: 891c 073a 0b9e 073a 2854 073a 11e1 073a
00000120: b173 083a c7a0 083a c701 083a d0b3 073a
00000130: 2c13 083a 1e7a 083a c80c 093a de81 093a
00000140: 5537 b5b9 1eaa b3b9 09bd b1b9 f044 b8b9
00000150: 09da b8b9 b5c1 b6b9 9c79 b1b9 be93 aab9
00000160: 5468 afb9 21c0 a9b9 bfcc a3b9 041e b0b9
00000170: b1de b0b9 7ac3 afb9 1e2e a6b9 eca6 99b9
00000180: 007b 94b9 24f7 a2b9 0bff a2b9 74aa a1b9
00000190: d214 acb9 32d7 b0b9 9b59 adb9 8883 aab9
000001a0: d981 a8b9 11df a7b9 a8e5 a6b9 c8ce a5b9
000001b0: 3c58 a6b9 3faa a6b9 2818 a6b9 e7a8 a6b9
000001c0: 7168 a7b9 c19b a7b9 2ec1 a6b9 1e66 a6b9
000001d0: de27 a7b9 7df6 a7b9 a0d5 a8b9 8172 a9b9
000001e0: 4762 90b9 fb7d 8fb9 ffc0 8db9 58d4 97b9
000001f0: 3d41 98b9 ba94 95b9 9d59 8db9 3f00 83b9
00000200: ffe9 88b9 4218 7ab9 9144 64b9 6c0d 8cb9
00000210: 9f8f 8cb9 c209 89b9 5b05 73b9 b9e8 49b9
00000220: 8287 3eb9 cdc1 6db9 7010 6eb9 2c27 6bb9
00000230: f255 77b9 fabb 84b9 4757 82b9 417c 7eb9
00000240: a02d 79b9 c59e 75b9 bc3c 72b9 0a3c 6fb9
00000250: 91ef 6eb9 b0e1 6eb9 5481 6db9 4d11 6eb9
00000260: 402f 6fb9 003e 6fb9 ea64 6db9 8ac7 6cb9
00000270: 1c93 6eb9 680b 70b9 3483 71b9 c077 72b9
00000280: 09df ab37 439c ac37 62c2 a537 31fe c937
00000290: 53c7 c237 fca0 a537 2299 8d37 63ff 8437
000002a0: aab7 9137 66c5 8137 6d5f 5337 2453 7c37
000002b0: d05b 7f37 0948 8137 2686 5b37 c9c0 2637
000002c0: cc8f 1f37 d0fa 5c37 206d 6637 7b1b 5137
000002d0: b62b a038 e8a6 9c38 7cad 8938 a3d8 7838
000002e0: b8ac 6538 6c2f 5838 c407 4d38 12de 4338
000002f0: 83f5 3d38 ac45 3938 e73c 3538 87d7 3338
00000300: 53e8 3338 2102 3338 892f 3038 8745 2e38
00000310: 973f 2e38 799e 2e38 a4e9 2e38 9219 2f38
00000320: b024 d537 a3e0 d137 abb9 cb37 6e6a e537
00000330: 2aca e537 ce7a d837 528a ba37 3c0e 9c37
00000340: b57f bf37 0c2c bc37 d0b9 b537 36ed b637
00000350: 693d bd37 6e58 be37 e8df a437 ab06 6e37
00000360: 196e 2037 e896 b537 a7f3 bb37 2330 b237
00000370: 2dd2 1138 4f9f 1938 ecd8 0f38 2157 0938
00000380: 07db 0438 dfb3 0238 912c 0038 76ae fb37
00000390: 9be9 fa37 65f0 f937 25a5 f737 d71a f937
000003a0: 7a5d fb37 31f3 fb37 c123 fa37 edc8 f937
000003b0: 8ec8 fc37 0a83 fe37 3e0c 0038 679b 0038
000003c0: a41d d237 8cde ee37 0390 eb37 0d34 5438
000003d0: 454b 4e38 a97d 3638 81ea ea37 e22c 1737
000003e0: 7849 a937 f8dc a0b6 06a1 d9b7 fa9b f237
000003f0: 87c5 0038 50af bb37 e3e4 18b7 82e0 4eb8
-2.8111326e-05 -2.8436936e-05 -2.8378703e-05 -3.607291e-05 -3.696117e-05 -3.57783e-05 -3.5043893e-05 -3.4227065e-05
-3.5411333e-05 -3.4512144e-05 -3.4083245e-05 -3.616409e-05 -3.7342288e-05 -4.018322e-05 -4.0197043e-05 -3.5471876e-05
-3.5969133e-05 -4.6409503e-05 -4.4357956e-05 -4.574371e-05 -6.958262e-05 -6.875423e-05 -5.562885e-05 -4.6633155e-05
-4.1375537e-05 -4.2740252e-05 -4.191096e-05 -3.9337305e-05 -4.706451e-05 -5.31941e-05 -5.293145e-05 -5.8539605e-05
-6.4514585e-05 -6.78649e-05 -6.562575e-05 -6.4629196e-05 -6.6922286e-05 -6.964319e-05 -7.232794e-05 -7.4413416e-05
0.0005267325 0.0005205244 0.0005141128 0.0005248116 0.0005265955 0.0005219229 0.0005131331 0.00049987476
0.0005127763 0.00051034923 0.00050725363 0.00051417097 0.00051790476 0.00052100857 0.0005064151 0.00047850952
0.00046160587 0.00050941523 0.0005093477 0.0005048996 0.0005235338 0.0005308765 0.00051963207 0.0005141224
0.0005117513 0.0005134663 0.00051330467 0.0005120113 0.00051540934 0.00051733915 0.00051623816 0.0005183379
0.00052052276 0.0005211946 0.0005188253 0.00051766355 0.0005190845 0.0005206185 0.000522804 0.0005245487
-0.00034564236 -0.00034268288 -0.00033900913 -0.00035146577 -0.00035257664 -0.00034858068 -0.00033850677 -0.00032535003
-0.00033456332 -0.0003237734 -0.0003124233 -0.000335917 -0.00033735254 -0.00033524242 -0.00031696347 -0.000293068
-0.00028320402 -0.00031083182 -0.0003108907 -0.0003083531 -0.0003282191 -0.0003372967 -0.00033063893 -0.00032522925
-0.000321402 -0.0003201892 -0.00031833095 -0.00031625316 -0.00031727727 -0.0003178883 -0.00031679985 -0.0003178783
-0.00031930537 -0.00031968768 -0.00031805917 -0.0003173807 -0.00031882426 -0.0003203637 -0.0003220262 -0.00032319504
-0.00027539043 -0.00027368948 -0.0002703741 -0.00028959173 -0.00029040306 -0.00028530305 -0.00026960383 -0.0002498645
-0.00026114282 -0.00023850895 -0.00021769317 -0.0002671288 -0.00026809887 -0.00026137946 -0.00023176281 -0.0001925555
-0.00018170293 -0.00022674278 -0.00022703572 -0.00022425939 -0.00023587773 -0.00025317055 -0.0002486056 -0.00024269616
-0.00023763487 -0.00023424167 -0.00023101544 -0.00022815182 -0.00022786694 -0.00022781524 -0.0002265026 -0.00022703894
-0.00022810418 -0.00022815913 -0.00022639675 -0.00022581048 -0.00022752251 -0.00022892433 -0.00023032428 -0.00023123529
2.0488647e-05 2.0576763e-05 1.976005e-05 2.4079434e-05 2.321942e-05 1.9744497e-05 1.6879818e-05 1.585455e-05
1.7370872e-05 1.546992e-05 1.2598798e-05 1.5039728e-05 1.5220561e-05 1.5411542e-05 1.3084651e-05 9.939257e-06
9.510619e-06 1.3171419e-05 1.3734476e-05 1.2463769e-05 7.637536e-05 7.4697484e-05 6.564983e-05 5.9329566e-05
5.475871e-05 5.1542578e-05 4.888304e-05 4.6698442e-05 4.5289762e-05 4.4172324e-05 4.3210483e-05 4.287765e-05
4.2893294e-05 4.267891e-05 4.200594e-05 4.1549585e-05 4.1544055e-05 4.1632422e-05 4.1702428e-05 4.1747066e-05
2.5408663e-05 2.5019346e-05 2.4285944e-05 2.7348487e-05 2.7393067e-05 2.5806392e-05 2.2237338e-05 1.8603278e-05
2.2828443e-05 2.2431857e-05 2.1663407e-05 2.180655e-05 2.2559152e-05 2.2690943e-05 1.9654588e-05 1.4187458e-05
9.562377e-06 2.1647153e-05 2.2405597e-05 2.1241669e-05 3.4766435e-05 3.662641e-05 3.429588e-05 3.274449e-05
3.1675238e-05 3.1161933e-05 3.0559084e-05 3.0002771e-05 2.9911103e-05 2.9795056e-05 2.9521596e-05 2.9695611e-05
2.996506e-05 3.0034777e-05 2.9818972e-05 2.9776676e-05 3.0134132e-05 3.034018e-05 3.052898e-05 3.0662308e-05
2.5047753e-05 2.8475442e-05 2.8081244e-05 5.0593215e-05 4.9184328e-05 4.350921e-05 2.8004173e-05 9.0107515e-06
2.0180581e-05 -4.7940957e-06 -2.5943398e-05 2.892128e-05 3.070154e-05 2.2373773e-05 -9.113198e-06 -4.9323316e-05

exp_avg_sq f4 [24, 40]
00000000: 8f94 5333 6f8b 4f33 6cf0 4e33 1e23 4f33
00000010: fe21 4f33 9d12 4f33 d953 4f33 f457 4e33
00000020: 2509 4d33 d363 4a33 ba61 4833 2245 4533
00000030: 3425 4133 5fee 3d33 69eb 3933 61b4 3333
00000040: 4e3f 2d33 05e8 2433 b1cf 1e33 6296 1533
00000050: 195f 4334 7c7b 4534 9425 4234 6027 3e34
00000060: 7035 3a34 51c5 3634 466e 3334 b4f9 2f34
00000070: d1c0 2d34 f17f 2b34 1aaf 2834 e177 2734
00000080: 8c3e 2734 866d 2734 8386 2734 2129 2834
00000090: a1c5 2834 3068 2934 f735 2a34 a9f1 2a34
000000a0: 3cbe 0a36 af07 0c36 7d8f 0c36 63ef 0c36
000000b0: fe9a 0d36 fafb 0d36 bce7 0e36 85f9 0e36
000000c0: 0cc7 0e36 1f8d 0f36 b5b5 0f36 34b7 0f36
000000d0: d635 1036 a9e7 1036 dfd3 1136 7556 1236
000000e0: 605c 1436 4cbe 1436 9fd5 1536 3edb 1636
000000f0: 8d22 3436 1b58 3536 fa3d 3536 dff5 3436
00000100: 4598 3436 9734 3436 28b4 3336 5d1f 3336
00000110: cfa9 3236 6a13 3236 ae43 3136 aa87 3036
00000120: 15d7 2f36 0e1f 2f36 4f3b 2e36 e175 2d36
00000130: 18b4 2c36 cfef 2b36 c72a 2b36 b444 2a36
00000140: b8b2 b135 5193 b335 d53b b435 0585 b435
00000150: 70d8 b535 8eb2 b635 010c b835 9bbe b835
00000160: 3212 b835 3784 b835 33bf ba35 f68f bb35
00000170: f57e bd35 7cd0 bf35 903e c035 bf3a c135
00000180: 4888 c335 f3eb c335 88ea c435 a1c4 c535
00000190: 737f 0f36 f136 1136 4493 1136 f7bf 1136
000001a0: aac8 1136 edc7 1136 00b8 1136 3f8d 1136
000001b0: 7579 1136 1551 1136 82e9 1036 7f86 1036
000001c0: a924 1036 a4ad 0f36 7212 0f36 ca81 0e36
000001d0: 62e7 0d36 9042 0d36 169e 0c36 4ee4 0b36
000001e0: 8240 3835 b39f 3a35 d731 3b35 541b 3c35
000001f0: b39f 3f35 441f 4235 cfc8 4335 99cb 4635
00000200: e2db 4535 5678 4435 0246 4735 f9e9 4835
00000210: 36e0 4c35 e84a 5235 75c9 5035 2ca1 5235
00000220: b26b 5735 e4bf 5835 fd55 5c35 7b17 5f35
00000230: 13bb e235 06e1 e635 28c8 e835 823e ea35
00000240: 8a6f eb35 1a81 ec35 fb71 ed35 c234 ee35
00000250: 3f0e ef35 71c9 ef35 380e f035 f341 f035
00000260: ca67 f035 0262 f035 b02f f035 f712 f035
00000270: 48e1 ef35 2ea6 ef35 505b ef35 14e3 ee35
00000280: d280 8a32 313f 8432 4997 8232 5f3c 8432
00000290: 7bd8 8632 7fa3 8a32 4250 8d32 2743 9032
000002a0: f483 9432 8455 9832 5e1a 9c32 5eaa a132
000002b0: a15a a632 536c ad32 ae39 b132 4267 b232
000002c0: 3286 b532 8c4e b632 7589 b732 32f4 b832
000002d0: 988e 6034 8617 6334 e968 6334 bd9f 6334
000002e0: 76c6 6334 e9f1 6334 3e1f 6434 ac4d 6434
000002f0: 9c7e 6434 599c 6434 a29d 6434 1aa7 6434
00000300: e4b1 6434 3da0 6434 d765 6434 6929 6434
00000310: 30f1 6334 0f9a 6334 bb1a 6334 ec7c 6234
00000320: 1f0c c032 a969 c032 b6e8 bf32 6a90 c032
00000330: e748 c432 8ac2 c532 a724 ca32 64b2 c832
00000340: fe89 c632 1155 ca32 fed2 cd32 0022 d132
00000350: ffdf d332 fe29 d832 2909 dc32 6143 dc32
00000360: 8780 e032 4776 de32 f86c e032 1d47 e132
00000370: 8c68 b233 e556 b433 f97d b433 5f7c b433
00000380: 7d76 b433 2580 b433 5689 b433 5b92 b433
00000390: a5ae b433 70b8 b433 d999 b433 9f7f b433
000003a0: 9a6f b433 3558 b433 a32c b433 dafd b333
000003b0: 17d5 b333 8c9e b333 0358 b333 5f02 b333
000003c0: ae03 c133 d1fa ab33 4bb1 a933 f8c1 a933
000003d0: 59a4 b733 8724 bf33 ef55 b833 6749 bd33
000003e0: be17 c533 d5a7 b633 cb84 8c33 6f8d 8d33
000003f0: a513 9d33 10dd af33 09a4 ac33 07f1 b033
4.926238e-08 4.8322757e-08 4.8181775e-08 4.8227882e-08 4.822686e-08 4.8212872e-08 4.8272202e-08 4.8043105e-08
4.77386e-08 4.712258e-08 4.665501e-08 4.5930513e-08 4.497015e-08 4.422179e-08 4.3287773e-08 4.184074e-08
4.0337277e-08 3.8395246e-08 3.6976136e-08 3.482854e-08 1.8195387e-07 1.8391978e-07 1.8081329e-07 1.7709453e-07
1.734204e-07 1.7021854e-07 1.6710791e-07 1.6388987e-07 1.6182027e-07 1.5972161e-07 1.5709921e-07 1.5596699e-07
1.5575841e-07 1.5592931e-07 1.5602022e-07 1.5661182e-07 1.5718116e-07 1.5777255e-07 1.5852116e-07 1.5920399e-07
2.0674333e-06 2.0866098e-06 2.0945147e-06 2.1000967e-06 2.1100855e-06 2.1157307e-06 2.1294536e-06 2.1304888e-06
2.127551e-06 2.1390804e-06 2.1414428e-06 2.1415299e-06 2.1489009e-06 2.1592516e-06 2.173001e-06 2.180602e-06
2.2107488e-06 2.2164486e-06 2.2327074e-06 2.2479358e-06 2.6842201e-06 2.7022386e-06 2.7007177e-06 2.6965206e-06
2.6910723e-06 2.6852701e-06 2.6777943e-06 2.6691334e-06 2.6622909e-06 2.6535367e-06 2.641445e-06 2.630501e-06
2.6202226e-06 2.6095108e-06 2.5962543e-06 2.5847623e-06 2.5734826e-06 2.5620573e-06 2.5505885e-06 2.5371965e-06
1.3239542e-06 1.3379414e-06 1.3428458e-06 1.3449759e-06 1.3548542e-06 1.3612023e-06 1.3712562e-06 1.3764542e-06
1.3714364e-06 1.3747548e-06 1.3913726e-06 1.3974484e-06 1.4118547e-06 1.4291286e-06 1.4323323e-06 1.4396718e-06
1.4568295e-06 1.4597302e-06 1.4671396e-06 1.473487e-06 2.1382846e-06 2.1638664e-06 2.1692404e-06 2.1718422e-06
2.1723486e-06 2.1723056e-06 2.1713786e-06 2.16889e-06 2.167738e-06 2.165388e-06 2.1593592e-06 2.153596e-06
2.1479011e-06 2.1409733e-06 2.1319397e-06 2.1235196e-06 2.114532e-06 2.1049382e-06 2.0953644e-06 2.0845505e-06
6.863921e-07 6.952279e-07 6.9735455e-07 7.0075225e-07 7.138544e-07 7.231613e-07 7.2935376e-07 7.405702e-07
7.370819e-07 7.31908e-07 7.423515e-07 7.484628e-07 7.632219e-07 7.83401e-07 7.7779197e-07 7.846563e-07
8.025046e-07 8.074551e-07 8.2081516e-07 8.310814e-07 1.6892758e-06 1.7201826e-06 1.73436e-06 1.7452551e-06
1.7541327e-06 1.7620944e-06 1.7691049e-06 1.7747736e-06 1.7811034e-06 1.7865515e-06 1.7885532e-06 1.7900587e-06
1.79116e-06 1.7909917e-06 1.7895272e-06 1.7886913e-06 1.7872453e-06 1.7855252e-06 1.7833463e-06 1.779847e-06
1.6123895e-08 1.5395559e-08 1.5202788e-08 1.5394276e-08 1.5698097e-08 1.6139664e-08 1.6451057e-08 1.6794344e-08
1.7289473e-08 1.7734017e-08 1.817278e-08 1.882034e-08 1.9366157e-08 2.018911e-08 2.0631742e-08 2.0768884e-08
2.1132198e-08 2.1223308e-08 2.1366512e-08 2.1531466e-08 2.0913501e-07 2.114958e-07 2.1179189e-07 2.1199135e-07
2.1213222e-07 2.1229029e-07 2.124552e-07 2.1262412e-07 2.1280215e-07 2.1291034e-07 2.1291501e-07 2.1294946e-07
2.1298871e-07 2.1292449e-07 2.1271204e-07 2.124922e-07 2.1228766e-07 2.1197069e-07 2.1150747e-07 2.1093336e-07
2.2357254e-08 2.239979e-08 2.2341151e-08 2.2417414e-08 2.2850555e-08 2.3022285e-08 2.3532563e-08 2.3364187e-08
2.3112985e-08 2.3554579e-08 2.396109e-08 2.4346264e-08 2.4665495e-08 2.5164805e-08 2.5615536e-08 2.5642011e-08
2.613548e-08 2.5897988e-08 2.6126585e-08 2.6225786e-08 8.307788e-08 8.397709e-08 8.4048175e-08 8.404526e-08
8.403456e-08 8.4052125e-08 8.4068844e-08 8.408525e-08 8.413671e-08 8.415452e-08 8.409888e-08 8.405117e-08
8.4022034e-08 8.397948e-08 8.3900225e-08 8.3815124e-08 8.374098e-08 8.3641766e-08 8.351346e-08 8.335768e-08
8.987932e-08 8.008431e-08 7.901925e-08 7.9049585e-08 8.551496e-08 8.900775e-08 8.583799e-08 8.81435e-08
9.177846e-08 8.505564e-08 6.543413e-08 6.591551e-08 7.3144555e-08 8.1892836e-08 8.039212e-08 8.239481e-08

exp_avg f4 [24]
00000000: c33c d138 107a 39ba 4210 ba39 a3b1 8a39
00000010: 662a 2538 8a5c 15b8 953f e1b6 3ed5 cdb8
00000020: dcc6 dc38 e321 83b9 871f 5dba 792c 4d38
00000030: 96e8 82b8 ece0 ef39 f4e9 6839 d107 89b9
00000040: d392 a1ba 788f b7b8 5bd5 adb9 3709 d0b9
00000050: 32fb 21ba 7787 6a38 5c13 57ba 0b45 c5b7
9.977214e-05 -0.00070753787 0.00035488798 0.0002645376 3.9378552e-05 -3.5610552e-05 -6.7129245e-06 -9.814881e-05
0.00010527458 -0.00025011515 -0.0008435179 4.8917227e-05 -6.2422056e-05 0.00045753212 0.00022212398 -0.000261365
-0.0012327082 -8.752843e-05 -0.00033156094 -0.00039679717 -0.00061790936 5.591611e-05 -0.0008204484 -2.351638e-05

exp_avg_sq f4 [24]
00000000: 3dc3 1535 17ca af36 f341 5e36 bb60 2d36
00000010: 84ac ca34 7d3d 2234 2874 9135 3760 d234
00000020: 937a 4835 b5f2 8e35 671a 3b37 a808 9135
00000030: b933 4b35 91c2 7c36 6227 bd35 b7d0 4835
00000040: adb6 8a37 abb6 c034 f2bf 8c36 f9d8 6e36
00000050: 2994 8a37 29dd 3e36 f359 1337 d397 9b34
5.5790935e-07 5.2389328e-06 3.3118965e-06 2.5835313e-06 3.7750954e-07 1.5109795e-07 1.0837148e-06 3.9185554e-07
7.4684175e-07 1.0650461e-06 1.1152216e-05 1.0805861e-06 7.569866e-07 3.7664179e-06 1.4093059e-06 7.4809526e-07
1.6535947e-05 3.5895695e-07 4.1946705e-06 3.5591058e-06 1.6519874e-05 2.8440938e-06 8.782826e-06 2.8981466e-07

exp_avg f4 [24, 24]
00000000: bbf5 223a 377a 8539 7635 72b9 ba3b 96b9
00000010: a37c 34ba c2fc 1cba ccc6 233a 9d7c 0138
00000020: 785f cbb8 685f 1639 d45e 8f39 417e 8db6
00000030: 996c 7038 678d 93b9 ddcf 81b9 6ccc 8039
00000040: b285 8439 325b cf38 b6d1 9839 45c6 7c39
00000050: f022 a539 1ea5 29ba bfc7 9239 1a1a 8538
00000060: 04c4 6cb9 3cc6 dbb8 296c b638 cb63 d138
00000070: 4ed2 7239 b8b8 5439 2b24 64b9 1856 34b7
00000080: 5fcb 0a38 d8bb 80b8 e657 dbb8 f355 4136
00000090: 73c2 bfb7 e76d e438 7fae c038 10ea c4b8
000000a0: 2c4e d9b8 9053 17b8 2cdd d9b8 38d2 b3b8
000000b0: 0169 e9b8 56f9 7039 6a27 e5b8 fef2 e2b7
000000c0: 6eac c53a 6ad9 363a 4f7d 17ba 4db6 2dba
000000d0: 852c c9ba 56bc b0ba fbc6 bf3a 3c08 8738
000000e0: cbb0 6eb9 58a9 d939 ae8a 363a 169d c5b7
000000f0: 7608 1b39 160f 3fba f9a2 20ba 0684 233a
00000100: 8060 373a c5a0 8039 a24a 353a f885 173a
00000110: f8c5 423a 3fa3 cbba ea9a 3f3a 99b6 4a39
00000120: ccda e7b9 0036 54b9 b173 3139 88e0 4f39
00000130: d391 f139 b7f2 d339 3453 e3b9 f435 a2b7
00000140: 2f0d 8c38 3e54 fab8 260b 57b9 2075 ed36
00000150: c55a 34b8 62b3 5f39 bacf 3e39 4b68 3fb9
00000160: c8d0 52b9 3d15 96b8 52ce 56b9 193b 33b9
00000170: 8999 67b9 ce34 f039 275c 60b9 f257 65b8
00000180: 984e a7ba d16c 17ba 7567 fe39 4ae3 163a
00000190: 5457 af3a 2b8a 9a3a 2c41 a5ba 17bf 59b8
000001a0: c5fe 4939 1ad6 b2b9 06af 1aba acd5 9e37
000001b0: 3819 02b9 090b 213a c974 093a 8332 09ba
000001c0: 8b77 16ba 5f26 59b9 4328 1bba e17e 01ba
000001d0: 72c3 27ba 5c0e ae3a 6f5f 21ba d47b 27b9
000001e0: e3e8 85ba b403 f2b9 5888 cc39 2ac7 f039
000001f0: a01f 8c3a 378b 743a 5992 83ba ec8b 39b8
00000200: 05f9 2539 9ac5 8eb9 b8f5 f5b9 1723 9437
00000210: b2ae c7b8 c62f 003a 0e06 dc39 2d18 dbb9
00000220: 5673 f1b9 2ca2 2eb9 88b9 f8b9 bd76 d0b9
00000230: d016 06ba bd72 8b3a 2c6e 00ba cee0 02b9
00000240: c31e b538 9bc8 2938 b764 0cb8 5f77 1fb8
00000250: 0ae2 b9b8 e6dd a2b8 a677 b038 5213 8a36
00000260: 9abb 5cb7 08a0 ca37 32b3 2838 1a82 d1b5
00000270: 419f 0e37 ea51 30b8 bf55 15b8 e747 1738
00000280: e48d 2938 96c0 6b37 f78b 2638 0c23 0c38
00000290: 1fe8 3238 a03a bbb8 0b0a 3138 104f 3b37
000002a0: f126 883a c727 f939 6609 d1b9 2257 f3b9
000002b0: cbfb 8dba 3f2c 7aba 1877 843a aadf 5a38
000002c0: 07e1 1db9 9946 9039 a8af fd39 a204 45b7
000002d0: f4f0 de38 83d4 02ba 4076 ddb9 608e e339
000002e0: 354f f639 9110 2b39 aff5 fb39 2bc8 ce39
000002f0: a04d 073a 3674 8aba 1957 033a 7292 ff38
00000300: 866a 8839 0640 fa38 a01a d1b8 ac8e f5b8
00000310: 1c90 8eb9 e94e 7ab9 e737 8639 1d61 3e37
00000320: 1e5b 25b8 56b4 9338 7c76 fe38 1af0 95b6
00000330: d4f9 d237 f81f 04b9 77b1 e1b8 deef e138
00000340: dd04 f938 2431 3038 9781 fd38 fccf d338
00000350: fedc 0839 acd0 8db9 819b 0439 7693 0738
00000360: 73e3 003a 51ad 4b39 3e51 3bb9 2145 6cb9
00000370: 52ae 0bba b3e0 f6b9 1729 013a d35d 9737
00000380: 6562 a1b8 27c2 e838 0479 5a39 4007 aeb3
00000390: c062 4038 420f 65b9 9241 47b9 f678 4439
000003a0: 8506 4b39 4bcb aa38 2570 6e39 b818 4539
000003b0: 112b 8139 9026 05ba 4307 6339 0caa 6638
000003c0: 8d7e bd3a c86d 2b3a e372 10ba 4b73 2aba
000003d0: 651a c6ba d32f aeba 73d1 ba3a 7b79 7e38
000003e0: 541b 68b9 72e5 ca39 706a 2e3a 3cf7 bfb7
000003f0: 2eef 1039 15f5 35ba 2694 1bba 081d 1b3a
0.0006216426 0.00025458794 -0.00023098834 -0.0002865473 -0.00068850274 -0.00059885916 0.00062475796 3.0872052e-05
-9.697577e-05 0.00014340656 0.00027345738 -4.2168253e-06 5.73216e-05 -0.00028143378 -0.00024759668 0.0002456637
0.00025276613 9.8875156e-05 0.00029147946 0.00024106454 0.00031497283 -0.0006471443 0.00027996112 6.346796e-05
-0.00022579735 -0.00010479658 8.698583e-05 9.9844845e-05 0.00023157263 0.00020286709 -0.00021757248 -1.0748881e-05
3.3091168e-05 -6.138504e-05 -0.00010459106 2.880927e-06 -2.2859522e-05 0.00010892358 9.187776e-05 -9.389606e-05
-0.00010361927 -3.607903e-05 -0.00010388563 -8.5745414e-05 -0.00011129864 0.00022981068 -0.000109269124 -2.7054451e-05
0.0015081295 0.0006975146 -0.00057788653 -0.0006626591 -0.0015348351 -0.0013483863 0.0014631444 6.4388354e-05
-0.00022763309 0.00041515636 0.0006963414 -2.3557379e-05 0.00014785104 -0.000728832 -0.00061278004 0.00062376296
0.00069952756 0.00024533845 0.0006915723 0.0005780156 0.00074300123 -0.0015536322 0.0007309156 0.00019332244
-0.0004422277 -0.00020238012 0.00016923134 0.00019824703 0.0004607575 0.00040425893 -0.00043358805 -1.9337029e-05
6.678176e-05 -0.0001193662 -0.00020508151 7.0767856e-06 -4.299988e-05 0.00021333763 0.00018197196 -0.00018254032
-0.00020104938 -7.156513e-05 -0.0002048549 -0.00017092786 -0.00022087073 0.0004581571 -0.00021396634 -5.467976e-05
-0.0012764512 -0.0005776408 0.00048523737 0.00057559146 0.0013377466 0.0011790445 -0.0012607924 -5.1914798e-05
0.00019263763 -0.00034110324 -0.00059007143 1.8934566e-05 -0.00012407161 0.0006143307 0.00052435376 -0.0005233662
-0.0005739859 -0.00020709027 -0.000591878 -0.0004939866 -0.0006399668 0.0013279426 -0.00061558833 -0.0001597249
-0.00102165 -0.00046160596 0.00039011496 0.00045924756 0.0010690577 0.0009328606 -0.0010038122 -4.423775e-05
0.00015828393 -0.00027231575 -0.00046913116 1.7659315e-05 -9.521599e-05 0.00048899313 0.0004196618 -0.00041788947
-0.00046053034 -0.00016654347 -0.00047440478 -0.00039761318 -0.00051150937 0.0010639053 -0.00048992294 -0.00012481512
8.6364824e-05 4.047957e-05 -3.34724e-05 -3.8019727e-05 -8.8635905e-05 -7.766094e-05 8.41462e-05 4.1149697e-06
-1.3156701e-05 2.4154797e-05 4.022121e-05 -1.5609578e-06 8.500939e-06 -4.203796e-05 -3.5604226e-05 3.606817e-05
4.0424886e-05 1.4051931e-05 3.9707837e-05 3.341124e-05 4.2654687e-05 -8.9277746e-05 4.220944e-05 1.1164477e-05
0.0010387582 0.00047522617 -0.0003987059 -0.0004641349 -0.0010832486 -0.00095433363 0.0010106293 5.2183554e-05
-0.00015056516 0.0002751842 0.00048386795 -1.1743194e-05 0.00010630666 -0.0004990773 -0.00042240508 0.00043402892
0.0004697979 0.00016314002 0.000480575 0.0003944052 0.00051614083 -0.0010563198 0.0005010232 0.00012186625
0.00026019308 0.00011932854 -9.970856e-05 -0.00011709085 -0.0002719172 -0.00023871254 0.00025600122 1.13474935e-05
-3.9423925e-05 7.0430964e-05 0.00012133733 -4.4684975e-06 2.5150286e-05 -0.0001260041 -0.000107618915 0.00010773515
0.00011874151 4.2007436e-05 0.00012088118 0.00010100004 0.00013052297 -0.00027049088 0.0001264643 3.2323842e-05
0.0004916705 0.00019424154 -0.00017863975 -0.00022532466 -0.0005328405 -0.0004708819 0.00049270823 1.8044293e-05
-7.695406e-05 0.00011098786 0.00020835182 -8.103825e-08 4.5868335e-05 -0.00021844826 -0.00019002546 0.00018737078
0.00019362017 8.144098e-05 0.00022739226 0.00018796592 0.00024636884 -0.00050792936 0.00021651112 5.499464e-05
0.0014457271 0.0006539491 -0.00055102835 -0.00065021653 -0.0015114067 -0.0013289399 0.0014253095 6.0671457e-05
-0.00022135425 0.00038699392 0.00066534337 -2.2884102e-05 0.00013822012 -0.0006941122 -0.00059348566 0.0005917107
