SourceCode/models/rnn/RNN_open_loop.pt (torch, 31647 bytes, 36 tensors)

weight_ih_l0 f4 [22, 2]
0	0xbe226dee	-0.15862247
1	0xbe2fc8ad	-0.17166395
2	0x3e09e6fb	0.13467018
3	0x3e185351	0.14875533
4	0xbe7cd5a1	-0.24690868
5	0x3dabb707	0.08384519
6	0x3dc32909	0.09529311
7	0x3e4e8975	0.20169623
8	0x3e3f74b5	0.18696864
9	0xbd83898e	-0.06422721
10	0x3d29dfd5	0.04147323
11	0x3eaf440d	0.34231606
12	0xbe1ab503	-0.15108113
13	0xbeab730b	-0.33486208
14	0x3c4ae812	0.012384431
15	0xbdf1ecaf	-0.11812722
16	0xbda354ae	-0.07975136
17	0xbc9dabf6	-0.019247036
18	0xbdcb34f0	-0.099222064
19	0x3de32a03	0.110919975
20	0x3e772199	0.2413391
21	0x3e702b12	0.2345393
22	0x3df7035d	0.12061188
23	0x3deffc3c	0.11718032
24	0xbb2bcc40	-0.0026214272
25	0x3e261b96	0.1622146
26	0xbe18f8e1	-0.1493869
27	0xbca8576d	-0.0205495
28	0x3d357b70	0.044307172
29	0x3dfc315c	0.12314102
30	0xbde41805	-0.11137394
31	0x3e56847f	0.20948981
32	0xbe4d35c9	-0.20040049
33	0xbe61a38c	-0.22035044
34	0x3e7fdd3e	0.24986741
35	0x3e50c00e	0.20385763
36	0x3e936e34	0.28795016
37	0x3ca8de9c	0.02061396
38	0x3e76e7b9	0.24111833
39	0x3e62b020	0.22137499
40	0x3d981e45	0.074276485
41	0xbeace74a	-0.3377021
42	0xbd53dd10	-0.051724494
43	0xbe4c5092	-0.1995261

weight_hh_l0 f4 [22, 22]
0	0x3d9c965d	0.07645867
1	0x3e1da113	0.15393476
2	0x3d809e90	0.062802434
3	0xbe12ed35	-0.143483
4	0x3e1246a0	0.14284754
5	0xbcd09900	-0.025463581
6	0x3d83177d	0.064009644
7	0xbe179cbd	-0.14805885
8	0xbd69dc47	-0.05709484
9	0x3d0d6038	0.03451559
10	0xbd1a7572	-0.03770966
11	0xbe2d8f00	-0.16949081
12	0xbde19403	-0.11014559
13	0x3dc0b45b	0.094094
14	0xbda4ccbb	-0.08046862
15	0xbde2587f	-0.110520355
16	0x3df8da20	0.12150979
17	0xbe5376b3	-0.20650749
18	0x3ea21242	0.31654555
19	0x3d0a20f0	0.033722818
20	0xbd0c47f9	-0.034248326
21	0x3db7b288	0.08969599
22	0x3dd31390	0.103064656
23	0xbe17661f	-0.1478505
24	0x3d0d05b6	0.034429274
25	0xbdb9baca	-0.0906883
26	0x3d0428ae	0.032265358
27	0xbe6530c4	-0.22381884
28	0x3c6065ea	0.013696173
29	0x3d9e254a	0.07721956
30	0xbe0b5d1c	-0.13609737
31	0x3d08ab58	0.03336653
32	0x3e0c1e5b	0.13683455
33	0x3e2c2d4c	0.16814154
34	0x3d382788	0.044959575
35	0xba756e4f	-0.00093624456
36	0xbd970b70	-0.073752284
37	0xbd6fa05e	-0.058502547
38	0xbe3fcd2d	-0.18730612
39	0x3ea19a47	0.31563017
40	0xbd5fbbcf	-0.054622468
41	0xbe1a316c	-0.15057915
42	0xbe132a7c	-0.14371675
43	0x3e0e372e	0.13888237
44	0x3dcb5fe5	0.099304
45	0x3e04cf59	0.12969722
46	0xbba45570	-0.0050150678
47	0x3e7d2362	0.24720529
48	0x3e168a6a	0.14701238
49	0x3e40ced5	0.188289
50	0x3d84e812	0.064895764
51	0xbd99362b	-0.07481035
52	0xbe52c0c4	-0.20581347
53	0xbd09076a	-0.033454336
54	0x3d769d54	0.060208634
55	0x3d643bd6	0.055721126
56	0xbe415fe2	-0.18884233
57	0x3d637666	0.055532835
58	0x3e06b994	0.1315673
59	0xbd71778c	-0.0589519
60	0x3e06279d	0.13101049
61	0x3dbfc6be	0.09364079
62	0x3e0adbe2	0.13560441
63	0x3dbdfe8b	0.09277066
64	0xbe28dbca	-0.16490093
65	0xbc9036a0	-0.017604172
66	0x3dbac330	0.0911926
67	0x3e9071b4	0.2821175
68	0x3c1eef01	0.009700538
69	0xbb5e4102	-0.003391326
70	0xbe3a4384	-0.18189818
71	0xbdbcd104	-0.09219554
72	0xbdef08ca	-0.11671598
73	0xbda89009	-0.082305975
74	0xbd2aabe4	-0.041667834
75	0xbcce8c0a	-0.02521326
76	0xbd876180	-0.066103935
77	0xbe56a049	-0.20959581
78	0xbdc58daa	-0.09646161
79	0x3e313a11	0.17307307
80	0x3d72633a	0.05917666
81	0xbe0c41ec	-0.13697022
82	0xbcc6d15a	-0.024269748
83	0x3e985068	0.29748845
84	0xbd7f749d	-0.06236707
85	0x3e3f6d36	0.18694004
86	0xbd87fb3c	-0.06639716
87	0x3d2f4748	0.04279259
88	0xbe5de2e9	-0.2166859
89	0x3e420aa0	0.18949366
90	0xbe2d909c	-0.16949695
91	0x3c48e977	0.012262694
92	0x3d3ee10d	0.046601344
93	0x3da95e97	0.08269995
94	0x3d2e8554	0.04260762
95	0x3d5d004b	0.053955358
96	0x3e29aa48	0.16568863
97	0xbd3a28a6	-0.04544892
98	0xbd73cfc2	-0.059524305
99	0xbe1992ed	-0.14997454
100	0xbe27f1d8	-0.1640085
101	0xbe326e1a	-0.17424813
102	0x3d76abf6	0.06022259
103	0x3e38025f	0.17969655
104	0xbe46f10c	-0.1942789
105	0x3f18fdf1	0.59762484
106	0xbe2f1fe8	-0.17102015
107	0x3c11ba76	0.008894553
108	0xbd11f555	-0.035634357
109	0xbe3b4387	-0.18287478
110	0xbdf5c52e	-0.120005
111	0x3e94f6ee	0.29094642
112	0xbe6d8014	-0.23193389
113	0xbd0e9118	-0.03480634
114	0xbdb632d8	-0.088964164
115	0x3e6db077	0.23211847
116	0xbe7e89bd	-0.2485723
117	0x3d7eb7ea	0.062187113
118	0xbdfe5d4a	-0.12420137
119	0x3dc71880	0.0972147
120	0x3d9570f1	0.072969325
121	0xbd9b1a93	-0.07573428
122	0x3df75aa4	0.12077835
123	0xbe25b38a	-0.1618177
124	0x3dee883a	0.11647077
125	0x3d95b322	0.073095575
126	0xbcf69b3f	-0.030103324
127	0x3ee55aeb	0.44795927
128	0x3e32144f	0.1739056
129	0xbd648a85	-0.055796165
130	0xbeb4b18b	-0.35291705
131	0xbdd32ec6	-0.10311656
132	0x3e4b1af6	0.19834504
133	0x3b9d86e0	0.004807338
134	0x3e1b8376	0.15186867
135	0xbc06ec74	-0.008235086
136	0xbe18bbdb	-0.14915411
137	0x3e90d5fa	0.2828825
138	0x3e0ab6f9	0.13546361
139	0x3c9d7a57	0.019223375
140	0x3d34772c	0.044058964
141	0xbdb58c67	-0.0886467
142	0xbe18d7c7	-0.14926063
143	0xbe3454e8	-0.17610514
144	0x3daa711c	0.08322355
145	0xbd03a99e	-0.03214418
146	0x3e9d8223	0.3076335
147	0x3e4a073a	0.19729319
148	0x3e616fbc	0.2201528
149	0xbe8570ec	-0.26062715
150	0x3d42ddc9	0.047574792
151	0xbd9c6004	-0.07635501
152	0xbdb6d526	-0.089273736
153	0x3e483f98	0.19555509
154	0x3be2256f	0.006901435
155	0x3d9595b6	0.07303946
156	0x3ea38b4b	0.3194221
157	0x3d58bb57	0.052913036
158	0x3d9dc897	0.07704275
159	0x3dc464a6	0.0958951
160	0xbd8a7c9c	-0.067620486
161	0xbe55f162	-0.20892861
162	0x3e18cbc1	0.14921476
163	0x3ccd4627	0.025057865
164	0x3cf003ed	0.029298747
165	0xbe302f5a	-0.17205563
166	0xbe4a381b	-0.19747965
167	0x3d0ee378	0.0348849
168	0x3e00e999	0.1258911
169	0x3d824b60	0.06362033
170	0xbdd09e48	-0.1018644
171	0x3e416ce3	0.18889193
172	0x3c0fab49	0.008768865
173	0x3c04d010	0.008106247
174	0xbe410d1c	-0.18852657
175	0x3d969560	0.0735271
176	0x3d79b0d8	0.060959667
177	0xbd63ab0c	-0.055583045
178	0x3dcc22b4	0.099675566
179	0x3e49b6aa	0.19698587
180	0xbd886936	-0.066606924
181	0xbdee9784	-0.11649993
182	0xbdc20917	-0.0947439
183	0xbe165808	-0.14682019
184	0x3df13f38	0.11779636
185	0xbd9bf340	-0.07614756
186	0x3c5f9290	0.013645783
187	0xbe3f0471	-0.18654038
188	0x3e136ee8	0.14397776
189	0xbc4f2a00	-0.012644291
190	0xbbf44cc0	-0.0074554384
191	0x3e187998	0.14890134
192	0xbe4c505c	-0.1995253
193	0xbd347ea0	-0.04406607
194	0xbd9ace0e	-0.07558833
195	0xbd719508	-0.058980018
196	0xbda21bb8	-0.07915443
197	0x3e22e12e	0.15906212
198	0x3e4a3a45	0.1974879
199	0xbe031e66	-0.12804565
200	0x3dff0bdc	0.12453434
201	0x3e2a1526	0.1660963
202	0xbe174b79	-0.14774884
203	0x3e39d7b5	0.18148692
204	0x3dfaffbb	0.12255808
205	0x3dc0b164	0.094088346
206	0x3d9468b1	0.07246531
207	0x3e1d07ff	0.15335082
208	0xbe662895	-0.22476418
209	0x3e54b39e	0.20771644
210	0xbe33df08	-0.17565548
211	0x3d9ac090	0.0755626
212	0xbda159af	-0.07878434
213	0x3b1362a8	0.0022489224
214	0x3d0eb096	0.034836374
215	0xbc8bcb4a	-0.01706471
216	0x3e4cebda	0.20011845
217	0xbc57cc3b	-0.013171251
218	0x3dc33afa	0.09532733
219	0xbd4565cc	-0.048192784
220	0xbb3a88e8	-0.002846295
221	0xbe204e3a	-0.15654841
222	0x3f2a896b	0.66615933
223	0x3d3d9061	0.04628027
224	0x3e2f8b07	0.17142878
225	0x3e08fd02	0.13377765
226	0xbe10222f	-0.1407554
227	0x3cb25986	0.021771204
228	0xbd9a805e	-0.07544015
229	0xbe01086b	-0.12600867
230	0x3e63cde3	0.22246508
231	0x3e1cf09b	0.15326159
232	0x3dd72f6c	0.10507092
233	0x3e33cc76	0.17558464
234	0xbde473ef	-0.11154925
235	0xbdf04e9a	-0.11733742
236	0xbd196f77	-0.037459817
237	0x3ef3d1ac	0.47620904
238	0xbd8484af	-0.0647062
239	0xbdd439fa	-0.10362621
240	0x3da7f1dc	0.08200428
241	0xbe3d1bf1	-0.1846769
242	0xbda12ba4	-0.07869652
243	0xbbde0a84	-0.006776156
244	0x3e518a31	0.20462872
245	0xbe283a64	-0.16428524
246	0x3c8395f0	0.016062707
247	0x3e1fe00b	0.1561281
248	0x3d9496dc	0.07255337
249	0xbd804035	-0.062622465
250	0x3e5569ba	0.20841113
251	0xbd9ddfee	-0.07708727
252	0x3cd3a1e3	0.02583403
253	0x3e355068	0.17706454
254	0xbe2b57e9	-0.16732754
255	0xbdbc61a3	-0.0919831

bias_ih_l0 f4 [22]
0	0x3d4e77cc	0.050407216
1	0x3c98ae0a	0.018637676
2	0xbdccf110	-0.100069165
3	0xbd17218c	-0.036897227
4	0xbd99fd38	-0.07519001
5	0x3e85a014	0.26098692
6	0x3a975c58	0.0011547906
7	0x3e1dc22b	0.154061
8	0xbe1179b3	-0.14206581
9	0x3db1b7c1	0.086776264
10	0xbded27c5	-0.11579851
11	0xbda6a32c	-0.08136591
12	0xbe5432ad	-0.20722456
13	0xbd9e1197	-0.07718199
14	0x3e3d23a6	0.1847063
15	0xbb55bf20	-0.003261514
16	0xbb58f4ef	-0.0033104976
17	0xbd4a4f41	-0.04939199
18	0xbe058a6b	-0.13041084
19	0x3d71b3ca	0.05900935
20	0x3d98197d	0.074267365
21	0xbe42dad3	-0.19028787

bias_hh_l0 f4 [22]
0	0x3e13b020	0.14422655
1	0x3dd487ad	0.103774406
2	0xbe7bef64	-0.24603039
3	0x3e11d419	0.14241065
4	0xbdb666bb	-0.08906313
5	0xbde03dd8	-0.10949296
6	0xbc16ad00	-0.00919652
7	0xbd92e828	-0.071731865
8	0x3cc61f3b	0.024184814
9	0x3e07b23a	0.13251582
10	0x3e093dbe	0.13402459
11	0xbe5d3688	-0.21602833
12	0xbe42d310	-0.19025826
13	0x3e25a03c	0.16174406
14	0xbdf8550e	-0.12125598
15	0xbd6b468a	-0.05744032
16	0x3d7c6278	0.061617345
17	0x3e72fb33	0.23728637
18	0xbe1ef00f	-0.15521263
19	0x3d8e3ffd	0.069457985
20	0xbdc7c8fc	-0.097551316
21	0xbe2d72ac	-0.16938275

weight_ih_l1 f4 [22, 22]
0	0xbd793e0b	-0.060850184
1	0x3e239ace	0.15977022
2	0x3e37cedf	0.17950009
3	0x3e67b245	0.22626598
4	0x3a27f22f	0.00064066326
5	0xbd915642	-0.070965305
6	0xbd8277d7	-0.06370514
7	0xbe284fc0	-0.16436672
8	0xbe049193	-0.12946157
9	0xbe02fac3	-0.1279097
10	0xbd808e7e	-0.06277178
11	0xbe28b932	-0.16476896
12	0xbdff24b1	-0.1245817
13	0xbe4de338	-0.20106208
14	0x3d1e9b7e	0.038722508
15	0xbd9c84d2	-0.07642521
16	0xbd42ce6a	-0.047560133
17	0x3f3fd8e8	0.7494035
18	0xbdef15ce	-0.11674081
19	0x3e137e58	0.14403665
20	0x3caf84c4	0.021425612
21	0x3e185b34	0.14878541
22	0x3db81c91	0.089898236
23	0x3d76abd7	0.060222473
24	0x3e4393da	0.1909937
25	0x3dc0b718	0.09409922
26	0xbe601a18	-0.21884954
27	0x3ca95994	0.020672597
28	0xbe523e99	-0.20531692
29	0x3e1f121e	0.15534255
30	0xbcda5dc0	-0.026656032
31	0x3e6b32b4	0.2296856
32	0xbe2b16d9	-0.16707934
33	0x3e319ae0	0.17344236
34	0xbd507b94	-0.050899103
35	0x3d8d2988	0.06892687
36	0x3dd7a024	0.10528591
37	0x3d82955e	0.06376146
38	0xbc731f74	-0.014839042
39	0x3f7bc8f8	0.9835353
40	0x3dedb4e7	0.1160677
41	0x3d84ee05	0.06490711
42	0xbd8c47fe	-0.06849669
43	0x3e3f1c6a	0.18663183
44	0x3e638203	0.22217564
45	0x3e2fb1af	0.17157625
46	0x3e5a3a0d	0.21311207
47	0xbdfd77e8	-0.12376386
48	0x3e2f13b7	0.17097364
49	0x3d7428ff	0.05960941
50	0x3e2ad8ee	0.16684315
51	0x3d2f969a	0.042868234
52	0xbe3c8f8a	-0.18414131
53	0x3e1f250d	0.15541478
54	0xbdcc1487	-0.09964853
55	0xbcdd3116	-0.027000945
56	0x3cb71058	0.02234666
57	0x3e11c893	0.14236669
58	0xbe438f86	-0.19097719
59	0xbdd342e3	-0.10315492
60	0x3d356338	0.044284075
61	0xbf360b06	-0.7111057
62	0x3dec4c76	0.11538021
63	0xbe24d553	-0.16097002
64	0x3e306bdd	0.17228647
65	0x3e24987a	0.1607379
66	0x3da55bba	0.08074136
67	0xbe782d55	-0.24236043
68	0xbd63e6ed	-0.05564015
69	0xbe4cbe14	-0.19994384
70	0x3cf4923e	0.02985489
71	0xbd488035	-0.048950393
72	0x3d48de9b	0.049040418
73	0x3de965f4	0.11396399
74	0xbdd3f8b2	-0.10350169
75	0x3e3a5efc	0.18200296
76	0x3c958f05	0.018256674
77	0x3d4f8f56	0.050673805
78	0x3e3f28c0	0.18667889
79	0x3e35fe50	0.17772794
80	0xbbfbf4b6	-0.007689084
81	0x3d152e4f	0.036421116
82	0x3e2b70ab	0.16742198
83	0xbf28f0f3	-0.6599266
84	0x3d61343d	0.05498146
85	0xbe34efad	-0.17669554
86	0x3e880a58	0.26570392
87	0x3e079898	0.13241804
88	0xbd7c2a20	-0.06156361
89	0xbe29f957	-0.16599022
90	0x3dbccc95	0.092187084
91	0xbe3ced63	-0.18449931
92	0x3e08d92c	0.13364094
93	0xbe2a733b	-0.1664552
94	0x3e285710	0.16439462
95	0x3d5b2067	0.0534977
96	0xbd174d44	-0.03693892
97	0x3d6940ab	0.056946438
98	0x3d292a8b	0.041300338
99	0xbe3f3493	-0.18672399
100	0xbe522798	-0.20522916
101	0xbde0abcc	-0.10970268
102	0xbe46a8b3	-0.19400291
103	0x3e3da342	0.18519309
104	0x3e3cd7ab	0.18441646
105	0xbe838dca	-0.25694114
106	0xbd06217d	-0.03274678
107	0x3dc5d033	0.096588515
108	0x3e45c27c	0.19312471
109	0xbd4ac980	-0.04950857
110	0xbe418333	-0.18897705
111	0x3bba9b7f	0.005694806
112	0x3f15488c	0.5831382
113	0xbde80d15	-0.1133062
114	0x3d546259	0.051851604
115	0xbbdfb93e	-0.0068275025
116	0xbe41d40f	-0.1892855
117	0xbdaa69ca	-0.08320959
118	0x3e0169aa	0.12637964
119	0x3e26c695	0.1628669
120	0x3d747421	0.05968106
121	0x3d13d2ce	0.03608971
122	0x3e2000d2	0.15625313
123	0xbe5fa45b	-0.2184004
124	0xbdbf21cd	-0.09332619
125	0xbe2c3cef	-0.1682012
126	0xbea920dd	-0.33032885
127	0x3ea48ca6	0.32138556
128	0x3d8937c0	0.067000866
129	0x3d0f4e3c	0.03498672
130	0xbe4d400e	-0.20043966
131	0xbdaf631a	-0.08563824
132	0x3e7fac4e	0.24968073
133	0xbd3f591b	-0.046715837
134	0x3e703c2f	0.23460458
135	0xbe8421f4	-0.25807154
136	0x3d38a0a2	0.045075066
137	0xbdeab0bf	-0.11459493
138	0x3dc7d026	0.09756498
139	0x3e113be8	0.14183009
140	0x3e234a70	0.15946364
141	0xbc0dd2d7	-0.008656225
142	0xbbfc9a6b	-0.0077088377
143	0xbdd04ef2	-0.101713076
144	0x3e14a4a4	0.1451593
145	0xbdd46d14	-0.103723675
146	0xbe11aa13	-0.14225034
147	0xbc15d9f4	-0.009146202
148	0xbd72e131	-0.05929679
149	0xbf811f08	-1.0087595
150	0x3e139413	0.14411955
151	0xbc490d8b	-0.012271295
152	0x3e7257ec	0.23666352
153	0xbe0a8486	-0.13527116
154	0x3c5f0d20	0.013613969
155	0xbe088b15	-0.13334306
156	0xbc51e647	-0.01281125
157	0xbe636028	-0.2220465
158	0x3e2f99fc	0.17148584
159	0x3db2412b	0.08703836
160	0xbdce8ee8	-0.10085851
161	0x3dbc454f	0.09192907
162	0xbe2f0621	-0.17092182
163	0xbdfaa27c	-0.12238023
164	0x3cdf64a3	0.027269667
165	0x3d4a12d8	0.049334377
166	0xbd0caca4	-0.03434433
167	0xbe4669e7	-0.19376336
168	0xbddae71c	-0.10688612
169	0x3d7f3e86	0.062315486
170	0x3d304180	0.043031216
171	0xbd4b1b59	-0.049586628
172	0x3e3ec474	0.18629628
173	0x3cc6b0c3	0.024254208
174	0xbe167705	-0.1469384
175	0x3d9bf0c0	0.07614279
176	0xbe744512	-0.23854473
177	0xbe048867	-0.12942658
178	0x3ef1000d	0.4707035
179	0x3e8ca9fd	0.2747344
180	0xbe81ae71	-0.253284
181	0x38d4fb8a	0.000101558006
182	0xbd0d7e44	-0.034544244
183	0xbe323527	-0.17403089
184	0xbdebca73	-0.115132235
185	0x3c058a7a	0.008150691
186	0x3e00c7d9	0.12576236
187	0x3b772bc0	0.0037715286
188	0xbcba67c0	-0.02275455
189	0x3d2ffad4	0.042963818
190	0x3e0fd650	0.14046597
191	0xbd4c10c6	-0.049820684
192	0xbe8e654b	-0.27811655
193	0x3f10cbb9	0.56560856
194	0x3e37ae1a	0.17937508
195	0x3d579f18	0.052641958
196	0xbecb90b5	-0.3975884
197	0xbe0d84a2	-0.13820127
198	0xbd27d5dc	-0.040975437
199	0xbe5c06ad	-0.21486922
200	0x3ce4e354	0.02794043
201	0xbdae9914	-0.08525291
202	0xbe832308	-0.25612664
203	0xbd8a124a	-0.067417696
204	0xbe392707	-0.18081294
205	0xbe81ea8f	-0.25374267
206	0xbd8787ea	-0.066177204
207	0x3e583c19	0.21116675
208	0xbe83708b	-0.256718
209	0x3d9e7d1a	0.07738705
210	0xbe28c018	-0.16479528
211	0xbe16b4d6	-0.14717421
212	0x3dc44453	0.09583344
213	0x3e4aaca5	0.19792421
214	0x3e00f7af	0.12594484
215	0xbeb84a02	-0.35993963
216	0x3cbf5c68	0.023359492
217	0x3daac622	0.08338572
218	0xbf35010c	-0.7070472
219	0x3dc3da7c	0.09563157
220	0x3d4eec40	0.050518274
221	0x3e1b0e98	0.15142286
222	0x3dd2b8d2	0.10289158
223	0x3e007b42	0.12547019
224	0xbe0bc915	-0.13650925
225	0x3da7f72b	0.082014404
226	0xbdc1a568	-0.09455377
227	0xbe48c5c8	-0.19606698
228	0xbe4650ab	-0.1936671
229	0x3e080c65	0.13285978
230	0xbe45dae6	-0.19321784
231	0xbe3c222c	-0.1837241
232	0x3ddf3c74	0.109002024
233	0xbdfe2a5c	-0.12410423
234	0xbe8b9462	-0.27261645
235	0xbe402033	-0.18762283
236	0xbe200eca	-0.15630642
237	0x3e5a0b0f	0.21293281
238	0x3e95b6b8	0.29240966
239	0x3cbb5562	0.022867862
240	0x3de314ab	0.110879265
241	0x3dcbfd58	0.09960431
242	0xbdf881cd	-0.121341325
243	0x3ee2ad7a	0.44272977
244	0xbd318bd3	-0.043346237
245	0xbe25924b	-0.16169088
246	0xbd272f2f	-0.040816482
247	0xbdc98af8	-0.09840959
248	0x3dba35f6	0.090923235
249	0x3e5b7349	0.21430697
250	0x3e1a14cc	0.15046996
251	0xbd960e93	-0.073269986
252	0x3da36f9d	0.07980273
253	0x3e224b7b	0.15849106
254	0x3afff980	0.0019529313
255	0x3cc207a0	0.023685277

weight_hh_l1 f4 [22, 22]
0	0x3e406a84	0.18790632
1	0x3dd73b93	0.1050941
2	0xbd976043	-0.07391407
3	0x3e3f34b4	0.18672448
4	0x3d1da13a	0.038483836
5	0x3dde6563	0.10859182
6	0xbde89eee	-0.113584384
7	0x3d206a8a	0.039164104
8	0xbd23d7c0	-0.040000677
9	0x3c2850b3	0.010273146
10	0x3d19f9ad	0.037591625
11	0x3dd1ec48	0.10250145
12	0x3e4fee8c	0.20305842
13	0x3e11b1ca	0.14227977
14	0x3e2aaab1	0.16666676
15	0x3e47f90b	0.19528596
16	0x3dd4dbb3	0.10393467
17	0x3da1f910	0.07908833
18	0xbd941f75	-0.072325625
19	0xbdd3c72e	-0.10340725
20	0x3d568efc	0.052382454
21	0x3dad5bcf	0.08464777
22	0xbd9474e1	-0.072488554
23	0x3dbbeb28	0.09175712
24	0xbe5a852a	-0.2133986
25	0xbcf834eb	-0.03029867
26	0xbddd6515	-0.108102955
27	0xbb5eb3dd	-0.0033981719
28	0xbe6d4f59	-0.231748
29	0xbbb937f9	-0.0056524244
30	0xbd7ed5d0	-0.062215626
31	0x3eb0123a	0.34388906
32	0xbcc6e52a	-0.024279196
33	0x3b58da35	0.0033089046
34	0xbe4f7548	-0.20259583
35	0x3e412675	0.18862326
36	0x3ddad600	0.106853485
37	0xbeaafa3e	-0.33394045
38	0xbd6d1bb4	-0.057887748
39	0x3e10c22e	0.14136574
40	0x3db49b15	0.08818642
41	0xbe1c7e32	-0.15282515
42	0xbe815c14	-0.25265563
43	0x3d899f51	0.0671984
44	0xbd6ec60f	-0.058294352
45	0x3e1fe9f0	0.15616584
46	0x3d8832ea	0.06650336
47	0x3e58bb62	0.21165231
48	0x3e1b0c1f	0.15141343
49	0xbd3f9f93	-0.04678304
50	0xbe20ed0c	-0.15715426
51	0x3e006211	0.1253741
52	0x3e18358b	0.14864175
53	0xbe452918	-0.19253957
54	0xbe094017	-0.13403355
55	0xbd5c6f9c	-0.053817376
56	0x3e2af9ba	0.16696826
57	0x3dd233b6	0.10263769
58	0x3ceeda5e	0.02915686
59	0xbe377d43	-0.17918877
60	0xbe477097	-0.19476543
61	0x3e35f5a3	0.17769484
62	0xbe3a6252	-0.18201569
63	0xbd81b9ee	-0.063342914
64	0xbc13bbf5	-0.00901698
65	0xbe53f4c1	-0.20698835
66	0xbe188ec7	-0.14898215
67	0x3e28d166	0.16486129
68	0x3e60cf7b	0.21954148
69	0x3e15fbe2	0.14646867
70	0x3d0c66f2	0.034277864
71	0x3e01a2fc	0.1265983
72	0x3e563c1f	0.20921372
73	0x3d509ea8	0.050932556
74	0x3e38c492	0.18043736
75	0xbd1c233a	-0.038119532
76	0xbe6a79a8	-0.2289797
77	0xbdb4172a	-0.08793481
78	0xbc17253b	-0.009225185
79	0x3e256743	0.16152672
80	0x3e1bc68f	0.15212463
81	0xbc32b8b7	-0.010908297
82	0xbe73eba9	-0.23820366
83	0x3cf044d6	0.029329699
84	0xbbb482de	-0.0055087646
85	0xbe02f831	-0.1278999
86	0x3dae2fd8	0.08505219
87	0xbd769d5c	-0.060208663
88	0x3e62688b	0.22110192
89	0x3c3542c0	0.011063278
90	0xbe20527a	-0.15656462
91	0x3dc916f8	0.09818834
92	0xbe154f07	-0.14580928
93	0xbdd5650d	-0.104196645
94	0xbdce851d	-0.10083983
95	0x3dddc3de	0.10828374
96	0x3d631b95	0.055446226
97	0x3c957215	0.018242875
98	0x3e4d4410	0.20045495
99	0xbe449355	-0.19196828
100	0x3cfed04e	0.031105187
101	0xbd6ebb11	-0.05828387
102	0x3e05f7cb	0.13082807
103	0xbe1cfdd1	-0.15331198
104	0xbd9b84a3	-0.07593658
105	0x3d397b9d	0.045283902
106	0xbdec2fe3	-0.11532571
107	0xbdba49e2	-0.09096123
108	0x3e17e00c	0.14831561
109	0x3e39931f	0.18122528
110	0x3d933142	0.071871296
111	0x3e1ec639	0.15505303
112	0x3dd62ffe	0.104583725
113	0xbdda24d4	-0.10651556
114	0xbdc980cf	-0.098390214
115	0x3e07d4cf	0.13264774
116	0xbd9f4066	-0.07775955
117	0x3e8bffeb	0.27343687
118	0x3d7432af	0.05961865
119	0x3e425298	0.1897682
120	0x3dc93484	0.0982447
121	0x3dcd016e	0.10010038
122	0x3e09d23e	0.13459107
123	0xbdaeea18	-0.085407436
124	0x3e269c08	0.16270459
125	0x3e71f381	0.23628046
126	0x3d5b05d1	0.053472344
127	0x3dff604a	0.124695376
128	0x3d19d0e8	0.037552744
129	0x3e06b39b	0.13154452
130	0xbe0cccf9	-0.13750066
131	0xbe17d21e	-0.14826247
132	0x3e2537bb	0.1613454
133	0xbdc85638	-0.0978207
134	0xbd958f83	-0.07302763
135	0xbe1cb04b	-0.15301625
136	0x3da0cc62	0.07851483
137	0x3e074da4	0.13213211
138	0xbe5c1d5e	-0.21495578
139	0x3e4dc894	0.20096046
140	0x3dc872f5	0.09787551
141	0x3e6a64f9	0.2289008
142	0xbd198afd	-0.037486065
143	0xbeeae1c4	-0.4587537
144	0xbca1e929	-0.0197645
145	0x3c828762	0.015933696
146	0x3d840ca9	0.06447727
147	0xbe071da4	-0.13194901
148	0x3e0c1fb6	0.13683972
149	0xbe5a3160	-0.21307898
150	0x3d7fcf02	0.062453277
151	0x3e0cc3ae	0.13746521
152	0xbe1d01f8	-0.15332782
153	0xbdb84470	-0.089974284
154	0x3dc91904	0.098192245
155	0x3def2411	0.11676801
156	0xbceb1038	-0.028694257
157	0xbe014950	-0.12625623
158	0x3db5c7dd	0.088760115
159	0xbd9ae53f	-0.075632565
160	0xbe3bbe97	-0.18334423
161	0x3aaa8d6e	0.001301212
162	0x3df467c2	0.11933853
163	0xbe534568	-0.20631945
164	0xbd60d93c	-0.05489467
165	0xbd89fd22	-0.067377344
166	0xbda81d50	-0.08208716
167	0xbe2c4ed7	-0.1682695
168	0x3cd64a08	0.026158348
169	0x3e2f21ce	0.17102739
170	0xbd9e8fb8	-0.07742256
171	0x3d8cf0c5	0.06881861
172	0xbdeb8633	-0.11500206
173	0xbe4d3976	-0.20041451
174	0xbd827dbf	-0.063716404
175	0xbc1cf1f1	-0.009579168
176	0x3dbed37d	0.09317682
177	0x3d93fffd	0.0722656
178	0xbe7b2c0c	-0.24528521
179	0xbd7efbd2	-0.062251873
180	0x3acbfd5b	0.0015563177
181	0x3de07f99	0.10961837
182	0x3bf23f4e	0.0073928004
183	0xbd87a835	-0.0662388
184	0xbdfd3e67	-0.12365418
185	0xbde29596	-0.110636875
186	0xbe4d85e3	-0.20070605
187	0xbe310207	-0.1728593
188	0x3dd09aa8	0.10185748
189	0xbcaa69e6	-0.02080245
190	0xbe684690	-0.22683167
191	0x3e01e45f	0.12684773
192	0xbe000000	-0.125
193	0x3e38a42f	0.18031381
194	0x3dc0a015	0.09405533
195	0x3e6b0419	0.22950782
196	0x3d0d5782	0.034507282
197	0x3e503086	0.2033101
198	0xbe47df1b	-0.19518702
199	0x3e48216b	0.19543998
200	0xbf105467	-0.5637879
201	0xbf07b4c3	-0.53010195
202	0x3e0157f5	0.12631209
203	0xbcba4140	-0.022736192
204	0xbdd10a87	-0.10207086
205	0xbd5c9f96	-0.05386313
206	0x3c68a245	0.014198844
207	0x3ef0ec30	0.47055197
208	0x3e35d671	0.17757584
209	0x3e465d9c	0.19371647
210	0xbe20835f	-0.15675114
211	0xbe67eb6c	-0.226484
212	0xbe18a718	-0.14907491
213	0xbc5bc1a8	-0.0134128705
214	0x3dc1c695	0.09461705
215	0x3cf5d136	0.030006986
216	0xbe340cd8	-0.17583025
217	0xbe1c69d5	-0.15274747
218	0xbe26fcc6	-0.16307363
219	0x3e11a762	0.14224008
220	0xbe47f6b2	-0.195277
221	0x3dc83c2e	0.09777103
222	0x3e441f75	0.19152625
223	0xbcd698e2	-0.026195947
224	0x3c40f0ab	0.01177613
225	0x3e415461	0.18879844
226	0xbd97ad13	-0.07406058
227	0xbd2611d8	-0.04054436
228	0xbd6236f6	-0.055228196
229	0x3db9add2	0.09066357
230	0xbe095489	-0.13411154
231	0xbe264b04	-0.16239554
232	0x3e2d54ad	0.16926832
233	0x3e261b44	0.16221339
234	0xbda49af2	-0.08037366
235	0xbd6d776d	-0.05797522
236	0x3da87e94	0.08227268
237	0x3d5d75b2	0.05406732
238	0x3b81b5a5	0.0039584213
239	0x3e0654b4	0.13118249
240	0x3df193cd	0.11795769
241	0x3d92aca8	0.07161838
242	0x3e646a2a	0.22306123
243	0x3e12f8ee	0.14352772
244	0xbe9dbe1f	-0.30809113
245	0xbdd5da45	-0.10442022
246	0x3e0fa7f8	0.14028919
247	0x3e024b5e	0.12724063
248	0xbe65d42b	-0.22444217
249	0xbe2af9cb	-0.16696851
250	0x3e3f3a70	0.18674636
251	0x3dc165ae	0.09443222
252	0xbd698ea0	-0.057020783
253	0x3c94c81b	0.018161824
254	0xbe0651ad	-0.13117094
255	0xbe0b7b46	-0.13621244

bias_ih_l1 f4 [22]
0	0x3e51fc40	0.20506382
1	0x3e3b3d3e	0.18285081
2	0xbd99a916	-0.07502954
3	0xbd096d48	-0.033551484
4	0x3c0f6ed7	0.008754454
5	0x3c27c2cd	0.010239315
6	0x3da677ab	0.081282936
7	0xbe3b25ab	-0.18276088
8	0x3d7a97a6	0.06117978
9	0xbd5f3275	-0.05449148
10	0xbe8051b3	-0.25062332
11	0xbe442311	-0.19154002
12	0x3d655955	0.055993397
13	0xbd8dd455	-0.06925265
14	0x3e0e216e	0.1387994
15	0xbe130027	-0.14355527
16	0x3e106223	0.14099936
17	0x3e06d868	0.1316849
18	0x3e1cc5ca	0.15309826
19	0xbd240191	-0.040040556
20	0xbe172659	-0.14760722
21	0xbd81c3c3	-0.06336167

bias_hh_l1 f4 [22]
0	0xbd1f17b5	-0.03884097
1	0x3d89d3bf	0.067298405
2	0x3dfeea8a	0.124470785
3	0x39a93831	0.00032276058
4	0xbe2562e0	-0.16150999
5	0xbe5325ea	-0.20619932
6	0x3e3e285b	0.18570082
7	0xbd911723	-0.07084491
8	0x3e07ccb3	0.1326168
9	0xbd96b08f	-0.07357895
10	0x3e073cdd	0.13206811
11	0xbe278d3b	-0.16362469
12	0x3e2b1026	0.16705379
13	0x3df7181b	0.12065145
14	0x3d9be019	0.076111026
15	0xbe3d3889	-0.18478598
16	0x3c901490	0.01758793
17	0x3e18300e	0.14862081
18	0xbdd96e62	-0.10616757
19	0xbe1dd511	-0.1541331
20	0x3a2e4db9	0.0006649155
21	0x3e52e81a	0.20596352

weight f4 [1, 22]
0	0x3deea9a4	0.1165345
1	0x3e05a0fd	0.13049693
2	0xbe559695	-0.20858224
3	0xbe720693	-0.2363532
4	0xbd8076af	-0.06272637
5	0xbe5aeaf6	-0.21378693
6	0xbe1613c3	-0.14655976
7	0x3dfb140c	0.12259683
8	0x3e2bb856	0.16769537
9	0x3e8d001f	0.27539155
10	0xbe2ad960	-0.16684484
11	0xbe072bc6	-0.13200292
12	0x3bc8b88e	0.0061255163
13	0xbdbcaa7d	-0.092122056
14	0xbdb18980	-0.08668804
15	0xbe1cdc21	-0.15318348
16	0x3e5d5977	0.2161616
17	0x3e78eca3	0.2430902
18	0xbdf64316	-0.120245144
19	0x3e2a88e7	0.16653787
20	0xbe2df749	-0.16988863
21	0x3e47b9ac	0.19504422

rnn.weight_ih_l0 f4 [22, 2]
0	0xbe226dee	-0.15862247
1	0xbe2fc8ad	-0.17166395
2	0x3e09e6fb	0.13467018
3	0x3e185351	0.14875533
4	0xbe7cd5a1	-0.24690868
5	0x3dabb707	0.08384519
6	0x3dc32909	0.09529311
7	0x3e4e8975	0.20169623
8	0x3e3f74b5	0.18696864
9	0xbd83898e	-0.06422721
10	0x3d29dfd5	0.04147323
11	0x3eaf440d	0.34231606
12	0xbe1ab503	-0.15108113
13	0xbeab730b	-0.33486208
14	0x3c4ae812	0.012384431
15	0xbdf1ecaf	-0.11812722
16	0xbda354ae	-0.07975136
17	0xbc9dabf6	-0.019247036
18	0xbdcb34f0	-0.099222064
19	0x3de32a03	0.110919975
20	0x3e772199	0.2413391
21	0x3e702b12	0.2345393
22	0x3df7035d	0.12061188
23	0x3deffc3c	0.11718032
24	0xbb2bcc40	-0.0026214272
25	0x3e261b96	0.1622146
26	0xbe18f8e1	-0.1493869
27	0xbca8576d	-0.0205495
28	0x3d357b70	0.044307172
29	0x3dfc315c	0.12314102
30	0xbde41805	-0.11137394
31	0x3e56847f	0.20948981
32	0xbe4d35c9	-0.20040049
33	0xbe61a38c	-0.22035044
34	0x3e7fdd3e	0.24986741
35	0x3e50c00e	0.20385763
36	0x3e936e34	0.28795016
37	0x3ca8de9c	0.02061396
38	0x3e76e7b9	0.24111833
39	0x3e62b020	0.22137499
40	0x3d981e45	0.074276485
41	0xbeace74a	-0.3377021
42	0xbd53dd10	-0.051724494
43	0xbe4c5092	-0.1995261

rnn.weight_hh_l0 f4 [22, 22]
0	0x3d9c965d	0.07645867
1	0x3e1da113	0.15393476
2	0x3d809e90	0.062802434
3	0xbe12ed35	-0.143483
4	0x3e1246a0	0.14284754
5	0xbcd09900	-0.025463581
6	0x3d83177d	0.064009644
7	0xbe179cbd	-0.14805885
8	0xbd69dc47	-0.05709484
9	0x3d0d6038	0.03451559
10	0xbd1a7572	-0.03770966
11	0xbe2d8f00	-0.16949081
12	0xbde19403	-0.11014559
13	0x3dc0b45b	0.094094
14	0xbda4ccbb	-0.08046862
15	0xbde2587f	-0.110520355
16	0x3df8da20	0.12150979
17	0xbe5376b3	-0.20650749
18	0x3ea21242	0.31654555
19	0x3d0a20f0	0.033722818
20	0xbd0c47f9	-0.034248326
21	0x3db7b288	0.08969599
22	0x3dd31390	0.103064656
23	0xbe17661f	-0.1478505
24	0x3d0d05b6	0.034429274
25	0xbdb9baca	-0.0906883
26	0x3d0428ae	0.032265358
27	0xbe6530c4	-0.22381884
28	0x3c6065ea	0.013696173
29	0x3d9e254a	0.07721956
30	0xbe0b5d1c	-0.13609737
31	0x3d08ab58	0.03336653
32	0x3e0c1e5b	0.13683455
33	0x3e2c2d4c	0.16814154
34	0x3d382788	0.044959575
35	0xba756e4f	-0.00093624456
36	0xbd970b70	-0.073752284
37	0xbd6fa05e	-0.058502547
38	0xbe3fcd2d	-0.18730612
39	0x3ea19a47	0.31563017
40	0xbd5fbbcf	-0.054622468
41	0xbe1a316c	-0.15057915
42	0xbe132a7c	-0.14371675
43	0x3e0e372e	0.13888237
44	0x3dcb5fe5	0.099304
45	0x3e04cf59	0.12969722
46	0xbba45570	-0.0050150678
47	0x3e7d2362	0.24720529
48	0x3e168a6a	0.14701238
49	0x3e40ced5	0.188289
50	0x3d84e812	0.064895764
51	0xbd99362b	-0.07481035
52	0xbe52c0c4	-0.20581347
53	0xbd09076a	-0.033454336
54	0x3d769d54	0.060208634
55	0x3d643bd6	0.055721126
56	0xbe415fe2	-0.18884233
57	0x3d637666	0.055532835
58	0x3e06b994	0.1315673
59	0xbd71778c	-0.0589519
60	0x3e06279d	0.13101049
61	0x3dbfc6be	0.09364079
62	0x3e0adbe2	0.13560441
63	0x3dbdfe8b	0.09277066
64	0xbe28dbca	-0.16490093
65	0xbc9036a0	-0.017604172
66	0x3dbac330	0.0911926
67	0x3e9071b4	0.2821175
68	0x3c1eef01	0.009700538
69	0xbb5e4102	-0.003391326
70	0xbe3a4384	-0.18189818
71	0xbdbcd104	-0.09219554
72	0xbdef08ca	-0.11671598
73	0xbda89009	-0.082305975
74	0xbd2aabe4	-0.041667834
75	0xbcce8c0a	-0.02521326
76	0xbd876180	-0.066103935
77	0xbe56a049	-0.20959581
78	0xbdc58daa	-0.09646161
79	0x3e313a11	0.17307307
80	0x3d72633a	0.05917666
81	0xbe0c41ec	-0.13697022
82	0xbcc6d15a	-0.024269748
83	0x3e985068	0.29748845
84	0xbd7f749d	-0.06236707
85	0x3e3f6d36	0.18694004
86	0xbd87fb3c	-0.06639716
87	0x3d2f4748	0.04279259
88	0xbe5de2e9	-0.2166859
89	0x3e420aa0	0.18949366
90	0xbe2d909c	-0.16949695
91	0x3c48e977	0.012262694
92	0x3d3ee10d	0.046601344
93	0x3da95e97	0.08269995
94	0x3d2e8554	0.04260762
95	0x3d5d004b	0.053955358
96	0x3e29aa48	0.16568863
97	0xbd3a28a6	-0.04544892
98	0xbd73cfc2	-0.059524305
99	0xbe1992ed	-0.14997454
100	0xbe27f1d8	-0.1640085
101	0xbe326e1a	-0.17424813
102	0x3d76abf6	0.06022259
103	0x3e38025f	0.17969655
104	0xbe46f10c	-0.1942789
105	0x3f18fdf1	0.59762484
106	0xbe2f1fe8	-0.17102015
107	0x3c11ba76	0.008894553
108	0xbd11f555	-0.035634357
109	0xbe3b4387	-0.18287478
110	0xbdf5c52e	-0.120005
111	0x3e94f6ee	0.29094642
112	0xbe6d8014	-0.23193389
113	0xbd0e9118	-0.03480634
114	0xbdb632d8	-0.088964164
115	0x3e6db077	0.23211847
116	0xbe7e89bd	-0.2485723
117	0x3d7eb7ea	0.062187113
118	0xbdfe5d4a	-0.12420137
119	0x3dc71880	0.0972147
120	0x3d9570f1	0.072969325
121	0xbd9b1a93	-0.07573428
122	0x3df75aa4	0.12077835
123	0xbe25b38a	-0.1618177
124	0x3dee883a	0.11647077
125	0x3d95b322	0.073095575
126	0xbcf69b3f	-0.030103324
127	0x3ee55aeb	0.44795927
128	0x3e32144f	0.1739056
129	0xbd648a85	-0.055796165
130	0xbeb4b18b	-0.35291705
131	0xbdd32ec6	-0.10311656
132	0x3e4b1af6	0.19834504
133	0x3b9d86e0	0.004807338
134	0x3e1b8376	0.15186867
135	0xbc06ec74	-0.008235086
136	0xbe18bbdb	-0.14915411
137	0x3e90d5fa	0.2828825
138	0x3e0ab6f9	0.13546361
139	0x3c9d7a57	0.019223375
140	0x3d34772c	0.044058964
141	0xbdb58c67	-0.0886467
142	0xbe18d7c7	-0.14926063
143	0xbe3454e8	-0.17610514
144	0x3daa711c	0.08322355
145	0xbd03a99e	-0.03214418
146	0x3e9d8223	0.3076335
147	0x3e4a073a	0.19729319
148	0x3e616fbc	0.2201528
149	0xbe8570ec	-0.26062715
150	0x3d42ddc9	0.047574792
151	0xbd9c6004	-0.07635501
152	0xbdb6d526	-0.089273736
153	0x3e483f98	0.19555509
154	0x3be2256f	0.006901435
155	0x3d9595b6	0.07303946
156	0x3ea38b4b	0.3194221
157	0x3d58bb57	0.052913036
158	0x3d9dc897	0.07704275
159	0x3dc464a6	0.0958951
160	0xbd8a7c9c	-0.067620486
161	0xbe55f162	-0.20892861
162	0x3e18cbc1	0.14921476
163	0x3ccd4627	0.025057865
164	0x3cf003ed	0.029298747
165	0xbe302f5a	-0.17205563
166	0xbe4a381b	-0.19747965
167	0x3d0ee378	0.0348849
168	0x3e00e999	0.1258911
169	0x3d824b60	0.06362033
170	0xbdd09e48	-0.1018644
171	0x3e416ce3	0.18889193
172	0x3c0fab49	0.008768865
173	0x3c04d010	0.008106247
174	0xbe410d1c	-0.18852657
175	0x3d969560	0.0735271
176	0x3d79b0d8	0.060959667
177	0xbd63ab0c	-0.055583045
178	0x3dcc22b4	0.099675566
179	0x3e49b6aa	0.19698587
180	0xbd886936	-0.066606924
181	0xbdee9784	-0.11649993
182	0xbdc20917	-0.0947439
183	0xbe165808	-0.14682019
184	0x3df13f38	0.11779636
185	0xbd9bf340	-0.07614756
186	0x3c5f9290	0.013645783
187	0xbe3f0471	-0.18654038
188	0x3e136ee8	0.14397776
189	0xbc4f2a00	-0.012644291
190	0xbbf44cc0	-0.0074554384
191	0x3e187998	0.14890134
192	0xbe4c505c	-0.1995253
193	0xbd347ea0	-0.04406607
194	0xbd9ace0e	-0.07558833
195	0xbd719508	-0.058980018
196	0xbda21bb8	-0.07915443
197	0x3e22e12e	0.15906212
198	0x3e4a3a45	0.1974879
199	0xbe031e66	-0.12804565
200	0x3dff0bdc	0.12453434
201	0x3e2a1526	0.1660963
202	0xbe174b79	-0.14774884
203	0x3e39d7b5	0.18148692
204	0x3dfaffbb	0.12255808
205	0x3dc0b164	0.094088346
206	0x3d9468b1	0.07246531
207	0x3e1d07ff	0.15335082
208	0xbe662895	-0.22476418
209	0x3e54b39e	0.20771644
210	0xbe33df08	-0.17565548
211	0x3d9ac090	0.0755626
212	0xbda159af	-0.07878434
213	0x3b1362a8	0.0022489224
214	0x3d0eb096	0.034836374
215	0xbc8bcb4a	-0.01706471
216	0x3e4cebda	0.20011845
217	0xbc57cc3b	-0.013171251
218	0x3dc33afa	0.09532733
219	0xbd4565cc	-0.048192784
220	0xbb3a88e8	-0.002846295
221	0xbe204e3a	-0.15654841
222	0x3f2a896b	0.66615933
223	0x3d3d9061	0.04628027
224	0x3e2f8b07	0.17142878
225	0x3e08fd02	0.13377765
226	0xbe10222f	-0.1407554
227	0x3cb25986	0.021771204
228	0xbd9a805e	-0.07544015
229	0xbe01086b	-0.12600867
230	0x3e63cde3	0.22246508
231	0x3e1cf09b	0.15326159
232	0x3dd72f6c	0.10507092
233	0x3e33cc76	0.17558464
234	0xbde473ef	-0.11154925
235	0xbdf04e9a	-0.11733742
236	0xbd196f77	-0.037459817
237	0x3ef3d1ac	0.47620904
238	0xbd8484af	-0.0647062
239	0xbdd439fa	-0.10362621
240	0x3da7f1dc	0.08200428
241	0xbe3d1bf1	-0.1846769
242	0xbda12ba4	-0.07869652
243	0xbbde0a84	-0.006776156
244	0x3e518a31	0.20462872
245	0xbe283a64	-0.16428524
246	0x3c8395f0	0.016062707
247	0x3e1fe00b	0.1561281
248	0x3d9496dc	0.07255337
249	0xbd804035	-0.062622465
250	0x3e5569ba	0.20841113
251	0xbd9ddfee	-0.07708727
252	0x3cd3a1e3	0.02583403
253	0x3e355068	0.17706454
254	0xbe2b57e9	-0.16732754
255	0xbdbc61a3	-0.0919831

rnn.bias_ih_l0 f4 [22]
0	0x3d4e77cc	0.050407216
1	0x3c98ae0a	0.018637676
2	0xbdccf110	-0.100069165
3	0xbd17218c	-0.036897227
4	0xbd99fd38	-0.07519001
5	0x3e85a014	0.26098692
6	0x3a975c58	0.0011547906
7	0x3e1dc22b	0.154061
8	0xbe1179b3	-0.14206581
9	0x3db1b7c1	0.086776264
10	0xbded27c5	-0.11579851
11	0xbda6a32c	-0.08136591
12	0xbe5432ad	-0.20722456
13	0xbd9e1197	-0.07718199
14	0x3e3d23a6	0.1847063
15	0xbb55bf20	-0.003261514
16	0xbb58f4ef	-0.0033104976
17	0xbd4a4f41	-0.04939199
18	0xbe058a6b	-0.13041084
19	0x3d71b3ca	0.05900935
20	0x3d98197d	0.074267365
21	0xbe42dad3	-0.19028787

rnn.bias_hh_l0 f4 [22]
0	0x3e13b020	0.14422655
1	0x3dd487ad	0.103774406
2	0xbe7bef64	-0.24603039
3	0x3e11d419	0.14241065
4	0xbdb666bb	-0.08906313
5	0xbde03dd8	-0.10949296
6	0xbc16ad00	-0.00919652
7	0xbd92e828	-0.071731865
8	0x3cc61f3b	0.024184814
9	0x3e07b23a	0.13251582
10	0x3e093dbe	0.13402459
11	0xbe5d3688	-0.21602833
12	0xbe42d310	-0.19025826
13	0x3e25a03c	0.16174406
14	0xbdf8550e	-0.12125598
15	0xbd6b468a	-0.05744032
16	0x3d7c6278	0.061617345
17	0x3e72fb33	0.23728637
18	0xbe1ef00f	-0.15521263
19	0x3d8e3ffd	0.069457985
20	0xbdc7c8fc	-0.097551316
21	0xbe2d72ac	-0.16938275

rnn.weight_ih_l1 f4 [22, 22]
0	0xbd793e0b	-0.060850184
1	0x3e239ace	0.15977022
2	0x3e37cedf	0.17950009
3	0x3e67b245	0.22626598
4	0x3a27f22f	0.00064066326
5	0xbd915642	-0.070965305
6	0xbd8277d7	-0.06370514
7	0xbe284fc0	-0.16436672
8	0xbe049193	-0.12946157
9	0xbe02fac3	-0.1279097
10	0xbd808e7e	-0.06277178
11	0xbe28b932	-0.16476896
12	0xbdff24b1	-0.1245817
13	0xbe4de338	-0.20106208
14	0x3d1e9b7e	0.038722508
15	0xbd9c84d2	-0.07642521
16	0xbd42ce6a	-0.047560133
17	0x3f3fd8e8	0.7494035
18	0xbdef15ce	-0.11674081
19	0x3e137e58	0.14403665
20	0x3caf84c4	0.021425612
21	0x3e185b34	0.14878541
22	0x3db81c91	0.089898236
23	0x3d76abd7	0.060222473
24	0x3e4393da	0.1909937
25	0x3dc0b718	0.09409922
26	0xbe601a18	-0.21884954
27	0x3ca95994	0.020672597
28	0xbe523e99	-0.20531692
29	0x3e1f121e	0.15534255
30	0xbcda5dc0	-0.026656032
31	0x3e6b32b4	0.2296856
32	0xbe2b16d9	-0.16707934
33	0x3e319ae0	0.17344236
34	0xbd507b94	-0.050899103
35	0x3d8d2988	0.06892687
36	0x3dd7a024	0.10528591
37	0x3d82955e	0.06376146
38	0xbc731f74	-0.014839042
39	0x3f7bc8f8	0.9835353
40	0x3dedb4e7	0.1160677
41	0x3d84ee05	0.06490711
42	0xbd8c47fe	-0.06849669
43	0x3e3f1c6a	0.18663183
44	0x3e638203	0.22217564
45	0x3e2fb1af	0.17157625
46	0x3e5a3a0d	0.21311207
47	0xbdfd77e8	-0.12376386
48	0x3e2f13b7	0.17097364
49	0x3d7428ff	0.05960941
50	0x3e2ad8ee	0.16684315
51	0x3d2f969a	0.042868234
52	0xbe3c8f8a	-0.18414131
53	0x3e1f250d	0.15541478
54	0xbdcc1487	-0.09964853
55	0xbcdd3116	-0.027000945
56	0x3cb71058	0.02234666
57	0x3e11c893	0.14236669
58	0xbe438f86	-0.19097719
59	0xbdd342e3	-0.10315492
60	0x3d356338	0.044284075
61	0xbf360b06	-0.7111057
62	0x3dec4c76	0.11538021
63	0xbe24d553	-0.16097002
64	0x3e306bdd	0.17228647
65	0x3e24987a	0.1607379
66	0x3da55bba	0.08074136
67	0xbe782d55	-0.24236043
68	0xbd63e6ed	-0.05564015
69	0xbe4cbe14	-0.19994384
70	0x3cf4923e	0.02985489
71	0xbd488035	-0.048950393
72	0x3d48de9b	0.049040418
73	0x3de965f4	0.11396399
74	0xbdd3f8b2	-0.10350169
75	0x3e3a5efc	0.18200296
76	0x3c958f05	0.018256674
77	0x3d4f8f56	0.050673805
78	0x3e3f28c0	0.18667889
79	0x3e35fe50	0.17772794
80	0xbbfbf4b6	-0.007689084
81	0x3d152e4f	0.036421116
82	0x3e2b70ab	0.16742198
83	0xbf28f0f3	-0.6599266
84	0x3d61343d	0.05498146
85	0xbe34efad	-0.17669554
86	0x3e880a58	0.26570392
87	0x3e079898	0.13241804
88	0xbd7c2a20	-0.06156361
89	0xbe29f957	-0.16599022
90	0x3dbccc95	0.092187084
91	0xbe3ced63	-0.18449931
92	0x3e08d92c	0.13364094
93	0xbe2a733b	-0.1664552
94	0x3e285710	0.16439462
95	0x3d5b2067	0.0534977
96	0xbd174d44	-0.03693892
97	0x3d6940ab	0.056946438
98	0x3d292a8b	0.041300338
99	0xbe3f3493	-0.18672399
100	0xbe522798	-0.20522916
101	0xbde0abcc	-0.10970268
102	0xbe46a8b3	-0.19400291
103	0x3e3da342	0.18519309
104	0x3e3cd7ab	0.18441646
105	0xbe838dca	-0.25694114
106	0xbd06217d	-0.03274678
107	0x3dc5d033	0.096588515
108	0x3e45c27c	0.19312471
109	0xbd4ac980	-0.04950857
110	0xbe418333	-0.18897705
111	0x3bba9b7f	0.005694806
112	0x3f15488c	0.5831382
113	0xbde80d15	-0.1133062
114	0x3d546259	0.051851604
115	0xbbdfb93e	-0.0068275025
116	0xbe41d40f	-0.1892855
117	0xbdaa69ca	-0.08320959
118	0x3e0169aa	0.12637964
119	0x3e26c695	0.1628669
120	0x3d747421	0.05968106
121	0x3d13d2ce	0.03608971
122	0x3e2000d2	0.15625313
123	0xbe5fa45b	-0.2184004
124	0xbdbf21cd	-0.09332619
125	0xbe2c3cef	-0.1682012
126	0xbea920dd	-0.33032885
127	0x3ea48ca6	0.32138556
128	0x3d8937c0	0.067000866
129	0x3d0f4e3c	0.03498672
130	0xbe4d400e	-0.20043966
131	0xbdaf631a	-0.08563824
132	0x3e7fac4e	0.24968073
133	0xbd3f591b	-0.046715837
134	0x3e703c2f	0.23460458
135	0xbe8421f4	-0.25807154
136	0x3d38a0a2	0.045075066
137	0xbdeab0bf	-0.11459493
138	0x3dc7d026	0.09756498
139	0x3e113be8	0.14183009
140	0x3e234a70	0.15946364
141	0xbc0dd2d7	-0.008656225
142	0xbbfc9a6b	-0.0077088377
143	0xbdd04ef2	-0.101713076
144	0x3e14a4a4	0.1451593
145	0xbdd46d14	-0.103723675
146	0xbe11aa13	-0.14225034
147	0xbc15d9f4	-0.009146202
148	0xbd72e131	-0.05929679
149	0xbf811f08	-1.0087595
150	0x3e139413	0.14411955
151	0xbc490d8b	-0.012271295
152	0x3e7257ec	0.23666352
153	0xbe0a8486	-0.13527116
154	0x3c5f0d20	0.013613969
155	0xbe088b15	-0.13334306
156	0xbc51e647	-0.01281125
157	0xbe636028	-0.2220465
158	0x3e2f99fc	0.17148584
159	0x3db2412b	0.08703836
160	0xbdce8ee8	-0.10085851
161	0x3dbc454f	0.09192907
162	0xbe2f0621	-0.17092182
163	0xbdfaa27c	-0.12238023
164	0x3cdf64a3	0.027269667
165	0x3d4a12d8	0.049334377
166	0xbd0caca4	-0.03434433
167	0xbe4669e7	-0.19376336
168	0xbddae71c	-0.10688612
169	0x3d7f3e86	0.062315486
170	0x3d304180	0.043031216
171	0xbd4b1b59	-0.049586628
172	0x3e3ec474	0.18629628
173	0x3cc6b0c3	0.024254208
174	0xbe167705	-0.1469384
175	0x3d9bf0c0	0.07614279
176	0xbe744512	-0.23854473
177	0xbe048867	-0.12942658
178	0x3ef1000d	0.4707035
179	0x3e8ca9fd	0.2747344
180	0xbe81ae71	-0.253284
181	0x38d4fb8a	0.000101558006
182	0xbd0d7e44	-0.034544244
183	0xbe323527	-0.17403089
184	0xbdebca73	-0.115132235
185	0x3c058a7a	0.008150691
186	0x3e00c7d9	0.12576236
187	0x3b772bc0	0.0037715286
188	0xbcba67c0	-0.02275455
189	0x3d2ffad4	0.042963818
190	0x3e0fd650	0.14046597
191	0xbd4c10c6	-0.049820684
192	0xbe8e654b	-0.27811655
193	0x3f10cbb9	0.56560856
194	0x3e37ae1a	0.17937508
195	0x3d579f18	0.052641958
196	0xbecb90b5	-0.3975884
197	0xbe0d84a2	-0.13820127
198	0xbd27d5dc	-0.040975437
199	0xbe5c06ad	-0.21486922
200	0x3ce4e354	0.02794043
201	0xbdae9914	-0.08525291
202	0xbe832308	-0.25612664
203	0xbd8a124a	-0.067417696
204	0xbe392707	-0.18081294
205	0xbe81ea8f	-0.25374267
206	0xbd8787ea	-0.066177204
207	0x3e583c19	0.21116675
208	0xbe83708b	-0.256718
209	0x3d9e7d1a	0.07738705
210	0xbe28c018	-0.16479528
211	0xbe16b4d6	-0.14717421
212	0x3dc44453	0.09583344
213	0x3e4aaca5	0.19792421
214	0x3e00f7af	0.12594484
215	0xbeb84a02	-0.35993963
216	0x3cbf5c68	0.023359492
217	0x3daac622	0.08338572
218	0xbf35010c	-0.7070472
219	0x3dc3da7c	0.09563157
220	0x3d4eec40	0.050518274
221	0x3e1b0e98	0.15142286
222	0x3dd2b8d2	0.10289158
223	0x3e007b42	0.12547019
224	0xbe0bc915	-0.13650925
225	0x3da7f72b	0.082014404
226	0xbdc1a568	-0.09455377
227	0xbe48c5c8	-0.19606698
228	0xbe4650ab	-0.1936671
229	0x3e080c65	0.13285978
230	0xbe45dae6	-0.19321784
231	0xbe3c222c	-0.1837241
232	0x3ddf3c74	0.109002024
233	0xbdfe2a5c	-0.12410423
234	0xbe8b9462	-0.27261645
235	0xbe402033	-0.18762283
236	0xbe200eca	-0.15630642
237	0x3e5a0b0f	0.21293281
238	0x3e95b6b8	0.29240966
239	0x3cbb5562	0.022867862
240	0x3de314ab	0.110879265
241	0x3dcbfd58	0.09960431
242	0xbdf881cd	-0.121341325
243	0x3ee2ad7a	0.44272977
244	0xbd318bd3	-0.043346237
245	0xbe25924b	-0.16169088
246	0xbd272f2f	-0.040816482
247	0xbdc98af8	-0.09840959
248	0x3dba35f6	0.090923235
249	0x3e5b7349	0.21430697
250	0x3e1a14cc	0.15046996
251	0xbd960e93	-0.073269986
252	0x3da36f9d	0.07980273
253	0x3e224b7b	0.15849106
254	0x3afff980	0.0019529313
255	0x3cc207a0	0.023685277

rnn.weight_hh_l1 f4 [22, 22]
0	0x3e406a84	0.18790632
1	0x3dd73b93	0.1050941
2	0xbd976043	-0.07391407
3	0x3e3f34b4	0.18672448
4	0x3d1da13a	0.038483836
5	0x3dde6563	0.10859182
6	0xbde89eee	-0.113584384
7	0x3d206a8a	0.039164104
8	0xbd23d7c0	-0.040000677
9	0x3c2850b3	0.010273146
10	0x3d19f9ad	0.037591625
11	0x3dd1ec48	0.10250145
12	0x3e4fee8c	0.20305842
13	0x3e11b1ca	0.14227977
14	0x3e2aaab1	0.16666676
15	0x3e47f90b	0.19528596
16	0x3dd4dbb3	0.10393467
17	0x3da1f910	0.07908833
18	0xbd941f75	-0.072325625
19	0xbdd3c72e	-0.10340725
20	0x3d568efc	0.052382454
21	0x3dad5bcf	0.08464777
22	0xbd9474e1	-0.072488554
23	0x3dbbeb28	0.09175712
24	0xbe5a852a	-0.2133986
25	0xbcf834eb	-0.03029867
26	0xbddd6515	-0.108102955
27	0xbb5eb3dd	-0.0033981719
28	0xbe6d4f59	-0.231748
29	0xbbb937f9	-0.0056524244
30	0xbd7ed5d0	-0.062215626
31	0x3eb0123a	0.34388906
32	0xbcc6e52a	-0.024279196
33	0x3b58da35	0.0033089046
34	0xbe4f7548	-0.20259583
35	0x3e412675	0.18862326
36	0x3ddad600	0.106853485
37	0xbeaafa3e	-0.33394045
38	0xbd6d1bb4	-0.057887748
39	0x3e10c22e	0.14136574
40	0x3db49b15	0.08818642
41	0xbe1c7e32	-0.15282515
42	0xbe815c14	-0.25265563
43	0x3d899f51	0.0671984
44	0xbd6ec60f	-0.058294352
45	0x3e1fe9f0	0.15616584
46	0x3d8832ea	0.06650336
47	0x3e58bb62	0.21165231
48	0x3e1b0c1f	0.15141343
49	0xbd3f9f93	-0.04678304
50	0xbe20ed0c	-0.15715426
51	0x3e006211	0.1253741
52	0x3e18358b	0.14864175
53	0xbe452918	-0.19253957
54	0xbe094017	-0.13403355
55	0xbd5c6f9c	-0.053817376
56	0x3e2af9ba	0.16696826
57	0x3dd233b6	0.10263769
58	0x3ceeda5e	0.02915686
59	0xbe377d43	-0.17918877
60	0xbe477097	-0.19476543
61	0x3e35f5a3	0.17769484
62	0xbe3a6252	-0.18201569
63	0xbd81b9ee	-0.063342914
64	0xbc13bbf5	-0.00901698
65	0xbe53f4c1	-0.20698835
66	0xbe188ec7	-0.14898215
67	0x3e28d166	0.16486129
68	0x3e60cf7b	0.21954148
69	0x3e15fbe2	0.14646867
70	0x3d0c66f2	0.034277864
71	0x3e01a2fc	0.1265983
72	0x3e563c1f	0.20921372
73	0x3d509ea8	0.050932556
74	0x3e38c492	0.18043736
75	0xbd1c233a	-0.038119532
76	0xbe6a79a8	-0.2289797
77	0xbdb4172a	-0.08793481
78	0xbc17253b	-0.009225185
79	0x3e256743	0.16152672
80	0x3e1bc68f	0.15212463
81	0xbc32b8b7	-0.010908297
82	0xbe73eba9	-0.23820366
83	0x3cf044d6	0.029329699
84	0xbbb482de	-0.0055087646
85	0xbe02f831	-0.1278999
86	0x3dae2fd8	0.08505219
87	0xbd769d5c	-0.060208663
88	0x3e62688b	0.22110192
89	0x3c3542c0	0.011063278
90	0xbe20527a	-0.15656462
91	0x3dc916f8	0.09818834
92	0xbe154f07	-0.14580928
93	0xbdd5650d	-0.104196645
94	0xbdce851d	-0.10083983
95	0x3dddc3de	0.10828374
96	0x3d631b95	0.055446226
97	0x3c957215	0.018242875
98	0x3e4d4410	0.20045495
99	0xbe449355	-0.19196828
100	0x3cfed04e	0.031105187
101	0xbd6ebb11	-0.05828387
102	0x3e05f7cb	0.13082807
103	0xbe1cfdd1	-0.15331198
104	0xbd9b84a3	-0.07593658
105	0x3d397b9d	0.045283902
106	0xbdec2fe3	-0.11532571
107	0xbdba49e2	-0.09096123
108	0x3e17e00c	0.14831561
109	0x3e39931f	0.18122528
110	0x3d933142	0.071871296
111	0x3e1ec639	0.15505303
112	0x3dd62ffe	0.104583725
113	0xbdda24d4	-0.10651556
114	0xbdc980cf	-0.098390214
115	0x3e07d4cf	0.13264774
116	0xbd9f4066	-0.07775955
117	0x3e8bffeb	0.27343687
118	0x3d7432af	0.05961865
119	0x3e425298	0.1897682
120	0x3dc93484	0.0982447
121	0x3dcd016e	0.10010038
122	0x3e09d23e	0.13459107
123	0xbdaeea18	-0.085407436
124	0x3e269c08	0.16270459
125	0x3e71f381	0.23628046
126	0x3d5b05d1	0.053472344
127	0x3dff604a	0.124695376
128	0x3d19d0e8	0.037552744
129	0x3e06b39b	0.13154452
130	0xbe0cccf9	-0.13750066
131	0xbe17d21e	-0.14826247
132	0x3e2537bb	0.1613454
133	0xbdc85638	-0.0978207
134	0xbd958f83	-0.07302763
135	0xbe1cb04b	-0.15301625
136	0x3da0cc62	0.07851483
137	0x3e074da4	0.13213211
138	0xbe5c1d5e	-0.21495578
139	0x3e4dc894	0.20096046
140	0x3dc872f5	0.09787551
141	0x3e6a64f9	0.2289008
142	0xbd198afd	-0.037486065
143	0xbeeae1c4	-0.4587537
144	0xbca1e929	-0.0197645
145	0x3c828762	0.015933696
146	0x3d840ca9	0.06447727
147	0xbe071da4	-0.13194901
148	0x3e0c1fb6	0.13683972
149	0xbe5a3160	-0.21307898
150	0x3d7fcf02	0.062453277
151	0x3e0cc3ae	0.13746521
152	0xbe1d01f8	-0.15332782
153	0xbdb84470	-0.089974284
154	0x3dc91904	0.098192245
155	0x3def2411	0.11676801
156	0xbceb1038	-0.028694257
157	0xbe014950	-0.12625623
158	0x3db5c7dd	0.088760115
159	0xbd9ae53f	-0.075632565
160	0xbe3bbe97	-0.18334423
161	0x3aaa8d6e	0.001301212
162	0x3df467c2	0.11933853
163	0xbe534568	-0.20631945
164	0xbd60d93c	-0.05489467
165	0xbd89fd22	-0.067377344
166	0xbda81d50	-0.08208716
167	0xbe2c4ed7	-0.1682695
168	0x3cd64a08	0.026158348
169	0x3e2f21ce	0.17102739
170	0xbd9e8fb8	-0.07742256
171	0x3d8cf0c5	0.06881861
172	0xbdeb8633	-0.11500206
173	0xbe4d3976	-0.20041451
174	0xbd827dbf	-0.063716404
175	0xbc1cf1f1	-0.009579168
176	0x3dbed37d	0.09317682
177	0x3d93fffd	0.0722656
178	0xbe7b2c0c	-0.24528521
179	0xbd7efbd2	-0.062251873
180	0x3acbfd5b	0.0015563177
181	0x3de07f99	0.10961837
182	0x3bf23f4e	0.0073928004
183	0xbd87a835	-0.0662388
184	0xbdfd3e67	-0.12365418
185	0xbde29596	-0.110636875
186	0xbe4d85e3	-0.20070605
187	0xbe310207	-0.1728593
188	0x3dd09aa8	0.10185748
189	0xbcaa69e6	-0.02080245
190	0xbe684690	-0.22683167
191	0x3e01e45f	0.12684773
192	0xbe000000	-0.125
193	0x3e38a42f	0.18031381
194	0x3dc0a015	0.09405533
195	0x3e6b0419	0.22950782
196	0x3d0d5782	0.034507282
197	0x3e503086	0.2033101
198	0xbe47df1b	-0.19518702
199	0x3e48216b	0.19543998
200	0xbf105467	-0.5637879
201	0xbf07b4c3	-0.53010195
202	0x3e0157f5	0.12631209
203	0xbcba4140	-0.022736192
204	0xbdd10a87	-0.10207086
205	0xbd5c9f96	-0.05386313
206	0x3c68a245	0.014198844
207	0x3ef0ec30	0.47055197
208	0x3e35d671	0.17757584
209	0x3e465d9c	0.19371647
210	0xbe20835f	-0.15675114
211	0xbe67eb6c	-0.226484
212	0xbe18a718	-0.14907491
213	0xbc5bc1a8	-0.0134128705
214	0x3dc1c695	0.09461705
215	0x3cf5d136	0.030006986
216	0xbe340cd8	-0.17583025
217	0xbe1c69d5	-0.15274747
218	0xbe26fcc6	-0.16307363
219	0x3e11a762	0.14224008
220	0xbe47f6b2	-0.195277
221	0x3dc83c2e	0.09777103
222	0x3e441f75	0.19152625
223	0xbcd698e2	-0.026195947
224	0x3c40f0ab	0.01177613
225	0x3e415461	0.18879844
226	0xbd97ad13	-0.07406058
227	0xbd2611d8	-0.04054436
228	0xbd6236f6	-0.055228196
229	0x3db9add2	0.09066357
230	0xbe095489	-0.13411154
231	0xbe264b04	-0.16239554
232	0x3e2d54ad	0.16926832
233	0x3e261b44	0.16221339
234	0xbda49af2	-0.08037366
235	0xbd6d776d	-0.05797522
236	0x3da87e94	0.08227268
237	0x3d5d75b2	0.05406732
238	0x3b81b5a5	0.0039584213
239	0x3e0654b4	0.13118249
240	0x3df193cd	0.11795769
241	0x3d92aca8	0.07161838
242	0x3e646a2a	0.22306123
243	0x3e12f8ee	0.14352772
244	0xbe9dbe1f	-0.30809113
245	0xbdd5da45	-0.10442022
246	0x3e0fa7f8	0.14028919
247	0x3e024b5e	0.12724063
248	0xbe65d42b	-0.22444217
249	0xbe2af9cb	-0.16696851
250	0x3e3f3a70	0.18674636
251	0x3dc165ae	0.09443222
252	0xbd698ea0	-0.057020783
253	0x3c94c81b	0.018161824
254	0xbe0651ad	-0.13117094
255	0xbe0b7b46	-0.13621244

rnn.bias_ih_l1 f4 [22]
0	0x3e51fc40	0.20506382
1	0x3e3b3d3e	0.18285081
2	0xbd99a916	-0.07502954
3	0xbd096d48	-0.033551484
4	0x3c0f6ed7	0.008754454
5	0x3c27c2cd	0.010239315
6	0x3da677ab	0.081282936
7	0xbe3b25ab	-0.18276088
8	0x3d7a97a6	0.06117978
9	0xbd5f3275	-0.05449148
10	0xbe8051b3	-0.25062332
11	0xbe442311	-0.19154002
12	0x3d655955	0.055993397
13	0xbd8dd455	-0.06925265
14	0x3e0e216e	0.1387994
15	0xbe130027	-0.14355527
16	0x3e106223	0.14099936
17	0x3e06d868	0.1316849
18	0x3e1cc5ca	0.15309826
19	0xbd240191	-0.040040556
20	0xbe172659	-0.14760722
21	0xbd81c3c3	-0.06336167

rnn.bias_hh_l1 f4 [22]
0	0xbd1f17b5	-0.03884097
1	0x3d89d3bf	0.067298405
2	0x3dfeea8a	0.124470785
3	0x39a93831	0.00032276058
4	0xbe2562e0	-0.16150999
5	0xbe5325ea	-0.20619932
6	0x3e3e285b	0.18570082
7	0xbd911723	-0.07084491
8	0x3e07ccb3	0.1326168
9	0xbd96b08f	-0.07357895
10	0x3e073cdd	0.13206811
11	0xbe278d3b	-0.16362469
12	0x3e2b1026	0.16705379
13	0x3df7181b	0.12065145
14	0x3d9be019	0.076111026
15	0xbe3d3889	-0.18478598
16	0x3c901490	0.01758793
17	0x3e18300e	0.14862081
18	0xbdd96e62	-0.10616757
19	0xbe1dd511	-0.1541331
20	0x3a2e4db9	0.0006649155
21	0x3e52e81a	0.20596352

fc.weight f4 [1, 22]
0	0x3deea9a4	0.1165345
1	0x3e05a0fd	0.13049693
2	0xbe559695	-0.20858224
3	0xbe720693	-0.2363532
4	0xbd8076af	-0.06272637
5	0xbe5aeaf6	-0.21378693
6	0xbe1613c3	-0.14655976
7	0x3dfb140c	0.12259683
8	0x3e2bb856	0.16769537
9	0x3e8d001f	0.27539155
10	0xbe2ad960	-0.16684484
11	0xbe072bc6	-0.13200292
12	0x3bc8b88e	0.0061255163
13	0xbdbcaa7d	-0.092122056
14	0xbdb18980	-0.08668804
15	0xbe1cdc21	-0.15318348
16	0x3e5d5977	0.2161616
17	0x3e78eca3	0.2430902
18	0xbdf64316	-0.120245144
19	0x3e2a88e7	0.16653787
20	0xbe2df749	-0.16988863
21	0x3e47b9ac	0.19504422

exp_avg f4 [22, 2]
0	0xbb456761	-0.0030121433
1	0xbb68a836	-0.0035500652
2	0x39d7ffa3	0.0004119846
3	0x3a838141	0.0010033028
4	0x38fcec50	0.00012060313
5	0xb7301eb0	-1.04975625e-05
6	0x3a5a30ae	0.0008323294
7	0x3b09a445	0.0021002453
8	0xba75aedc	-0.00093720644
9	0xba8c5a4c	-0.0010708063
10	0xb7f5cfc0	-2.9303017e-05
11	0x38bba066	8.9467314e-05
12	0xbb033c3d	-0.0020024918
13	0xbb59bd7e	-0.0033224518
14	0xb9c76110	-0.00038028555
15	0xb84c4724	-4.8703645e-05
16	0x80000004	-6e-45
17	0x80000004	-6e-45
18	0x38e124fe	0.000107357264
19	0xba051b51	-0.0005077618
20	0x399ebd89	0.00030277323
21	0xb7344ed5	-1.0747191e-05
22	0x00000004	6e-45
23	0x80000004	-6e-45
24	0x00000000	0.0
25	0x00000000	0.0
26	0xba26a90e	-0.00063575886
27	0x392b07c8	0.0001631073
28	0xb9b6234c	-0.00034740043
29	0xb9a07956	-0.0003060798
30	0x3a54eec2	0.0008122736
31	0x3a37f502	0.0007017405
32	0xbb770431	-0.0037691707
33	0xbbb200cc	-0.005432224
34	0x3ad5d8ca	0.0016315219
35	0x3b1332a0	0.0022460595
36	0xbb6a0494	-0.0035708295
37	0xbbb0ed66	-0.005399394
38	0x39cecc30	0.00039443513
39	0x3a9a3ffb	0.0011768335
40	0xbb476d81	-0.003043026
41	0xbb8541c4	-0.0040666778
42	0x00000000	0.0
43	0x00000000	0.0
